concepts_sequential/saved_probes/advancedPawn_layer_10_probe.pth (torch, 372944 bytes, 5 tensors)

conv1.weight f4 [32, 256, 3, 3]
0.0043938714 0.013231326 -0.0035784147 -0.018789476 -0.036226697 -0.029932138 -0.047218222 -0.029157424
-0.027344037 -0.012776808 0.0271907 0.0139831435 0.017743418 0.008340757 0.019769628 -0.00064973295
0.021690752 0.0017207231 -0.0110979 0.00052560365 -0.0033829748 0.005503372 -0.0035743532 0.024334328
-0.0044738776 -0.001886136 0.004464281 -0.030200878 0.011012376 -0.041526664 -0.06261943 -0.11070001
-0.08348469 -0.13393773 -0.14519547 -0.1211085 0.01506843 0.029834503 0.014252452 0.023415418
0.03662857 0.025745634 0.050581895 0.059446774 0.05050344 -0.008781791 0.009250791 -0.0019917162
0.01750113 0.0049536168 -0.022892512 0.008970746 0.024169087 0.048320435 0.0005389784 0.014097824
0.0038501376 -0.0026127584 0.013768793 -0.008847005 -0.0013168642 -0.0076603927 -0.0011537072 -0.011041389
-0.0038589376 -0.0139337415 0.020818336 -0.01777979 -0.0146583775 -0.008480078 0.014513385 0.006027774
0.017219972 -0.014034798 -0.011936801 -0.011182489 -0.009709885 0.01369153 0.009114457 0.014174768
-0.00049916335 -0.0039704638 0.0047217966 -0.014714613 0.012088585 -0.010577707 0.011752511 -0.012597547
-0.008520377 0.020960892 -0.008522437 -0.017520372 -0.0051401164 -0.0007538689 -0.037230942 -0.03724059
0.00055470265 -0.021631654 -0.03882399 -0.018559301 -0.0053386455 0.010695309 -0.0021782643 -0.019584745
-0.0056791822 -0.013472002 -0.024820745 -0.0160065 -0.014145564 0.00017118429 0.023097161 0.005121209
-0.002384205 -0.012215201 -0.0023355535 0.015894657 0.020172257 0.00750126 0.0022547275 0.0011533608
0.00807113 -0.00299854 -0.0043867063 -0.019601272 -0.0077357106 -0.023225604 -0.008029402 -0.01064422
0.02023307 -0.01897616 0.01180406 0.0008320215 -0.028791673 0.007951781 -0.027693368 -0.016576592
0.0040200786 -0.011717978 -0.024964431 -0.037438057 -0.019557187 -0.07090643 -0.047456816 -0.07640917
-0.020409992 -0.006938536 0.004484407 -0.0034522305 -0.00037544887 -0.025032856 0.009090012 -0.012087461
-0.006751236 -0.02451425 0.009912465 -0.020936813 0.019047232 0.009843079 0.004591549 0.0067338734
0.033784263 0.015839431 0.013637389 -0.0038191334 0.020201609 -0.0063983086 -0.0072977752 0.020488743
-0.019328587 -0.032953113 -0.027359355 -0.01390748 -0.011591964 -0.024561167 -0.029781515 -0.020866046
-0.025529193 -0.0017372038 0.0039595133 -0.037586328 -0.00041397478 0.007089804 -0.0035872606 -0.019954264
0.00027462537 -0.0015902531 -0.0061264797 -0.016298214 -0.020088112 -0.009437227 -0.02373789 -0.015075835
0.008801704 0.0019150348 -0.0062044696 -0.0037277245 -0.0132058645 0.0010034931 0.010061667 0.008796999
-0.026893301 -0.0027221502 0.021678114 0.027377825 0.013864615 -0.00014316996 0.016741991 -0.014775729
0.0033235045 0.0019628063 0.05939612 0.03157836 0.013114413 0.040041137 0.041562423 0.053256694
0.0112649575 0.0011590942 0.016788086 0.009206548 -0.0020490838 0.031213423 0.015142804 0.025798658
0.014329712 0.04965234 0.03990596 0.027695993 -0.00919815 -0.025383811 -0.026907409 0.027269343
0.0020007042 0.0031174396 0.016675573 0.016661454 0.0132115055 -0.0035815032 0.009026694 -0.004850998
0.039756175 0.01721841 0.02274969 -0.018408533 -0.011918819 -0.012779503 -0.020267552 -0.003741091
-0.009081006 -0.0018708591 -0.009142447 -0.019655168 0.001764165 -0.0052197957 0.005285583 -0.0018336617
00000000: 77fa 8f3b 34c8 583c d683 6abb 63ec 99bc
00000010: 7262 14bd 3e34 f5bc e567 41bd 8ddb eebc
00000020: 9a00 e0bc d155 51bc 08bf de3c 8e19 653c
00000030: a55a 913c aca7 083c eaf3 a13c d752 2aba
00000040: ceb0 b13c e389 e13a f7d3 35bc aac8 093a
00000050: e6b4 5dbb a155 b43b b23f 6abb c958 c73c
00000060: 9b99 92bb 3938 f7ba 1a49 923b d567 f7bc
00000070: 416d 343c dd17 2abd 9e3e 80bd b0b6 e2bd
00000080: 05fa aabd f926 09be 1fae 14be bc07 f8bd
00000090: 94e1 763c 7d67 f43c 1e83 693c b1d1 bf3c
000000a0: d707 163d 82e8 d23c f62e 4f3d 767e 733d
000000b0: b2dc 4e3d 80e1 0fbc a190 173c 7487 02bb
000000c0: 885e 8f3c f351 a23b 1489 bbbc 09fa 123c
000000d0: 40fe c53c a6eb 453d 3a4a 0d3a 8ffa 663c
000000e0: 9752 7c3b d03a 2bbb 8196 613c 07f3 10bc
000000f0: a19a acba 0804 fbbb fd37 97ba f1e6 34bc
00000100: 3be6 7cbb 594a 64bc 378b aa3c eca6 91bc
00000110: b129 70bc 06f0 0abc 8cc9 6d3c a284 c53b
00000120: e610 8d3c 36f2 65bc 9292 43bc c236 37bc
00000130: 3616 1fbc 7052 603c ce54 153c 493d 683c
00000140: 49da 02ba aa1a 82bb 4db9 9a3b 8f15 71bc
00000150: 330f 463c 1e4e 2dbc 9b8d 403c f165 4ebc
00000160: 0d99 0bbc 2db6 ab3c b1a1 0bbc e286 8fbc
00000170: 6c6e a8bb 499f 45ba 797f 18bd 9789 18bd
00000180: 7769 113a de34 b1bc e705 1fbd ad09 98bc
00000190: ceef aebb 613b 2f3c 36c1 0ebb 3070 a0bc
000001a0: 6f18 babb acb9 5cbc e054 cbbc 1020 83bc
000001b0: ccc2 67bc ef7f 3339 4236 bd3c d1cf a73b
000001c0: 5340 1cbb 4422 48bc 1610 19bb 8335 823c
000001d0: 4a40 a53c 21cd f53b 0dc4 133b 5e2c 973a
000001e0: c63c 043c 2783 44bb 5cbe 8fbb d992 a0bc
000001f0: d87b fdbb 9f43 bebc c18d 03bc 1865 2ebc
00000200: d3bf a53c e473 9bbc d165 413c 051c 5a3a
00000210: 84dc ebbc 3048 023c 34dd e2bc a2cb 87bc
00000220: ddba 833b c3fc 3fbc 3582 ccbc a658 19bd
00000230: 6536 a0bc 6437 91bd 1462 42bd 697c 9cbd
00000240: db32 a7bc a95c e3bb eff1 923b d13e 62bb
00000250: e5d7 c4b9 b411 cdbc 46ee 143c 7c0a 46bc
00000260: 7939 ddbb 1cd2 c8bc e467 223c ae83 abbc
00000270: f108 9c3c de44 213c b474 963b d3a7 dc3b
00000280: 5e61 0a3d b2c1 813c 5b6f 5f3c 6d4a 7abb
00000290: d87d a53c e7a8 d1bb 2d22 efbb 02d8 a73c
000002a0: fc56 9ebc d8f9 06bd ba20 e0bc 33dc 63bc
000002b0: 39ec 3dbc 8034 c9bc 5df8 f3bc 45ef aabc
000002c0: 9922 d1bc e3b2 e3ba cebe 813b 1ff4 19bd
000002d0: c10a d9b9 9651 e83b 3f18 6bbb 2077 a3bc
000002e0: 98fb 8f39 0a70 d0ba a3c0 c8bb d583 85bc
000002f0: d38f a4bc 999e 1abc f775 c2bc a300 77bc
00000300: 0635 103c e801 fb3a dd4e cbbb d74c 74bb
00000310: 695d 58bc a487 833a b1d9 243c 4a21 103c
00000320: 574f dcbc 1a66 32bb 4d96 b13c 7647 e03c
00000330: 6928 633c e51f 16b9 8026 893c e615 72bc
00000340: 27cf 593b 6da2 003b 5949 733d 4f58 013d
00000350: d6dd 563c 2d02 243d 5c3d 2a3d b123 5a3d
00000360: a890 383c bfec 973a 2b87 893c 10d7 163c
00000370: ec49 06bb 4bb3 ff3c 8619 783c b557 d33c
00000380: 2bc7 6a3c 4160 4b3d 6f74 233d b5e2 e23c
00000390: d6b3 16bc b6f1 cfbc ed6c dcbc f563 df3c
000003a0: 3f1e 033b f54d 4c3b 369b 883c 9a7d 883c
000003b0: 1275 583c a7b7 6abb b3e4 133c 1ff5 9ebb
000003c0: 5fd7 223d 9f0d 8d3c 8f5d ba3c 7ecd 96bc
000003d0: 2647 43bc 1f61 51bc 2308 a6bc 172d 75bb
000003e0: 80c8 14bc 9d37 f5ba 34ca 15bc e003 a1bc
000003f0: 8e3b e73a d20a abbb af32 ad3b 7a57 f0ba

conv1.bias f4 [32]
-0.0017187903 0.018346738 0.010459434 -0.017423343 -0.0034880228 0.026266122 -0.018866904 0.0021930411
0.017559975 0.008231556 -0.018567761 0.015394484 0.0025084692 -0.019353757 0.006738514 -0.017232211
0.01935245 0.005149457 -0.007810165 0.01945078 0.012818128 0.007781508 0.010960184 -0.0119040925
0.014341252 -0.016724123 0.0071427403 -0.018327918 -0.002808901 -0.01096004 -0.006420205 -0.002170702
00000000: 0849 e1ba e64b 963c 0c5e 2b3c 66bb 8ebc
00000010: 5097 64bb 0d2c d73c c48e 9abc 20b9 0f3b
00000020: f0d9 8f3c a6dd 063c 6b1b 98bc 2539 7c3c
00000030: 2165 243b c58b 9ebc c1ce dc3b 912a 8dbc
00000040: 0789 9e3c c7bc a83b 6aec ffbb 3e57 9f3c
00000050: 2003 523c 05fc fe3b 5892 333c 6209 43bc
00000060: 92f7 6a3c 0701 89bc a60d ea3b 6e24 96bc
00000070: 8a15 38bb bd91 33bc 9560 d2bb 5642 0ebb

conv2.weight f4 [64, 32, 3, 3]
0.008193169 0.06849612 0.07022747 0.094794884 0.056568936 0.11064821 0.016643254 0.027272064
0.059268896 -0.0020830538 -0.03130849 0.02444757 -0.05797948 0.0036936507 0.030057285 0.036939323
-0.015744051 -0.04868266 0.04457152 -0.016953498 -0.03634236 -0.059393402 0.010579653 0.034168437
0.03414035 -0.04963713 0.012879834 0.0087619405 -0.02558622 0.048460003 -0.008782133 -0.052472815
-0.0043901666 -0.0167097 -0.059929404 0.03257998 0.047554374 0.0011446647 -0.014535732 -0.05880395
0.019518882 -0.0389859 0.015868578 0.0009073869 0.05872647 0.03368414 0.03802066 0.038628794
0.07740233 0.055086844 -0.020909926 0.027213227 -0.02199684 0.066872835 -0.06307216 -0.068694964
-0.024629699 0.003565914 -0.082237676 -0.09432537 -0.04891433 -0.008908891 0.00012637294 0.111760385
0.028316397 0.091266565 0.09789929 0.054579206 0.083808035 0.029742695 0.02157395 0.05908109
0.05618211 -0.0101991035 0.010145482 0.022694495 -0.016633302 0.07910157 -0.015476309 0.08592755
0.0082071265 0.043182373 -0.0094113685 0.077059686 -0.0082525015 0.048744574 0.008152174 0.082070164
0.018145688 0.034028552 0.03658353 0.013424131 0.02625646 0.082947835 0.019145062 0.057792477
0.0039655957 0.03152275 0.07696606 -0.018237388 -0.059894394 0.028971434 -0.026430452 -0.06703837
-0.050092325 0.020598717 -0.04250331 0.018541008 0.003678577 0.04928959 0.008903663 0.06323907
-0.046592306 -0.03525782 0.047043968 -0.0147187775 0.0369303 0.022402208 0.04479646 0.017093703
0.04638144 -0.00064648147 0.012704244 0.07492199 0.027065497 -0.030631453 0.03934343 -0.012885262
-0.0618284 0.0007167898 0.03781815 -0.06393671 0.036605727 0.005475492 -0.052044496 0.07603299
0.03821152 0.03842227 0.0042964397 0.08341465 0.00051721715 0.07377599 0.0660344 0.016799621
-0.004756826 0.0068953023 0.002407562 -0.054795757 0.013815469 -0.048148416 -0.067557134 0.034631785
-0.013242697 0.0052714427 0.025568828 -0.00743675 0.07725329 0.016687347 -0.0102142785 0.04305924
0.09668957 0.034756035 -0.02804208 -0.014814124 -0.03148534 -0.049848225 -0.093906425 -0.100675836
-0.0828256 -0.100964695 -0.048131276 0.03396234 0.031724684 0.07063102 0.024493687 0.0026446502
0.0031602876 0.056965932 -0.015857553 -0.0028519812 -0.042532872 0.026583938 0.04812767 0.05151741
-0.009454522 0.01077096 -0.03229611 -0.011142285 0.007401412 -0.065274864 -0.07884065 -0.013589702
-0.089797355 0.015080571 -0.019421965 -0.03221112 -0.0478297 -0.065941416 0.070608325 0.035385106
0.055784322 0.052263003 0.055071935 0.038868327 0.024975823 0.032572187 0.009291062 0.012316314
0.065320134 0.017891362 -0.0032560902 0.04851284 0.05215653 0.06939157 0.013881164 0.01406549
0.07837678 -0.022324571 0.0074203825 0.01778604 0.04418478 0.084803246 -0.006718286 0.0019822745
-0.0061166002 0.011600222 -0.019072589 -0.043271624 0.011262782 0.017860414 -0.06322255 -0.06267523
-0.00040003756 -0.051719967 0.053068675 -0.03467191 0.043945707 0.055995125 -0.03352495 -0.046103742
0.0005122362 0.022821544 0.0008160511 0.0056051314 -0.013370801 -0.034290887 0.023190035 -0.036643527
-0.01266523 -0.06743184 -0.050679836 0.03741569 0.03300957 -0.018137136 -0.011545777 -0.060076643
00000000: a43c 063c b247 8c3d 6bd3 8f3d d223 c23d
00000010: d4b4 673d 879b e23d 6f57 883c aa69 df3c
00000020: f1c3 723d d883 08bb 553d 00bd 4546 c83c
00000030: e47b 6dbd 2d11 723b b23a f63c b04d 173d
00000040: abf9 80bc 7867 47bd a090 363d 10e2 8abc
00000050: badb 14bd 7f46 73bd 4856 2d3c 34f4 0b3d
00000060: c0d6 0b3d 4e50 4bbd f005 533c 3e8e 0f3c
00000070: 319a d1bc ff7d 463d f0e2 0fbc bced 56bd
00000080: 63db 8fbb c8e2 88bc 8978 75bd 9672 053d
00000090: 60c8 423d 9308 963a 4727 6ebc 69dc 70bd
000000a0: 10e6 9f3c aeaf 1fbd d2fe 813c b4dd 6d3a
000000b0: 2b8b 703d 61f8 093d 8dbb 1b3d 3a39 1e3d
000000c0: 1d85 9e3d bea2 613d 4b4b abbc 46ee de3c
000000d0: b832 b4bc a0f4 883d fa2b 81bd f2af 8cbd
000000e0: 39c4 c9bc 1cb2 693b 3a6c a8bd a92d c1bd
000000f0: 645a 48bd 99f6 11bc fa82 0439 a1e2 e43d
00000100: caf7 e73c f7e9 ba3d 6c7f c83d 728e 5f3d
00000110: 8ca3 ab3d f4a6 f33c dabb b03c 03ff 713d
00000120: 361f 663d 241a 27bc 3c39 263c cee9 b93c
00000130: 9042 88bc 0100 a23d 5890 7dbc c9fa af3d
00000140: 2f77 063c 00e0 303d 2432 1abc 78d1 9d3d
00000150: 8035 07bc 64a8 473d b290 053c 6714 a83d
00000160: 44a6 943c 8661 0b3d 9dd8 153d e3f0 5b3c
00000170: ca17 d73c 8ee0 a93d 1bd6 9c3c ceb7 6c3d
00000180: d4f1 813b 001e 013d 62a0 9d3d 9366 95bc
00000190: d353 75bd 8055 ed3c ad84 d8bc 6a4b 89bd
000001a0: 9c2d 4dbd a4be a83c f317 2ebd 50e3 973c
000001b0: 4814 713b e2e3 493d abe0 113c 7c83 813d
000001c0: 93d7 3ebd 816a 10bd 2db1 403d 0727 71bc
000001d0: 3a44 173d d684 b73c 7e7c 373d 1808 8c3c
000001e0: 77fa 3d3d a378 29ba 7625 503c b370 993d
000001f0: 76b8 dd3c d0ee fabc 9426 213d b51c 53bc
00000200: c73f 7dbd f3e6 3b3a 34e7 1a3d 40f1 82bd
00000210: e3ef 153d c26b b33b 9c2c 55bd 2fb7 9b3d
00000220: af83 1c3d ac60 1d3d 26c9 8c3b 4dd5 aa3d
00000230: db95 073a de17 973d 0b3d 873d 5c9f 893c
00000240: 26df 9bbb fdf1 e13b 30c8 1d3b 8471 60bd
00000250: 475a 623c 4637 45bd 655b 8abd 0fda 0d3d
00000260: e6f7 58bc 11bc ac3b b875 d13c fbaf f3bb
00000270: f936 9e3d e7b3 883c ca59 27bc e35e 303d
00000280: 2e05 c63d 585c 0e3d 81b8 e5bc f1b6 72bc
00000290: c6f6 00bd a72d 4cbd 0352 c0bd 222f cebd
000002a0: 78a0 a9bd 94c6 cebd 4d25 45bd 181c 0b3d
000002b0: bef1 013d ffa6 903d fca6 c83c de51 2d3b
000002c0: d41c 4f3b 1c55 693d b3e7 81bc 4ee8 3abb
000002d0: f336 2ebd 8fc6 d93c 8521 453d eb03 533d
000002e0: 24e7 1abc ae78 303c ed48 04bd 218e 36bc
000002f0: 8b87 f23b d4ae 85bd 3577 a1bd 57a7 5ebc
00000300: ade7 b7bd 8014 773c d01a 9fbc cfef 03bd
00000310: 13e9 43bd 4b0c 87bd 199b 903d f9ef 103d
00000320: 1a7e 643d bb11 563d 1c93 613d 6534 1f3d
00000330: 199a cc3c 6a6a 053d 8a39 183c 5dca 493c
00000340: 90c6 853d e890 923c 2164 55bb 66b5 463d
00000350: 16a2 553d 2b1d 8e3d d26d 633c f172 663c
00000360: 0184 a03d 05e2 b6bc ae26 f33b 08b4 913c
00000370: 1afb 343d 53ad ad3d 1125 dcbb 0ce9 013b
00000380: c36d c8bb dc0e 3e3c 1e3e 9cbc 963d 31bd
00000390: 8887 383c 0150 923c d37a 81bd df5b 80bd
000003a0: 22bc d1b9 51d8 53bd 8a5e 593d 2204 0ebd
000003b0: 6a00 343d 255b 653d 7551 09bd 47d7 3cbd
000003c0: 9747 063a 3ff4 ba3c 43ec 553a 40ab b73b
000003d0: 3411 5bbc 9a74 0cbd 07f9 bd3c 8617 16bd
000003e0: d381 4fbc b419 8abd a995 4fbd 3241 193d
000003f0: 0b35 073d 5594 94bc 802a 3dbc ed12 76bd

conv2.bias f4 [64]
-0.05536077 0.008590734 0.01100741 -0.0068161977 -0.029475426 -0.0017341371 -0.0531062 0.046698924
0.041136514 0.044591647 0.030543003 -0.013155004 0.011328047 -0.045340315 -0.020219866 -0.049166277
-0.011977145 -0.04936856 -0.02319109 -0.051441878 -0.027456352 -0.04515194 -0.0049422155 0.0050911265
0.036324266 0.010792755 -0.03318111 0.033174336 0.0025503382 -0.052777775 -0.0042229933 0.04367045
-0.041988775 -0.046410326 0.009494494 0.05143626 -0.046433665 0.044116855 -0.050117623 0.038029913
0.04348704 0.05194475 -0.013130129 0.014552784 -0.05837054 -0.057660934 0.043992344 0.014967494
0.01895735 -0.018537397 -0.022318996 -0.0067349286 0.0084386 0.032677703 0.010578876 -0.042318188
0.0065955203 -0.030094907 -0.04780768 -0.0095954165 -0.019526027 0.049239878 0.048798602 0.042089935
00000000: fac1 62bd 26c0 0c3c 6c58 343c 695a dfbb
00000010: 7376 f1bc fc4b e3ba e385 59bd 5f47 3f3d
00000020: c37e 283d bba5 363d 5235 fa3c 1688 57bc
00000030: 4699 393c c4b6 39bd 22a4 a5bc 9462 49bd
00000040: ca3b 44bc b036 4abd 3efb bdbc b8b4 52bd
00000050: 25ec e0bc 3ef1 38bd 4ff2 a1bb 77d3 a63b
00000060: c1c8 143d 18d4 303c eae8 07bd d0e1 073d
00000070: 9323 273b 822d 58bd 0961 8abb c9df 323d
00000080: 6cfc 2bbd c118 3ebd cb8e 1b3c d4ae 523d
00000090: 3a31 3ebd e0b3 343d 2348 4dbd 41c5 1b3d
000000a0: 771f 323d 05c4 543d c11f 57bc cd6e 6e3c
000000b0: f315 6fbd df2d 6cbd 5131 343d 383a 753c
000000c0: 724c 9b3c bddb 97bc 54d6 b6bc adb0 dcbb
000000d0: 0e42 0a3c 0ed9 053d 0653 2d3c d655 2dbd
000000e0: 3c1f d83b 9889 f6bc fcd1 43bd 1836 1dbc
000000f0: 0cf5 9fbc c1af 493d 0be1 473d 7f66 2c3d

linear.weight f4 [1, 64]
-0.16932958 0.1409029 0.11339079 -0.082764044 0.15924329 -0.11839951 0.09568117 0.10650732
0.08768944 0.1709447 -0.19049524 0.09429705 -0.07185061 -0.16557501 0.1732206 0.17590784
0.17358929 -0.07328201 0.07131793 0.16535667 0.090755284 0.17432143 0.11138107 -0.08976647
0.12049092 -0.07200337 0.15748577 -0.1585806 0.15820253 -0.102051385 0.15670258 -0.08717149
0.075310096 0.13242792 -0.17212875 -0.17452095 0.068227015 -0.18637991 0.1509849 0.07172651
0.124079585 -0.109312356 -0.07543531 0.14002098 0.16476513 0.100729905 -0.06762155 -0.15167886
-0.13124031 0.08887281 0.13948254 0.09561172 0.17479593 0.09179399 0.16613804 -0.092420734
0.024587752 -0.16690911 -0.08314999 -0.1889739 -0.1573141 -0.11532786 -0.18885995 -0.16117014
00000000: bc64 2dbe da48 103e 6e39 e83d 3280 a9bd
00000010: ac10 233e 717b f2bd 7df4 c33d 8320 da3d
00000020: 8596 b33d 210c 2f3e 2f11 43be d01e c13d
00000030: 6a26 93bd 7f8c 29be be60 313e 2f21 343e
00000040: 64c1 313e e114 96bd 230f 923d 4253 293e
00000050: e8dd b93d 5181 323e c21b e43d 7cd7 b7bd
00000060: f2c3 f63d 8176 93bd f343 213e f462 22be
00000070: d8ff 213e 5100 d1bd a476 203e f786 b2bd
00000080: 2e3c 9a3d 2f9b 073e 8542 30be 9fb5 32be
00000090: 9bba 8b3d 60da 3ebe c99b 1a3e 59e5 923d
000000a0: 701d fe3d 28df dfbd d47d 9abd a961 0f3e
000000b0: 31b8 283e 7b4b ce3d 2b7d 8abd b451 1bbe
000000c0: dc63 06be f302 b63d 83d4 0e3e 14d0 c33d
000000d0: b4fd 323e 7dfe bb3d 1720 2a3e 1547 bdbd
000000e0: 416c c93c 39ea 2abe 8b4a aabd 6082 41be
000000f0: f316 21be 0331 ecbd 8164 41be c909 25be
