concepts_sequential/saved_probes/attackingF2F7_layer_10_probe.pth (torch, 372954 bytes, 5 tensors)

conv1.weight f4 [32, 256, 3, 3]
00000000: 8eb8 f03c dd8c 013d 6631 473c c999 ac3c
00000010: f9e8 9e3c 2997 acbc 5ab3 98bc 5a5d 8f3b
00000020: 25ab e23c 84c5 8bbc ca28 813c 0f1a b73c
00000030: 0763 843c adc3 d13a f241 633c d880 1f3c
00000040: 5091 bc3b fcad 74bc a7ee a1bc cb6b 27bb
00000050: b3e5 75bb 451d a4bb a9fc a03b a09a c73c
00000060: b649 66bb 629c a4ba 9209 a3bb eeaa 90bd
00000070: c7cf 3f3c 81a8 f2bc ce4b 04bd 78cf fabc
00000080: 237b 8abc 3fba a9bc 623f 78bc e70b 033d
00000090: 0db7 85bb e184 f7bb 5b37 babc 3066 ffbc
000000a0: 10c7 a3bc 1027 0cbc 82c3 83bd 9189 993c
000000b0: 4c37 7e3d 4ad0 ffbc 2a1f ef3c a6a7 1f3d
000000c0: d7c2 ecbc ffbf 833b fc83 643d e1d7 813d
000000d0: 21ee 38bd 7ac0 d03c 7b17 9f3c 108a c03b
000000e0: 0c31 ae3c 01e2 303b bb34 1d3d 443f 8ebc
000000f0: bced 90bc 9222 8b3c 85c2 be3b 75f4 c4bb
00000100: cf9e 053b 45fa a6bc 4fc0 ae3c 4940 34bc
00000110: 073c 83bc 5b9c 5abc 5472 953c 0fff 8dba
00000120: 1a5e 143d 2b2c c33b 2499 ba3a aac2 6bbc
00000130: 2749 953b 9c52 573c b8eb f43c d16d c93c
00000140: 2417 b3bb 51ff 49bc e178 903c c90a 17bc
00000150: 0acb d93c 953d 0dbb 13b2 003d 9c2d 80bc
00000160: 82d9 6a3b 9509 043c 0420 43bd 0b3a 82bd
00000170: cf6e 0f3d 7fff 903d 0c2d e73c 7be8 78bc
00000180: 8bdf 923d 6bed 34bc e04b 21bc 537a aebb
00000190: 1f93 e23a 2a2e 19bc e9e6 243c 5017 cbbc
000001a0: b079 8dbc 0a6c 82bc 76e1 d9bc ab6c e1bc
000001b0: 845d 09bd ab1b 47bd 3ea4 333d cebe 25bc
000001c0: 8ec1 d0bc 00e1 5dbc 4224 303d 1a78 3cbd
000001d0: a76c e8bc 64ae c13c 0dfb dabb 7f04 3cbd
000001e0: ff34 dc3c 203a 81bb c80e 68bc cf3c e0bc
000001f0: 9c02 21bd 4e02 1ebd d50c 8abc 7d4d 24bc
00000200: 7fed 1f3b 45a1 aabc 297b 403c ac30 a63c
00000210: 8e11 81bc 6c9e dc3c ff10 7f3c 1660 77bc
00000220: 9287 c9bb 9325 c9bb 26b4 8b3b da39 4cba
00000230: 5177 0d3d b4c4 70bb 561d 123d bd88 dabc
00000240: 5e07 8a3c 0e5b 2e3d a2a2 fd3c 5a5a 66bb
00000250: 90a5 1a3c 51b9 14bc 83b5 07bc 9498 41bb
00000260: 4e96 46bb f504 d7bc 6b21 8a3c c990 c2bb
00000270: c0ec 423b 94cc 2e3c 8d6d 83bb 583f 99bb
00000280: e6ad bb3c fe84 a0bc 47e8 973c 672e 25bc
00000290: 1c99 5a3c de82 173c 7730 323b fc08 c33c
000002a0: 033d 96bb 5e78 8dbc 65af b2bc f067 10bc
000002b0: 969b 863c d107 e0bc a798 a4bc dc98 d1bc
000002c0: 8786 e2bc 608e 023d bd76 c93c 0c27 96bc
000002d0: ffe6 933b b399 1c3c 4840 6e3b f3c1 19bc
000002e0: 1fc0 1d3c 3374 913b 6711 ab3b 9666 cfbb
000002f0: d21a 903b 8640 0a3c 5e53 3bbc 17af a1bc
00000300: e3cc abbb 52b7 2b3b 6c5f 7dbc 96c8 b5bc
00000310: 8a24 823c 0fe9 0e3d 9861 3fbd 37d9 53bd
00000320: 61ef d3bc 7b29 1abd 8e2c 7dbc 4270 053d
00000330: b83c 0c3c edbb d7bb f6b5 ca3c d84b d3bd
00000340: 4b60 bdbd e359 513d d61d bb3d eafb 5c3d
00000350: b99f 583c 43c8 c13d 6d8f 0b3d b758 583d
00000360: c594 5fbc 76dc afbc e0ea f83b abc9 c3bc
00000370: 68c9 c9bc cbf1 793c d461 fdbc 7c57 01bd
00000380: bb06 5dbd 0c01 2abc e2b2 f33c 77cd 5a3c
00000390: 6ca5 fc3b c1c8 5e3b c368 e03b 79bb 813b
000003a0: b53b 8d3c a4b7 cc3b 2ebc 103c 3b42 203c
000003b0: 1441 373c f1b1 efbc c2ce 82bb f22d 1abd
000003c0: 5e79 0fbd b27d 7ebd bad6 493d c0e9 77bc
000003d0: 802d 9d3b e7dd 6a3c 80dc b2bc 3517 c13c
000003e0: aa97 3e3c 43ca 773c 20a9 733c 502c 5d3c
000003f0: 9ce9 38bc 99f6 6abc a295 f2bb f990 91bc
0.029384878 0.03162848 0.012157774 0.021069424 0.0193982 -0.021068173 -0.018640209 0.004375142
0.027669499 -0.017061956 0.01576652 0.022351293 0.016160501 0.001600375 0.013870703 0.009735309
0.0057546273 -0.014934059 -0.019767119 -0.0025546427 -0.0037520945 -0.005008372 0.004912932 0.024365723
-0.003513915 -0.0012558813 -0.004975506 -0.07063852 0.011707253 -0.029621365 -0.032298855 -0.030616507
-0.01690442 -0.020718692 -0.01515183 0.031993773 -0.0040806592 -0.007553682 -0.022731474 -0.031176656
-0.019992381 -0.008554235 -0.064337745 0.018742355 0.062064454 -0.03122725 0.029189665 0.03897824
-0.0289015 0.0040206905 0.055789933 0.06340004 -0.045148972 0.025482405 0.019420376 0.0058758333
0.021263622 0.0026990178 0.038380366 -0.017364152 -0.017691486 0.016984258 0.0058215284 -0.006010587
0.0020388847 -0.02038301 0.021331934 -0.011001655 -0.016019834 -0.013342942 0.018242992 -0.001083346
0.036222555 0.005956193 0.0014236313 -0.014389673 0.0045558396 0.013142254 0.029897556 0.024588497
-0.005465405 -0.012328939 0.017635765 -0.00921888 0.026586074 -0.0021551598 0.031419825 -0.015646748
0.0035835211 0.008058925 -0.047637954 -0.06358727 0.035017785 0.07079982 0.028219722 -0.015192146
0.07171544 -0.011042933 -0.00984475 -0.005324641 0.0017286277 -0.009349385 0.010064819 -0.02479139
-0.01726994 -0.015920658 -0.026596766 -0.027517637 -0.03353645 -0.04861037 0.043857805 -0.010116292
-0.025482919 -0.013542414 0.04300333 -0.046012975 -0.028372122 0.023642726 -0.0066827596 -0.045902725
0.02688074 -0.0039436966 -0.01416368 -0.027372746 -0.03930913 -0.038576417 -0.016851822 -0.01002824
0.0024403033 -0.020828852 0.011748114 0.02028688 -0.015755441 0.02693101 0.015568017 -0.015098592
-0.0061501944 -0.0061385124 0.0042634187 -0.0007790603 0.034537617 -0.0036738338 0.03567251 -0.02667653
0.016849216 0.042567305 0.030961338 -0.0035149069 0.009438887 -0.009077386 -0.008283022 -0.0029540407
-0.003030199 -0.02624748 0.016861638 -0.00593767 0.0029743165 0.010668892 -0.004010862 -0.0046767406
0.02291007 -0.019594666 0.018543376 -0.010081864 0.013342168 0.00924751 0.0027189532 0.023807995
-0.00458491 -0.01726931 -0.02181215 -0.008813843 0.016431611 -0.027347477 -0.020092322 -0.025585584
-0.027652038 0.03187406 0.024592752 -0.018329166 0.004513621 0.009558129 0.0036354233 -0.00938462
0.009628325 0.004438901 0.0052205804 -0.006329368 0.0043977285 0.008438235 -0.0114334505 -0.01973681
-0.0052429303 0.0026201797 -0.015464645 -0.022190373 0.015886564 0.03489023 -0.046723932 -0.051720824
-0.02587098 -0.037637215 -0.015452517 0.03257776 0.008559398 -0.006583682 0.024744969 -0.103172004
-0.09246882 0.051111113 0.0913655 0.05395118 0.013221675 0.09462025 0.03407233 0.05281898
-0.013646309 -0.021467429 0.0075963587 -0.023899874 -0.02463217 0.015255402 -0.030930437 -0.031577572
-0.053961497 -0.010376226 0.029748384 0.013354651 0.0077101495 0.003399417 0.006848426 0.003959116
0.017240385 0.0062474776 0.008833928 0.009781416 0.011184949 -0.029259654 -0.0039919326 -0.037641473
-0.035027854 -0.06213159 0.049277045 -0.015131414 0.004796684 0.014335132 -0.021833658 0.023570636
0.011632839 0.015123907 0.0148718655 0.013499334 -0.011286166 -0.01434102 -0.0074030915 -0.017769324

conv1.bias f4 [32]
00000000: 1646 0bbc 6d61 443c e835 0e3c 4a28 c5bc
00000010: 4a2c 9c3a bb17 813c dca4 b7bc 4716 f53b
00000020: e332 ab3c 7d32 843c 19df 83bc 4428 d13b
00000030: a988 f33b c185 a0bc 7e7f 1cba fe85 cfbc
00000040: 861e 383c 658a bc3b 727c 71bc 5343 bb3c
00000050: e217 453c 4d3a ed3a 7e60 6b3c b933 88bc
00000060: dc7b 7d3c be1a b7bc 11f9 acba 6011 c6bc
00000070: bf14 14bc e3d8 60bc 51b6 68bc 18a8 123b
-0.0085005965 0.011986119 0.008679844 -0.024067063 0.0011915055 0.015758386 -0.022417478 0.0074794623
0.020898288 0.016137356 -0.016097592 0.006382974 0.0074320626 -0.019595029 -0.00059699256 -0.025332447
0.011237746 0.0057538026 -0.014739143 0.022859251 0.01202962 0.001809904 0.014366267 -0.016626226
0.015471425 -0.022351619 -0.0013196786 -0.024178207 -0.009038149 -0.013723585 -0.014203624 0.0022378024

conv2.weight f4 [64, 32, 3, 3]
00000000: d2b6 debd 3bad 27bd e76a 4abd 6346 8abc
00000010: 259e 5abd 4f77 84bc a440 e1bd 250a c2bd
00000020: dd1f a1bd a42e 6cbc cf85 45bd 1ac3 863b
00000030: f733 a0bd 32be 93bc 9aa9 363c c377 2e3c
00000040: 6352 1dbd ebd6 8abd d372 bf3d ae6c 9b3c
00000050: 7eff 26b9 8934 67bc dcac 313d 6946 833d
00000060: f3be a83d 1719 12bc 7344 413d 8d79 acbc
00000070: 4d2d 4dbd 9b56 903c f5b5 38bd 52cb a4bd
00000080: 52a3 27bd add9 5dbd 8b7f a7bd 31f0 873b
00000090: 8f4b 683d 1286 d93b fbe4 33bc dc27 4bbd
000000a0: 5e5d cd3c fe24 11bd 4e41 d73c c294 ff3b
000000b0: a1ba 873d cadf 5a3c 3a4d 6d3c 40ce 383c
000000c0: 9fce 5a3d c7ca ee3c a584 55bd 7e25 aebb
000000d0: d565 55bd 2b82 053d 9c93 41bd a495 6fbd
000000e0: 0a63 6abc 83d0 e43b f0ba a5bd 02ef b8bd
000000f0: a77f 34bd 0dbd 8dba 9caf 4a3c 441e 7a3d
00000100: e5a9 fabc b510 0f3d 30d8 393d d6da 62bb
00000110: f334 c53c 1ffa 13bd e7e8 40bd 16d7 4ebc
00000120: 506b 213d 5aec 01bd 4b17 16bc 0fb7 c93b
00000130: 2314 19bd 4dcc 6e3d 963a 03bd 2833 853d
00000140: 95fd 5abc a03b 413c ab49 3abd a697 1f3d
00000150: c2be 1cbd edb3 3f3c 9dea 01bd 0988 413d
00000160: 5c6f c6bc 178c ffbb e3b3 233d 4fb9 e73b
00000170: 7586 aa3c 501e ae3d 8401 2c3c f58f 463d
00000180: 7ce7 5f3b f0a4 913c 7105 843d a6f5 61bd
00000190: 30d0 a0bd e6f4 4abc 4bbf b1bd a0c7 d1bd
000001a0: 8a28 dcbd 2322 49bd 7442 a1bd 14e4 0fbd
000001b0: 7d13 2f3c 03c3 4b3d 856a f23b 515f 913d
000001c0: 87ea 38bd 871b 0fbd 01be 633d 79df 4cbc
000001d0: aebd 213d 68be 463d 1b39 973d 0299 483d
000001e0: b842 983d 1dbb ec3c 7083 313d 0d40 e13d
000001f0: 0c91 7b3d a9c7 c03b b3c3 173d 4cd7 acbc
00000200: a6b0 97bd a0b9 28bb 1785 d13c 6254 a8bd
00000210: a139 fc3c 1071 06bc 4974 8ebd c45a b0bb
00000220: facb 73bd ee79 a5bd f0c2 90bd 2cdf 54bc
00000230: 1aca dfbd 74a9 a3bc 8903 00bd afad c7bd
00000240: 84af 3cbd 5ded fcbc 8c2e 4fbd a82a dabd
00000250: 6f33 09bd b5b2 debd 1747 f8bd b163 26bc
00000260: 58d2 92bd 33a0 cab8 349d b03c a3b8 49bc
00000270: af72 923d cb3f 1b3c 01af acbc fde5 0f3d
00000280: 89f9 b03d b6c8 bb3c f1d4 a83b 3de6 b53c
00000290: 3306 183b 3570 07bd b6a1 95bd f66a a2bd
000002a0: e444 89bd f674 9cbd 3f28 8abc 66d6 2a3d
000002b0: ecf2 0b3d 716a 953d b8a6 003d 48da 333b
000002c0: e449 183b 164e 833d 2dc9 8bbc 0d3a 93bb
000002d0: 587a debc 8e15 193d f854 743d 79a8 8d3d
000002e0: 608f f43b de58 f13c f1d0 3abc 8612 fe3b
000002f0: d70e f43c 7292 7dbd 1ee9 b6bd c813 e0bc
00000300: 82fa c2bd 8414 8ebb db1a 1fbd 9497 36bd
00000310: 5303 88bd 0c8f a6bd 23e2 833d 46c9 e03c
00000320: c78a 3c3d ebd9 483d 1d49 4a3d b701 f83c
00000330: 4779 d23c 8747 fe3c 1650 a73b 95a9 7cbd
00000340: a19d 89bb a6ec 84bd fe08 95bd ce85 4bbc
00000350: 181e b2bc 09d3 e3bb f814 50bd f19b 61bd
00000360: 2eb5 c33d 1e46 07bc d51a c73c cfa7 363d
00000370: 00a6 853d 2a05 d83d a2bd e63c 8cf2 da3c
00000380: cb82 873c 9823 a03c d5e1 61bc 48c9 1bbd
00000390: 8e08 e63b 49ba 4a3c 552c 8dbd d952 91bd
000003a0: 6d92 c2bb ad74 63bd f303 9b3d 88d3 d6bc
000003b0: 90e8 523d c1ef a33d d3bd e1bc ad9b 21bd
000003c0: c5f5 b03c 9b64 de3c 098c 813b 0d36 68bc
000003d0: 0b3c f4bc 9130 61bd a21a 50bb daad 7fbd
000003e0: 0afd 1bbd e5ff d3bd 1c8d aabd f8e7 bf3b
000003f0: dd1e 023d dbdf 8cbc 3250 9abc 907b 89bd
-0.10874714 -0.04093669 -0.049418356 -0.016879266 -0.053373475 -0.016170172 -0.10998657 -0.09474591
-0.078674056 -0.014415417 -0.048223313 0.0041126134 -0.078224115 -0.018035028 0.011148835 0.010648671
-0.03840865 -0.067792736 0.09348073 0.018972721 -0.00015926172 -0.014111646 0.043377742 0.06409914
0.08239546 -0.008917115 0.04718442 -0.021054054 -0.05009203 0.017619422 -0.045095403 -0.08046593
-0.04092724 -0.05416267 -0.08178624 0.004148506 0.056712683 0.006638297 -0.010979886 -0.04959856
0.025068935 -0.03543567 0.026276257 0.0077997157 0.066273935 0.0133590195 0.014483744 0.011279643
0.053419705 0.029149426 -0.052128453 -0.005314528 -0.052099068 0.03259484 -0.047259912 -0.058492318
-0.014305839 0.0069828643 -0.08092296 -0.09029962 -0.04406705 -0.0010813788 0.01237097 0.06106402
-0.03059859 0.034928042 0.045372188 -0.00346153 0.0240731 -0.036127206 -0.047097113 -0.012624523
0.03940898 -0.031719543 -0.009160827 0.0061558555 -0.03737272 0.058300305 -0.032038294 0.06503898
-0.013366123 0.011794001 -0.04548041 0.038962983 -0.03826786 0.0117006125 -0.031717885 0.047248874
-0.024223022 -0.0077986824 0.039966475 0.007071651 0.020816067 0.085018754 0.010498408 0.048477132
0.0034165075 0.017778844 0.0644635 -0.05516591 -0.078522086 -0.01238749 -0.08679064 -0.102431536
-0.1074992 -0.04910482 -0.07874003 -0.03512962 0.010685799 0.049746525 0.007397952 0.07098258
-0.045145538 -0.03493836 0.055601124 -0.012504452 0.039487533 0.04852143 0.07383939 0.048974045
0.074346006 0.028897816 0.04333824 0.10998545 0.061417624 0.0058831763 0.037051868 -0.021098755
-0.0740674 -0.0025745407 0.025576157 -0.0821922 0.030789198 -0.008205667 -0.069557734 -0.005381914
-0.0595207 -0.08079897 -0.070684314 -0.012992661 -0.1092722 -0.019978262 -0.03125337 -0.097499244
-0.046065822 -0.030874902 -0.0505815 -0.10652667 -0.033496317 -0.108739294 -0.12122934 -0.010155604
-0.07169026 -9.66195e-05 0.021559335 -0.012312087 0.071507804 0.009475659 -0.021079542 0.035131443
0.08641345 0.022922855 0.0051523377 0.022204513 0.0023197054 -0.033065993 -0.073062345 -0.079305574
-0.06702593 -0.07639496 -0.016864894 0.041708373 0.034167215 0.07295693 0.031408995 0.0027443338
0.0023237402 0.06411378 -0.017063702 -0.004493004 -0.027157947 0.03737407 0.059651345 0.06916899
0.0074633807 0.02946132 -0.011402355 0.007753673 0.029792232 -0.06190724 -0.08931182 -0.027353182
-0.09520437 -0.0043359417 -0.03884397 -0.04457815 -0.06641259 -0.08132753 0.064396165 0.027439725
0.046030786 0.049035948 0.049386133 0.030274255 0.025692595 0.031039966 0.0051059825 -0.061685164
-0.004199699 -0.064904496 -0.07277106 -0.012422038 -0.021742865 -0.0069526476 -0.050801247 -0.055080358
0.09556042 -0.008256463 0.024304787 0.04459363 0.065258026 0.1054786 0.028166596 0.026726983
0.01654186 0.019548222 -0.013786753 -0.038033754 0.0070200628 0.012373515 -0.06893221 -0.0709588
-0.0059378655 -0.055531193 0.07569113 -0.026223913 0.05149132 0.08004714 -0.027556336 -0.039455105
0.021601567 0.027147582 0.003953461 -0.014173043 -0.029813787 -0.054977957 -0.0031754156 -0.062421657
-0.038083114 -0.103515424 -0.08327696 0.0058565103 0.031767715 -0.017196586 -0.018837068 -0.06713021

conv2.bias f4 [64]
00000000: d507 4dbd b9ff d43a 783a a039 5d1c 6bbb
00000010: 5cc5 10bd f914 ea3a e1ed 85bd e07c 1e3d
00000020: de6b 073d a25f 0f3d f52a 0d3d 6b96 dfbc
00000030: d4cd 8a3c 5a7c 25bd 60df f5bc 5a44 83bd
00000040: 4ad4 c1bc 8964 3ebd e9fd 14bd 7125 83bd
00000050: 47fe 08bd b994 67bd 55f0 7cbc 8ee9 233c
00000060: 6c2c 0f3d cfa4 cb3c 1639 2ebd 8eba 113d
00000070: bbf9 f5ba 240d 3abd 5ee3 44bc 5048 483d
00000080: 98f9 3cbd 8339 78bd d55d 4d3c 936a 623d
00000090: cba1 69bd ce62 343d ec42 70bd 9727 cd3c
000000a0: 2b22 073d f528 743d 4433 05bc 233e a9ba
000000b0: b306 8fbd 646d 85bd c223 543d c0a0 9e3c
000000c0: d748 bc3c 0510 dfbc d879 21bd 223d 4cbc
000000d0: 052c aaba 7a4d a33c f93c 523a b2a9 1abd
000000e0: 09c3 b1bb ee6d f1bc 41de 43bd fe05 ecbb
000000f0: a123 79bc a5ec 5b3d 7e29 623d 323a 323d
-0.050056297 0.0016250528 0.0003056114 -0.003587506 -0.035344467 0.0017859034 -0.065395124 0.03869331
0.033061855 0.035003312 0.034464795 -0.027293405 0.01694385 -0.040401794 -0.03001374 -0.064095214
-0.023660798 -0.046482597 -0.03637496 -0.06403626 -0.033445623 -0.056538317 -0.015438159 0.010004414
0.034954473 0.02485886 -0.04253491 0.035578303 -0.0018766442 -0.045422688 -0.012017099 0.048897088
-0.04613647 -0.060601722 0.012534578 0.05527742 -0.057039063 0.04403954 -0.05865757 0.025043292
0.03299157 0.059609372 -0.008129898 -0.0012912195 -0.069837 -0.06515005 0.051791914 0.019363761
0.022983951 -0.027229318 -0.03942284 -0.012465747 -0.001298309 0.019934405 0.000801995 -0.03775949
-0.0054248613 -0.029471364 -0.04781938 -0.0072028628 -0.0152062485 0.05369248 0.05521535 0.04351253

linear.weight f4 [1, 64]
00000000: d0f7 56be 1b1f 403e b10d 213e 57cd f7bd
00000010: e44a 643e 2942 22be 2f4f 113e d73d 1f3e
00000020: e2b7 023e eb65 633e 54f9 5dbe 78bb 343e
00000030: a417 e6bd 5537 42be e7d9 673e 3235 653e
00000040: 50bb 5e3e 74d2 fbbd d12b f03d a33e 723e
00000050: 51dc 093e a7f1 733e 47e1 283e 515e 0bbe
00000060: ed6c 153e 5a9a d0bd d601 633e e585 39be
00000070: f7a3 5d3e 2a62 00be afaa 5f3e d8c6 e6bd
00000080: 0a3c ec3d 9f97 443e e429 43be 298b 55be
00000090: e05f b83d aded 57be af33 553e 4772 083e
000000a0: 1343 373e 814a 17be 4b53 e2bd 0684 453e
000000b0: 700c 653e 7030 0c3e 71ac e7bd d295 37be
000000c0: e10e 36be 7937 1d3e 487c 393e 50d9 023e
000000d0: 18f7 723e 2ddb 0d3e 4573 673e a906 10be
000000e0: 7bfc eebd ed03 53be a14d 07be 0b1c 5bbe
000000f0: 2f51 e9bd f847 f8bd 3306 61be 6d91 3fbe
-0.2099297 0.18761866 0.15727879 -0.12099712 0.22294194 -0.1584555 0.14190362 0.15550934
0.12765458 0.22206847 -0.21677142 0.17649639 -0.11234978 -0.1896642 0.22641717 0.22383574
0.21751142 -0.12296 0.11727107 0.23656707 0.1346295 0.23822652 0.16492186 -0.13610198
0.14592333 -0.1018569 0.22168669 -0.18117483 0.21644579 -0.12537447 0.21842454 -0.11268395
0.11534889 0.19198464 -0.19058949 -0.20853867 0.09002662 -0.2108676 0.20820497 0.13324843
0.1789668 -0.14774515 -0.11051043 0.19288644 0.22368026 0.13690352 -0.113121875 -0.17928246
-0.17779113 0.15353192 0.18113816 0.1277821 0.23727071 0.1385314 0.22602566 -0.1406504
-0.116692506 -0.20606966 -0.13213207 -0.21397416 -0.11392438 -0.12123102 -0.21975021 -0.1870782
