concepts_sequential/saved_probes/attraction_layer_10_probe.pth (torch, 372924 bytes, 5 tensors)

conv1.weight f4 [32, 256, 3, 3]
0.0029809442 0.023615776 0.011097527 0.030978888 0.00617884 0.02409674 0.031282455 0.030694505
0.009524699 -0.012131591 0.008120161 -0.009697887 -0.002163004 -0.00984511 -0.013515754 -0.018314993
0.0007244433 -0.0035722451 0.012967654 0.021029053 0.017864343 0.00090938853 0.028869605 0.028824575
-0.0014558532 0.03221082 0.0009787584 0.017867854 0.031722903 0.0008937105 -0.0056122155 -0.038584076
0.044103447 -0.02068013 -0.06938503 0.018770218 -0.0042574937 0.032037754 0.0019668161 -0.011372644
-0.004283439 -0.030492948 -0.02355533 -0.0050626607 -0.053241823 0.025919406 0.025341928 0.04090824
0.047949076 0.05803323 0.016842095 0.023442296 0.0388393 0.06442405 -0.026001763 0.007131569
-0.00014518214 -0.035051998 0.015124448 -0.018051617 0.00601558 0.01454787 0.016436407 0.009410915
0.014156285 -0.004266022 0.030860161 0.014232654 -0.019607812 0.0073155942 0.024485001 0.0227975
0.038683146 -0.01300448 -0.022028983 -0.01847718 -0.01654288 0.00022069261 0.024694927 0.015550313
-0.014825298 0.013542151 0.026324969 0.017147087 -0.00065442646 0.01992187 0.018965693 0.0034522098
0.0001560557 0.010380285 -0.009614219 -0.05568813 -0.018813122 -0.021551186 -0.07905994 -0.064370245
0.013386143 -0.06367743 -0.037945583 -0.00846434 0.011355755 0.02652685 0.003992673 -0.0054740408
0.00858143 -0.02138699 -0.024799509 -0.009254542 0.011324014 0.013401115 -0.00026555217 0.0244037
-0.01831731 -0.026443833 -0.020023255 -0.027798638 -0.020559194 -0.010345512 0.005197365 -0.016391546
-0.04076894 0.019073134 -0.017484691 -0.017012151 -0.038652707 -0.051024955 -0.0012694285 -0.0057844203
0.02054645 -0.008012745 0.031464968 0.025044005 -0.0046554934 0.03152377 0.016728645 0.004454423
-0.018249176 -0.016053269 0.022297287 -0.011661289 0.0062459866 -0.047989268 0.0071132667 -0.019998696
-0.012081656 0.011398296 0.010893231 0.015224841 -0.00387812 -0.019004317 -6.470239e-05 -0.010525588
-0.009359067 -0.01443235 0.042416025 -0.02006091 0.022906417 0.014241053 0.015699323 -0.013365126
0.030421402 0.019267963 0.008711066 -0.016862687 0.014408045 -0.016097484 -0.0037343528 0.0051891757
-0.009444251 -0.026254132 -0.020010121 -0.01490584 -0.0013589113 0.00011633096 -0.016321557 -0.0043699783
-0.003159778 0.006404737 0.00737177 -0.019368887 -0.0027125285 0.005949856 -0.007689288 -0.017357709
-0.00070125563 0.0006150831 -0.004057025 -0.009838401 -0.015047936 0.015772982 0.009340189 0.0059405277
0.015290865 0.02191246 -0.012885705 -0.00238572 0.005198839 0.022381052 -0.003643636 0.021338241
-0.045419052 0.012083338 -0.03663695 0.013739476 -0.06047074 0.058852643 -0.025729261 -0.011850168
-0.013973058 -0.018581623 0.0026944738 -0.04131616 -0.04083114 -0.077386424 0.036096103 0.006122099
0.0033628421 -0.01560703 -0.010473231 -0.017709792 -0.043200836 0.010311329 -0.035507023 -0.0033106208
-0.040815096 0.060923506 -0.008670514 0.04817267 -0.0095872125 -0.03178804 -0.05079262 0.032768767
-0.017039517 -0.014461984 0.019213334 0.030191958 -0.0005506505 -0.022603048 -0.023648854 -0.036076084
0.044491272 -0.02627461 -0.0013989637 -0.022240749 -0.010400365 -0.02650081 -0.023948275 -0.0010123214
-0.020299133 0.028990325 0.016184188 -0.007604549 -0.010247391 -0.0057011847 0.00495147 -0.02303831
00000000: f25b 433b df75 c13c 67d2 353c 70c7 fd3c
00000010: de77 ca3b 8766 c53c 0822 003d 0b73 fb3c
00000020: 7c0d 1c3c 95c3 46bc 6c0a 053c e3e3 1ebc
00000030: 2fc1 0dbb 624d 21bc 2e71 5dbc 5309 96bc
00000040: 91e8 3d3a 541c 6abb 4876 543c 1f45 ac3c
00000050: 3e58 923c 0864 6e3a f37f ec3c 8421 ec3c
00000060: 54d2 beba 7eef 033d af49 803a 9b5f 923c
00000070: e0ef 013d e547 6a3a ade6 b7bb 560a 1ebd
00000080: d1a5 343d 6069 a9bc bd19 8ebd 00c4 993c
00000090: 7282 8bbb 053a 033d b3e5 003b 5454 3abc
000000a0: 175c 8cbb 59cc f9bc 1bf7 c0bc ade4 a5bb
000000b0: 1914 5abd ef54 d43c e099 cf3c 668f 273d
000000c0: 4066 443d 41b4 6d3d 6ff8 893c 0f0a c03c
000000d0: f515 1f3d c2f0 833d a601 d5bc f0af e93b
000000e0: 093c 18b9 af92 0fbd 88cc 773c fce0 93bc
000000f0: 581e c53b 305a 6e3c a5a5 863c 3d30 1a3c
00000100: c3ef 673c fcc9 8bbb 73ce fc3c 1430 693c
00000110: 90a0 a0bc a7b7 ef3b c594 c83c d3c1 ba3c
00000120: 3872 1e3d be10 55bc 2076 b4bc 745d 97bc
00000130: ef84 87bc b969 6739 044d ca3c bdc6 7e3c
00000140: cfe5 72bc e6df 5d3c 76a7 d73c 0c78 8c3c
00000150: d18d 2bba 3133 a33c f15d 9b3c 783e 623b
00000160: e2a2 2339 1212 2a3c f584 1dbc 3d19 64bd
00000170: fa1d 9abc 1d8c b0bc 2eea a1bd 8cd4 83bd
00000180: 8e51 5b3c 5069 82bd d46c 1bbd 04ae 0abc
00000190: 7d0d 3a3c d64e d93c f8d4 823b 955f b3bb
000001a0: 2099 0c3c c533 afbc 5728 cbbc 5da0 17bc
000001b0: 5b88 393c 5a90 5b3c cf39 8bb9 45ea c73c
000001c0: 2f0e 96bc bda0 d8bc cf07 a4bc f8b9 e3bc
000001d0: c16b a8bc 3980 29bc a84e aa3b 9047 86bc
000001e0: 55fd 26bd 433f 9c3c 0e3c 8fbc 115d 8bbc
000001f0: 4d52 1ebd 8bff 50bd f462 a6ba 3c8b bdbb
00000200: 0751 a83c e347 03bc 69e1 003d 1629 cd3c
00000210: 1c8d 98bb 121f 013d 830a 893c 69f6 913b
00000220: 4c7f 95bc 2582 83bc cda8 b63c fe0e 3fbc
00000230: 22ab cc3b 6590 44bd 6816 e93b 4ed4 a3bc
00000240: 23f2 45bc ebbf 3a3c 8679 323c 9d71 793c
00000250: 0f28 7ebb f1ae 9bbc d5b0 87b8 8473 2cbc
00000260: c656 19bc aa75 6cbc 6dbc 2d3d c756 a4bc
00000270: 3da6 bb3c 4e53 693c de9b 803c 67f9 5abc
00000280: 4e36 f93c d9d7 9d3c dcb8 0e3c 9e23 8abc
00000290: b90f 6c3c dfde 83bc 0bbc 74bb f609 aa3b
000002a0: 0fbc 1abc e812 d7bc 44ec a3bc a037 74bc
000002b0: 7f1d b2ba b5f6 f338 c9b4 85bc 0932 8fbb
000002c0: 4714 4fbb d4de d13b e48e f13b 80ab 9ebc
000002d0: adc4 31bb 02f7 c23b 6cf6 fbbb c131 8ebc
000002e0: 78d4 37ba 873d 213a cbf0 84bb 3f31 21bc
000002f0: 9e8b 76bc 5736 813c 9807 193c c2a8 c23b
00000300: 8986 7a3c c281 b33c 901e 53bc bd59 1cbb
00000310: 065b aa3b 7858 b73c 11ca 6ebb 89cd ae3c
00000320: 5409 3abd 31f9 453c a010 16bd 8a1b 613c
00000330: 2bb0 77bd 780f 713d 2cc6 d2bc 3527 42bc
00000340: 41ef 64bc 7d38 98bc c595 303b 223b 29bd
00000350: 8e3e 27bd c67c 9ebd 82d9 133d e39b c83b
00000360: 2163 5c3b a1b4 7fbc ea97 2bbc 2014 91bc
00000370: 5cf3 30bd d9f0 283c d06f 11bd 00f7 58bb
00000380: bb2d 27bd ed8a 793d c60e 0ebc b550 453d
00000390: af13 1dbc 2d34 02bd ec0b 50bd 8b38 063d
000003a0: 7596 8bbc f5f1 6cbc 4865 9d3c 2055 f73c
000003b0: 8859 10ba 072a b9bc 3ebb c1bc 84c4 13bd
000003c0: 7b3c 363d da3d d7bc 6f5d b7ba 3b32 b6bc
000003d0: 4b66 2abc 3a18 d9bc 2c2f c4bc dfaf 84ba
000003e0: 5e4a a6bc 1e7d ed3c b494 843c 952f f9bb
000003f0: ace4 27bc 01d1 babb f13f a23b d7ba bcbc

conv1.bias f4 [32]
-0.006785706 0.016770955 0.0048801615 -0.018860344 -0.005623758 0.023806324 -0.016771173 -0.00087946374
0.017506698 0.0047887005 -0.01469131 0.014927489 0.0009115231 -0.020632325 0.004725134 -0.020137994
0.017085355 0.0038733257 -0.013853836 0.020032598 0.008885526 0.0073151 0.009339692 -0.011446298
0.013866438 -0.023785738 0.0038598196 -0.021181395 -0.0056338715 -0.011752274 -0.005011611 -0.002299998
00000000: a15a debb 3e63 893c c3e9 9f3b 0281 9abc
00000010: 8047 b8bb 7b05 c33c b363 89bc d08b 66ba
00000020: 356a 8f3c 88ea 9c3b d2b3 70bc 6d92 743c
00000030: 48f3 6e3a 1f05 a9bc 4cd5 9a3b 6ff8 a4bc
00000040: 96f6 8b3c 9fd7 7d3b 33fb 62bc 671b a43c
00000050: 9994 113c 82b3 ef3b 8205 193c 4189 3bbc
00000060: 0e30 633c 4fda c2bc 07f5 7c3b 9b84 adbc
00000070: 579c b8bb 9c8c 40bc 7138 a4bb 90bb 16bb

conv2.weight f4 [64, 32, 3, 3]
0.045281366 0.108062506 0.114691444 0.12766089 0.09324989 0.1476784 0.055015024 0.06727724
0.09767694 -0.03329041 -0.060517035 -0.0140381595 -0.08016196 -0.01570976 0.00054436736 -0.0006941732
-0.044331413 -0.086244434 0.099554725 0.027139971 0.015079372 0.00799087 0.06485624 0.09061562
0.106555946 0.015934061 0.08000758 -0.061536804 -0.089277044 -0.026784264 -0.06727814 -0.09680079
-0.06590336 -0.079702586 -0.10688346 -0.040604863 0.080319844 0.03673639 0.028216517 -0.017533276
0.062023506 0.006791713 0.057835296 0.048322257 0.10293037 0.023409745 0.028729595 0.02750097
0.070275456 0.049023207 -0.029680671 0.021511586 -0.026151065 0.05472126 -0.050267078 -0.058111995
-0.013561362 0.0033663246 -0.08299351 -0.08917884 -0.048712093 -0.0067377803 0.0024214173 0.0775827
-0.005601895 0.060962386 0.064184986 0.023559429 0.053218495 -0.0063673304 -0.014455062 0.01967028
0.06796388 0.0043476 0.02712813 0.038316432 -0.00055003667 0.0932731 0.004141029 0.1010625
0.026561864 0.04003772 -0.0036331376 0.08154995 -0.003258233 0.056219354 0.015615172 0.08189134
0.022388332 0.04027004 -0.0024487632 -0.018308202 -0.010351677 0.04766225 -0.008818976 0.024941683
-0.03167953 -0.0018241719 0.037553743 -0.031095697 -0.07173406 0.011374974 -0.042947687 -0.07965892
-0.06226513 0.00043817153 -0.055170532 0.00022633064 0.021241663 0.070783906 0.035199925 0.08390131
-0.016962795 -0.005091001 0.07263273 0.016088933 0.06888209 0.019472798 0.040048674 0.017362205
0.04599527 -0.0031126512 0.015098333 0.07515383 0.025183488 -0.026537826 0.012772606 -0.039471094
-0.099868014 -0.024593001 0.0076318406 -0.0971022 0.0020921421 -0.024902003 -0.09112347 0.087908804
0.051567096 0.054659557 0.02656453 0.102578744 0.028370313 0.10093384 0.09399153 0.05124799
-0.04105582 -0.025465582 -0.035895277 -0.0764452 -0.016227826 -0.07806998 -0.098284334 0.0024174096
-0.051545236 -0.006949267 0.011992078 -0.019652113 0.059753016 -0.0015091955 -0.029352682 0.019872658
0.07084623 0.011603969 0.0973919 0.10446693 0.10060556 0.05495599 0.011558644 0.019177616
0.048737127 0.029294463 0.09099998 0.054559477 0.048519805 0.08681829 0.047260694 0.025068305
0.027447846 0.08475689 0.01386671 0.027098674 0.030386938 0.098908044 0.12042948 0.113104045
0.05544733 0.078239135 0.038949832 0.062442344 0.07981892 -0.07873805 -0.09667203 -0.03471019
-0.0946523 -0.0021616074 -0.034148864 -0.052604776 -0.06244652 -0.08183968 0.09191413 0.056788336
0.0797907 0.07693097 0.08025093 0.06752031 0.05739898 0.06595206 0.043909397 -0.020399092
0.030342167 -0.022571115 -0.034050424 0.015586169 0.012336179 0.031803474 -0.021377536 -0.028299063
0.10055116 0.004093214 0.038787864 0.045005303 0.06811043 0.11067137 0.027079776 0.03299092
0.029150618 0.040987063 0.007961314 -0.013888046 0.041348055 0.044478875 -0.03396222 -0.02281494
0.03743317 -0.010906351 0.021915242 -0.062286396 0.008204336 0.027423466 -0.057542138 -0.07338136
-0.02760178 -0.005790146 -0.0328803 -0.025175251 -0.044043772 -0.06782375 -0.012412523 -0.06483746
-0.053133316 -0.10163007 -0.09224321 -0.013683964 0.011944188 -0.03677201 -0.03339948 -0.0815637
00000000: f478 393d e04f dd3d 59e3 ea3d 89b9 023e
00000010: ccf9 be3d 0239 173e 6f57 613d a6c8 893d
00000020: d90a c83d 865b 08bd b6e0 77bd 4f00 66bc
00000030: f42b a4bd c1b1 80bc e0b3 0e3a 2df9 35ba
00000040: db94 35bd eca0 b0bd 59e3 cb3d a554 de3c
00000050: 780f 773c 23ec 023c 59d3 843d af94 b93d
00000060: 013a da3d 2688 823c 04db a33d 040e 7cbd
00000070: e2d6 b6bd ac6a dbbc 1fc9 89bd 7e3f c6bd
00000080: 57f8 86bd 1c3b a3bd b7e5 dabd 4951 26bd
00000090: bb7e a43d e678 163d 5326 e73c f2a1 8fbc
000000a0: 5c0c 7e3d 058d de3b b4e4 6c3d 8fed 453d
000000b0: 28cd d23d cbc5 bf3c 545a eb3c b749 e13c
000000c0: 94ec 8f3d 8fcc 483d e124 f3bc 1139 b03c
000000d0: c23a d6bc 6623 603d dae4 4dbd d806 6ebd
000000e0: 7a30 5ebc 8e9d 5c3b 80f8 a9bd 65a3 b6bd
000000f0: 5586 47bd 99c8 dcbb a4b0 1e3b aee3 9e3d
00000100: 1a90 b7bb b2b3 793d 6b73 833d b4ff c03c
00000110: a3fb 593d 0aa5 d0bb edd4 6cbc 9123 a13c
00000120: a630 8b3d 5076 8e3b d03b de3c b1f1 1c3d
00000130: 5630 10ba f805 bf3d 78b1 873b dbf9 ce3d
00000140: 4498 d93c 98fe 233d ef19 6ebb a903 a73d
00000150: 1488 55bb 4446 663d c7d6 7f3c a6b6 a73d
00000160: bc67 b73c 33f2 243d 6e7b 20bb 15fb 95bc
00000170: 159a 29bc 7e39 433d 777d 10bc 8052 cc3c
00000180: 65c2 01bd 0d19 efba f4d1 193d 67bc febc
00000190: 4fe9 92bd 195e 3a3c eae9 2fbd 3724 a3bd
000001a0: b909 7fbd 63ba e539 7ffa 61bd 2b53 6d39
000001b0: ff02 ae3c 27f7 903d cc2d 103d 73d4 ab3d
000001c0: 8ff5 8abc 69d2 a6bb 78c0 943d f0cc 833c
000001d0: 0e12 8d3d 6b85 9f3c 140a 243d 2f3b 8e3c
000001e0: 8965 3c3d 9ffd 4bbb 005f 773c 40ea 993d
000001f0: 9a4d ce3c db65 d9bc 3144 513c 71ac 21bd
00000200: 9a87 ccbd 4377 c9bc 8514 fa3b 85dd c6bd
00000210: 521c 093b 49ff cbbc f19e babd 8809 b43d
00000220: 0538 533d b3e2 5f3d db9d d93c ce14 d23d
00000230: dc68 e83c 67b6 ce3d a27e c03d 6ae9 513d
00000240: 262a 28bd 329d d0bc ed06 13bd 4d8f 9cbd
00000250: 38f0 84bc 27e3 9fbd 4c49 c9bd 676d 1e3b
00000260: 1921 53bd adb6 e3bb 6c7a 443c 78fd a0bc
00000270: 94bf 743d 33d0 c5ba 0975 f0bc fccb a23c
00000280: d417 913d 931e 3e3c 6875 c73d c2f2 d53d
00000290: 4a0a ce3d 8819 613d 7760 3d3c 601a 9d3c
000002a0: 95a0 473d f1fa ef3c 335e ba3d c279 5f3d
000002b0: b4bc 463d cacd b13d 6e94 413d 0c5c cd3c
000002c0: 4eda e03c 0595 ad3d 3231 633c 0afe dd3c
000002d0: 07ee f83c 4d90 ca3d bba3 f63d 18a3 e73d
000002e0: bd1c 633d d73b a03d dc89 1f3d 8bc3 7f3d
000002f0: 1a78 a33d 6a41 a1bd fcfb c5bd 462c 0ebd
00000300: 11d9 c1bd c1a9 0dbb aedf 0bbd 1b78 57bd
00000310: ecc7 7fbd 909b a7bd 7a3d bc3d e39a 683d
00000320: 4e69 a33d fc8d 9d3d 995a a43d 1748 8a3d
00000330: 311b 6b3d e011 873d 57da 333d ff1b a7bc
00000340: 2390 f83c 0fe7 b8bc 7578 0bbd 225d 7f3c
00000350: af1d 4a3c 5c44 023d f11f afbc 70d3 e7bc
00000360: c4ed cd3d 5e20 863b 06e0 1e3d 7b57 383d
00000370: 7b7d 8b3d aca7 e23d 68d6 dd3c 7d21 073d
00000380: 47cd ee3c 0de2 273d 2c70 023c b08a 63bc
00000390: 945c 293d 7b2f 363d f81b 0bbd 66e6 babc
000003a0: 8653 193d 8db0 32bc 9887 b33c 0520 7fbd
000003b0: 7b6b 063c 2da7 e03c 4eb1 6bbd f748 96bd
000003c0: 211d e2bc 44bb bdbb 7ead 06bd 543c cebc
000003d0: 3e67 34bd 2ee7 8abd e55d 4bbc 81c9 84bd
000003e0: 52a2 59bd 6d23 d0bd 02ea bcbd b432 60bc
000003f0: 8eb1 433c 3f9e 16bd e5cd 08bd df0a a7bd

conv2.bias f4 [64]
-0.055663697 0.011615326 0.009701149 -0.010292389 -0.014870614 -0.0009480523 -0.043843016 0.043812558
0.045480147 0.037341136 0.024761794 -0.0018960837 0.014858494 -0.040603425 -0.017298596 -0.043536793
-0.0073835733 -0.04553165 -0.016974473 -0.04463532 -0.019233633 -0.03921855 -0.0012326578 0.007662395
0.037547797 0.010204284 -0.027343059 0.026980316 0.011005871 -0.045064867 0.0008496902 0.04205867
-0.028879069 -0.034603376 0.008633514 0.04388929 -0.040641867 0.035371944 -0.048074625 0.0395697
0.037079863 0.050277185 -0.008584813 0.012149314 -0.045666747 -0.04787359 0.04794372 0.012929568
0.020251237 -0.009897176 -0.024483984 -0.0013986075 0.011576106 0.027710102 0.007366243 -0.029984485
-0.0055204025 -0.03151338 -0.046577197 -0.013350486 -0.025676114 0.051914424 0.046431784 0.03763584
00000000: 9eff 63bd 354e 3e3c 91f1 1e3c 69a1 28bc
00000010: e0a3 73bc b686 78ba bc94 33bd cc74 333d
00000020: 6449 3a3d 05f3 183d 3fd9 ca3c 0386 f8ba
00000030: 0a71 733c c74f 26bd c9b5 8dbc a353 32bd
00000040: e7f1 f1bb 657f 3abd 0d0e 8bbc 86d3 36bd
00000050: da8f 9dbc a1a3 20bd 2291 a1ba d414 fb3b
00000060: b8cb 193d df2f 273c 8dfe dfbc d305 dd3c
00000070: f851 343c f095 38bd bebd 5e3a b645 2c3d
00000080: cc93 ecbc 45bc 0dbd 9573 0d3c 42c5 333d
00000090: 1678 26bd 2ce2 103d e6e9 44bd d613 223d
000000a0: 0ee1 173d 73ef 4d3d 51a7 0cbc eb0d 473c
000000b0: 0e0d 3bbd 1917 44bd a260 443d 8ad6 533c
000000c0: ece5 a53c c427 22bc a392 c8bc 7b51 b7ba
000000d0: b5a9 3d3c 4c00 e33c 8660 f13b 06a2 f5bc
000000e0: 7ee4 b4bb 2d14 01bd bbc7 3ebd ffbb 5abc
000000f0: b756 d2bc 38a4 543d 412f 3e3d 0a28 1a3d

linear.weight f4 [1, 64]
-0.21544409 0.20322742 0.20163357 -0.12086563 0.25004345 -0.15463203 0.17410444 0.17017484
0.15027642 0.24328202 -0.21091136 0.2098562 -0.13238543 -0.19912493 0.23777814 0.2603726
0.24954252 -0.12580445 0.124290295 0.24309663 0.15190497 0.25434786 0.19135825 -0.12582584
0.18453571 -0.11638948 0.24373767 -0.18957551 0.24826497 -0.1453741 0.22494103 -0.12573944
0.14851795 0.20597559 -0.20306937 -0.20482738 0.12523638 -0.21222986 0.22885907 0.14690702
0.18845186 -0.14785993 -0.123175554 0.21370041 0.2599498 0.15900117 -0.11388766 -0.17691657
-0.17746516 0.17135742 0.22316241 0.12580672 0.24087001 0.15783162 0.25435683 -0.1505014
-0.12485065 -0.19987045 -0.13462904 -0.21879987 -0.19094384 -0.15425934 -0.21981606 -0.19601187
00000000: 609d 5cbe d91a 503e 0879 4e3e 6688 f7bd
00000010: b205 803e dc57 1ebe 6f48 323e 5042 2e3e
00000020: 10e2 193e ec1e 793e 26f9 57be 8be4 563e
00000030: 0c90 07be 68e7 4bbe 1d7c 733e 8f4f 853e
00000040: 1388 7f3e e2d2 00be e98b fe3d 53ee 783e
00000050: fa8c 1b3e e239 823e 6bf3 433e 7dd8 00be
00000060: eef6 3c3e 9c5d eebd 5e96 793e 1520 42be
00000070: 2c39 7e3e f3dc 14be f156 663e d7c1 00be
00000080: 1715 183e 44eb 523e 6bf1 4fbe 45be 51be
00000090: f73d 003e c952 59be 085a 6a3e cb6e 163e
000000a0: 86f9 403e 9868 17be 7743 fcbd 48d4 5a3e
000000b0: 2418 853e 34d1 223e ef3d e9bd 9e29 35be
000000c0: 6db9 35be 5278 2f3e b084 643e 7ad3 003e
000000d0: a1a6 763e 9d9e 213e 0f3b 823e 0a1d 1abe
000000e0: b3b1 ffbd d7aa 4cbe 32dc 09be 130d 60be
000000f0: c886 43be 29f6 1dbe 7617 61be 56b7 48be
