concepts_sequential/saved_probes/capturingDefender_layer_10_probe.pth (torch, 372994 bytes, 5 tensors)

conv1.weight f4 [32, 256, 3, 3]
000000 38 3a 23 3c 7b 3c 0f bd b0 1b 28 bb 5c 1c 2a 3c
       0.009962611 -0.034969788 -0.0025651269 0.010382738
000010 f7 59 ab bc 56 cf c9 bc 7d b9 7b 3c e9 43 0a bd
       -0.020916922 -0.024634998 0.015364048 -0.03375617
000020 d9 b8 04 ba 5a 4f 4c bc 15 64 85 3c ec 96 2a 3c
       -0.0005062945 -0.012470091 0.016283074 0.010411959
000030 9e 34 9b 3b a3 64 05 3c 9a 3d 70 bb 1a 22 2a bc
       0.004736497 0.008141669 -0.003665781 -0.010384107
000040 30 dd 96 3c 5e 74 bd 3a 6c 6a 2c 3b 40 c5 2c bc
       0.018416017 0.0014454236 0.002630855 -0.010545075
000050 a1 bb 11 bc 48 9c f5 bc 51 86 e2 b9 77 ed 59 bc
       -0.008894832 -0.029981747 -0.00043206153 -0.013301245
000060 bf b0 b0 3b 46 31 4b 3c 13 ec 17 bc 18 40 b2 3c
       0.0053921635 0.012401884 -0.009272593 0.021759078
000070 b4 7c 31 3d 07 48 49 3b d9 1f 08 3d d7 c6 9f 3b
       0.043331817 0.0030713098 0.033233497 0.0048759985
000080 d3 71 11 3d e3 28 80 3b 46 d6 8c 3c 83 70 64 3b
       0.03550894 0.003911124 0.017192017 0.0034857101
000090 02 ac 01 3d 52 99 e2 3c 11 5b 92 3c c2 26 f9 3c
       0.03165818 0.027661 0.01786569 0.030413989
0000a0 f6 f9 d5 3c 84 09 a6 3c 71 f7 2f 3d de eb ff 3c
       0.026120167 0.02026821 0.042960588 0.0312404
0000b0 b1 55 84 bc b1 ff cc bc 42 55 8a bb 6f e5 1e ba
       -0.016154142 -0.025024267 -0.0042215893 -0.000606141
0000c0 1f a0 c1 3a ad 74 29 bd fb 3c 90 bc 87 85 bd ba
       0.0014772451 -0.041371036 -0.017607203 -0.001445935
0000d0 71 49 ec bc 88 52 26 3d 4b 4f 86 bc 8e a5 4f bc
       -0.028843613 0.04060605 -0.016395232 -0.012673749
0000e0 9e 1c c8 3b 9e 8b b9 bb 7f b4 63 bc e0 9f 8c 3c
       0.006106927 -0.0056623956 -0.013898014 0.017166078
0000f0 44 b4 cb 3c 9f 2d d6 bb 3a 03 89 3c 1b 3d 0a bc
       0.02486623 -0.0065362 0.016725171 -0.00843742
000100 b4 16 66 bb 9f d2 c7 3b 28 c9 7a bc db 6a b5 bc
       -0.0035108747 0.006098106 -0.015306748 -0.02214568
000110 74 f8 84 3c 9d 43 77 3c e5 48 b4 bb e8 3a ba bb
       0.016231753 0.015091804 -0.005501854 -0.0056832917
000120 8e e4 a5 bc fd 21 5a 3a 64 5d 04 bc 48 4e 30 3c
       -0.020250585 0.00083211047 -0.008078907 0.010760851
000130 1e 49 9f ba 8b 66 35 bb be db e3 bb 59 82 9a bc
       -0.0012152528 -0.0027679529 -0.0069536855 -0.018860983
000140 6d 8c 6d 3c 06 09 ec bb 51 3b bb ba c6 77 c8 3b
       0.014498812 -0.007203224 -0.0014284645 0.0061177937
000150 77 d7 3f bb ad dc a7 b9 45 d7 be 3a 02 47 31 bc
       -0.0029272714 -0.00032017138 0.0014560005 -0.010820152
000160 dc b8 99 bc 4d b7 ff bb 7a aa b8 3a 5d 59 ba 3c
       -0.018764906 -0.0078038336 0.0014088892 0.02274769
000170 cb 99 3d 3c a6 b2 cf 3b fc 6a 57 3b 22 08 0a bd
       0.011572312 0.006338435 0.0032870164 -0.033699162
000180 c6 47 9a 3c f1 8c 5c bd d2 8f 13 ba 96 49 b2 3b
       0.018833052 -0.05384535 -0.0005629036 0.005440901
000190 10 02 5e 3b 0a 9c 1e bc f0 79 95 3c fa 09 4b 3c
       0.003387574 -0.009680757 0.01824662 0.012392515
0001a0 34 05 33 3c 53 0b 93 bc 7c c2 64 3c ea 9b 57 3c
       0.0109265335 -0.017949736 0.013962384 0.013159731
0001b0 c1 b0 af bc 06 bb 04 bc 25 bc 2c 3c a1 00 b8 bb
       -0.021446588 -0.0081012305 0.010542904 -0.0056153093
0001c0 a7 2a 66 ba 5b ff 99 bc 72 32 4d 3c 14 16 71 bc
       -0.00087801594 -0.01879852 0.012524234 -0.0147147365
0001d0 ef 38 c4 3c 37 8a 92 bb 46 82 13 3c a1 33 d7 bc
       0.02395293 -0.004472043 0.009003228 -0.026269736
0001e0 3a 06 81 bc db ec 8d bc b6 5c d1 ba c3 3a 9f bd
       -0.01575004 -0.017324856 -0.0015973065 -0.0777488
0001f0 51 99 8f bc 51 4d c5 bd 9d b9 d4 3b ed 81 1b 3b
       -0.017529162 -0.096338876 0.0064918534 0.0023728565
000200 0f d0 92 3b c7 fd 9b 3c de 2b ad bb 52 b5 e5 3b
       0.004480369 0.019041909 -0.0052847704 0.0070101405
000210 9c 19 08 bc e6 cb e5 3c 77 3b 9d 3c b9 07 05 bc
       -0.008306887 0.028051328 0.019193394 -0.008119517
000220 41 e4 3c bb 56 cb 10 bd 2f c8 cf 3c 6f e2 5f bd
       -0.0028822573 -0.035350166 0.02536401 -0.054659303
000230 3d f7 18 3c 1c 0e 71 bc bc a1 34 3b 33 b1 e1 bc
       0.00933629 -0.014712837 0.0027562222 -0.027550315
000240 cb 30 a6 bb 02 94 7b 3c 5f b9 a5 bc 2e 60 a1 bc
       -0.0050717345 0.015355112 -0.020229993 -0.019699182
000250 ad 8c 5c 3c 17 84 93 3c 9e e6 2b 3d 74 ef b8 3a
       0.013461274 0.018007321 0.04196798 0.0014109449
000260 1c 67 d7 bb 57 15 fe bb ad 20 8c bc 10 54 b8 3c
       -0.006573571 -0.0077540088 -0.017105425 0.022501022
000270 24 09 ea 3c ca ee fa 3b e3 60 4e 3c 6c 8f e2 3c
       0.028568812 0.0076578604 0.012596342 0.02765628
000280 2e 58 36 3c 8a 23 a0 3c 54 a8 8c bc 3b f9 19 3c
       0.011129422 0.019548196 -0.017170109 0.0093978
000290 49 10 0e bc ed ad 84 bc 1e 35 2e bc d7 95 39 3c
       -0.008670875 -0.016196216 -0.010632781 0.0113272285
0002a0 33 0c c9 3c 31 b1 64 3c 0e 98 6c bb ae 71 32 bb
       0.02454195 0.013958261 -0.0036101374 -0.0027228403
0002b0 26 0e e1 bb f5 ce 0a 3c 91 2d b3 bb 53 6e 4b bb
       -0.0068681417 0.008472194 -0.0054680784 -0.00310411
0002c0 b9 7f a8 bc e0 57 d0 3c 97 57 f2 bb 2f b0 b5 3c
       -0.020568715 0.025432527 -0.0073956954 0.022178737
0002d0 f4 b3 b8 bc c2 ff 25 3c bc 10 92 ba 51 1a 15 3c
       -0.022546746 0.010131778 -0.0011143903 0.009100513
0002e0 04 49 b5 bc 5f b1 4f 3b e6 d9 41 3c d9 c3 8b bc
       -0.022129543 0.0031691415 0.011831736 -0.01706116
0002f0 f1 97 bc 3b d4 99 85 3c ba 2c 73 bc 0a 01 82 bb
       0.0057554175 0.016308703 -0.014842207 -0.003967409
000300 97 c8 50 bb 2a 4b 3a bb 13 f0 ad bc ef 08 82 3b
       -0.0031857842 -0.002842615 -0.02123264 0.00396835
000310 0b e9 d6 bc 9c 15 33 3c 73 88 0b bd 06 20 a0 3b
       -0.02623417 0.010930445 -0.034065675 0.00488663
000320 92 3e 0e 3c 2b 18 d0 bc c0 3f 1a 3d 27 00 d9 bc
       0.00868191 -0.02540215 0.037658453 -0.02648933
000330 d5 7a 9e 3c c7 64 b0 bc 08 ef 09 3d da fb 6f 3c
       0.01934568 -0.02153243 0.033675224 0.014647448
000340 0a 62 80 3d 13 d8 34 3d 0c 36 73 3d d5 90 9d 3d
       0.062686995 0.044151377 0.059377715 0.0769364
000350 20 25 0c bd 7b 95 b8 3d a0 63 87 bc 47 f6 e7 3d
       -0.034215093 0.09012886 -0.016526997 0.113262706
000360 9d 15 66 bc b3 f6 d4 bc 06 2b 84 3b 7e 56 77 3c
       -0.014043239 -0.025996542 0.004033449 0.015096305
000370 7d 6c 06 3c 4e ea b6 3c 3a ee ba ba 9f 4e 08 3c
       0.008204577 0.022328522 -0.0014261671 0.008319526
000380 78 7a 37 bc 68 79 92 3a 5f 53 91 3d d3 ce a2 bc
       -0.011198632 0.0011175098 0.0709598 -0.019874012
000390 4b 1b dc bb e2 6d 14 3d f7 bf f0 bc 84 0a 20 3c
       -0.0067171208 0.036237605 -0.029388411 0.009768132
0003a0 73 aa 6a bd 66 b1 69 3c b3 26 b1 bc 81 c5 10 bc
       -0.05729146 0.0142634865 -0.021624899 -0.008836151
0003b0 2a c0 98 bc 3f 19 32 bc 13 cc ae bc 31 8b 93 3c
       -0.018646318 -0.010870277 -0.021337545 0.018010708
0003c0 c0 a8 bc bc bc 63 c8 3c 7d 92 f9 3c b4 c6 01 3b
       -0.023029685 0.02446162 0.030465359 0.0019802274
0003d0 d0 da 0d bc a0 23 ab bc a7 54 7a 3b 8b f8 bc bc
       -0.008658126 -0.02089101 0.003819743 -0.023067733
0003e0 e7 51 7e 3c 91 24 1f bc 5e c0 3c 3b 72 3b a2 3c
       0.015522457 -0.009713308 0.0028801183 0.019803736
0003f0 94 15 c8 3a ca 14 84 3c 10 18 0b 3c bc 06 43 bb
       0.001526522 0.016123194 0.008489624 -0.0029758653

conv1.bias f4 [32]
000000 85 46 36 bc be 56 a5 bc 01 e1 62 bc f5 78 15 bb
       -0.011125212 -0.020182963 -0.01384759 -0.0022807692
000010 12 ec 8e 3c 03 c2 9c 3c de 4c 61 3c 5e d5 a2 bc
       0.017446551 0.01913548 0.013751237 -0.019877132
000020 37 ee 52 3c 7a 04 d9 ba 7f 99 95 bb 66 a8 66 bc
       0.012874178 -0.001655712 -0.0045654173 -0.014078235
000030 83 d8 2d 3c 15 bd 69 3c 94 66 42 3c 8b c5 bc 3c
       0.010610702 0.014266272 0.011865277 0.023043415
000040 ef cb a9 bb 2e c1 35 bc e7 69 5e bc a8 34 53 bb
       -0.0051817815 -0.011093421 -0.013575054 -0.003222743
000050 94 6f b6 3b 9a f3 94 3c 5c cc 0c bc 8b 45 a3 bc
       0.0055675004 0.018182565 -0.008593645 -0.019930622
000060 93 db 8f bc 34 4f 86 3c 7e ce 16 bc 9e 4c a4 bc
       -0.017560756 0.016395189 -0.009204505 -0.020056065
000070 6a 40 24 3c 24 66 33 bc 1b b3 60 bc 0f 6c 42 3b
       0.010025123 -0.010949645 -0.013714577 0.0029666459

conv2.weight f4 [64, 32, 3, 3]
000000 86 90 89 bb b7 51 0f bd 5d a8 04 bd 26 ce a0 bd
       -0.0041981367 -0.03499004 -0.032387126 -0.0785182
000010 7c 27 a9 bd b3 1a 2f bd d8 d3 8e bd 78 66 51 bd
       -0.08259484 -0.04275007 -0.06974 -0.051123112
000020 93 5c 63 bd 50 d7 88 3c 00 ef 8b bb 39 f7 e5 3c
       -0.055508208 0.016704232 -0.0042704344 0.028071987
000030 a6 95 81 3b 68 cf 71 3d f2 d4 c6 3d 81 f9 09 3c
       0.003954607 0.05903569 0.09708585 0.008421303
000040 7e 40 ba 3d 30 44 a6 3d 1d 2d 55 bc 28 0a 44 3d
       0.09094332 0.081184745 -0.013011244 0.04786125
000050 b0 b8 15 3d 23 dc 90 3d 82 07 8c 3d c9 17 16 3d
       0.036553085 0.07073238 0.068373695 0.036643777
000060 96 82 1d 3d d6 71 10 3c 65 f4 ce 3a c3 a1 0e 3d
       0.038454615 0.008816203 0.0015789388 0.034822237
000070 91 1f dc 3d 3f d3 9a 3d 44 af c2 3d c2 50 88 3d
       0.10748208 0.07559823 0.095060855 0.06656028
000080 78 b2 05 3e d4 4c 95 3d df 44 54 3d ef 1d 47 3d
       0.13056362 0.072900444 0.051823493 0.04861253
000090 fe 92 00 3d d1 c2 7c 3d ec ce 5f 3d 46 10 40 bc
       0.031390183 0.06170923 0.054640695 -0.01172263
0000a0 a6 ae d2 3b 6e 8a a3 3d b8 2d a4 bc f5 eb 9b 3d
       0.006429511 0.07985388 -0.020041332 0.076133646
0000b0 f9 e6 f4 bb 18 f6 2a 3d bd f0 9f bc 91 8c 1e bd
       -0.007473823 0.0417386 -0.019523973 -0.038708273
0000c0 86 56 b4 3c 5e b0 53 3c 43 ce 0b 3d 89 20 0a 3d
       0.022013914 0.012920467 0.034132253 0.033722434
0000d0 bf 32 32 bd a1 fc 28 3c cc 7a 8a 3c 15 07 b7 3c
       -0.043505426 0.010314138 0.016904257 0.022342244
0000e0 37 54 51 bd 82 61 10 3d f7 9f 5e 3d bc b4 5e 3c
       -0.051105704 0.03524924 0.054351773 0.013592895
0000f0 27 bc 85 3c c4 dd 80 3d 83 a2 44 bd c9 05 89 bd
       0.01632507 0.062922984 -0.048006546 -0.066905566
000100 69 f3 14 bd 93 5e bb bb 97 c9 42 bc e0 06 67 b9
       -0.036364947 -0.0057180612 -0.011888883 -0.00022032438
000110 9c e5 b2 bc 9a 34 85 bc 58 f1 55 bd f5 ad 78 3c
       -0.021838002 -0.016260434 -0.052232116 0.015178193
000120 fe 62 68 3d e5 7f 86 3d 4f 6a 89 3d 99 52 83 3d
       0.05673503 0.06567363 0.0670973 0.06412239
000130 95 89 86 bc bf e4 a1 3d 35 c9 0f 3d ef e6 d6 3c
       -0.016423026 0.07904958 0.035103995 0.026233165
000140 9d 23 83 3d 8d 12 82 3d 1a c3 84 3d ea d6 ad 3d
       0.06403277 0.063511945 0.06482525 0.08488257
000150 a9 f6 e9 3c e7 53 e2 3c 22 e8 88 3b f0 31 6d 3c
       0.02856 0.027627898 0.004178063 0.014477238
000160 43 b2 83 3d dc bd 9f bc 2c 1d 75 bd d3 64 e5 ba
       0.06430485 -0.019499712 -0.059842274 -0.0017501361
000170 e2 fc 01 bd 15 fb 15 3a 20 68 7e 3c 49 6f ab bd
       -0.03173531 0.0005721313 0.015527755 -0.08370835
000180 c3 54 b3 3b df 5e a5 bd a7 20 2f bd 27 0f 2c 3c
       0.005472751 -0.08074736 -0.04275575 0.0105016595
000190 ae 9a 83 bd e8 40 74 bd 63 0a 56 bd d1 20 2d bd
       -0.06425987 -0.059632212 -0.052256 -0.042267624
0001a0 52 c2 a0 bd e1 8f d0 bc f7 c9 98 bc 0b da a5 bd
       -0.07849564 -0.025459232 -0.018650992 -0.08098229
0001b0 b7 da ca bc 7f 8e 3d bd e8 4e af bd 1b 26 dd bc
       -0.024762494 -0.046278473 -0.08559972 -0.02699571
0001c0 3b 27 b8 bd f1 f6 9d bd 95 05 be bd 2f d9 9e ba
       -0.089918576 -0.07713116 -0.092784084 -0.0012119169
0001d0 33 3d c9 bc 30 40 02 be 1b a7 9d bc 90 cc e0 bc
       -0.024565315 -0.12719798 -0.019244721 -0.027441293
0001e0 07 0c de bc 34 b9 b3 bc 8d 7e 48 bd de ef bf bd
       -0.027105344 -0.021938898 -0.048948813 -0.09371923
0001f0 d8 68 5e bd fa 18 aa bd e3 64 9e bd 0d 57 97 bd
       -0.054299206 -0.08305545 -0.07734086 -0.073896505
000200 ab 4a 74 bd 97 fc 59 bd 06 8f 92 bd 12 4d ee bc
       -0.05964152 -0.053219404 -0.07156186 -0.029089484
000210 bb 95 0f bd a2 59 65 bc 2d 24 ba bb e9 34 00 3c
       -0.035054903 -0.013998421 -0.005680582 0.007825115
000220 18 5d db 3c fe 80 3e 3d 98 c4 47 3d 7a e7 8a 3d
       0.026777789 0.046509735 0.04877147 0.06782432
000230 fb 39 9e 3d 31 d0 c3 bc 71 1c 8c 3d 71 a2 aa 3d
       0.07725903 -0.023902984 0.06841362 0.083317645
000240 c9 30 c1 3d d0 ce 90 bc de de 9e 3d 31 2c 45 3d
       0.09433133 -0.01767674 0.07757352 0.048137847
000250 46 73 dc 3b 06 50 dc 3c ae d1 d1 3b 67 74 b6 3c
       0.006727609 0.026893627 0.0064031696 0.022272302
000260 af 6a 60 3d 44 a8 54 3d f0 61 52 3d ce de bd 3c
       0.05478924 0.051918283 0.05136293 0.02317753
000270 94 d7 79 3d 08 57 80 bc 65 f4 92 3c 37 59 12 3d
       0.060996607 -0.0156665 0.017938802 0.035729613
000280 ef a3 98 3d cc 6a c1 bc 00 d5 a0 bd cc 3a 7e 3b
       0.07453143 -0.023610495 -0.078531265 0.003879237
000290 6a 48 b2 bd d5 e1 33 bd 3e 69 ab bd a9 a9 b0 bd
       -0.08705218 -0.043916542 -0.08369683 -0.0862611
0002a0 ed 40 1d bc 87 83 80 bd 9b ed 80 bc 72 4b 81 bd
       -0.009597999 -0.06275087 -0.0157383 -0.06313218
0002b0 77 e6 d5 bd a2 f8 20 bd a2 8a cc bc cc 14 e1 3a
       -0.10444348 -0.039299615 -0.024968449 0.0017172336
0002c0 09 79 f0 bb 99 06 24 bd dc 88 80 bd c9 ae a1 bc
       -0.0073386473 -0.040045355 -0.06276104 -0.019736664
0002d0 0d 64 91 bc 27 99 bf bd b7 eb 99 bd ea 2c 89 bd
       -0.017747903 -0.09355383 -0.07515662 -0.0669802
0002e0 36 bd 15 bd 2c 2d b3 bd d6 6f ba bd 1a e2 27 bd
       -0.0365574 -0.0874885 -0.09103362 -0.04098711
0002f0 b8 a9 f5 bd a5 be e5 bc 0c 80 cd bc db 51 f3 3c
       -0.11995262 -0.028045008 -0.025085472 0.029702118
000300 ab 78 1c bd 31 96 05 3d 2b 1f 1a 3c 61 a8 82 3d
       -0.038201015 0.032613937 0.009406845 0.06379772
000310 08 4e bf bc c1 9b 1d 3d 42 11 c0 bc 97 68 83 bd
       -0.023352638 0.038478617 -0.02344573 -0.06416433
000320 a7 c2 f3 bc e9 9c 98 bd 05 cf a7 bd 23 a3 ce bc
       -0.029755903 -0.07451803 -0.08193783 -0.025224274
000330 09 b5 b8 bd cb 76 0b bd 60 de 83 bd 2c 40 f3 bd
       -0.09018905 -0.034048837 -0.06438899 -0.11877474
000340 a7 20 d1 bd d8 5e 8b bd d9 86 15 bd 0d 5c 34 bd
       -0.10211306 -0.068051994 -0.036505554 -0.0440331
000350 15 8d c8 bd ec a4 a0 bd 96 e6 25 bc 25 23 ba bd
       -0.09792534 -0.07843956 -0.010125777 -0.090887345
000360 67 da 80 bd 0a 3d 85 bd b0 ef 9c 3c 82 76 7d bd
       -0.06291657 -0.06505783 0.01915726 -0.061880596
000370 e4 bf 88 bd 23 31 42 3c 57 63 30 bc fd 40 9d bd
       -0.06677225 0.011852535 -0.010765872 -0.07678411
000380 66 98 9b bd 37 9b a2 3c 5b 5f 2d bc 87 f2 62 3d
       -0.07597427 0.019849403 -0.010581817 0.055407073
000390 5e 90 d9 3b 4d b6 83 3b 2b 56 17 3d 27 25 db 3c
       0.0066395244 0.0040195347 0.03694741 0.026751114
0003a0 23 15 d3 bb 1f b6 63 3c 1d b6 23 bd d4 5c 22 bd
       -0.0064417287 0.0138984015 -0.0399686 -0.03963931
0003b0 02 09 29 3d b5 03 00 3d f8 f6 13 bd 38 1f 6d bd
       0.041268356 0.031253535 -0.0361242 -0.0578911
0003c0 34 02 3a 3c 91 0c 41 bc c4 8a 33 bd d3 52 dc 3c
       0.011353064 -0.011782781 -0.04383351 0.026894962
0003d0 ab ba 3d 39 13 bc 00 3b 81 17 6a 3d f3 f9 0d 3d
       0.00018093984 0.001964335 0.05715132 0.0346622
0003e0 89 0b e3 3c b1 e6 15 bd bc e3 41 3d 9d b4 6e 3c
       0.027715461 -0.036596958 0.047336325 0.014569429
0003f0 76 a5 3f 3d ad bf 40 bd e5 4f 35 bd 38 ce d8 3c
       0.046788655 -0.047057796 -0.044265646 0.02646552

conv2.bias f4 [64]
000000 8d 7d 61 3d 87 69 24 bd 41 ef 36 bc 08 d6 d2 3c
       0.055051375 -0.0401397 -0.011165441 0.025736824
000010 c3 9b d4 3c 77 aa 35 bd e3 5f 37 bd 37 de 31 bd
       0.02595318 -0.04435202 -0.04476918 -0.04342481
000020 af 15 6f bc 9c 63 36 3d ff 4b 84 bd f6 b8 0f 3c
       -0.014592572 0.04452859 -0.064598076 0.0087721255
000030 57 c6 e7 bc ca be 36 bd d3 d0 8b 3c fc fa 68 bd
       -0.028292818 -0.044615544 0.017067349 -0.056879982
000040 18 ef e1 bc 96 77 8c 3c 85 dd 93 3c 5d 3d 51 3d
       -0.02757983 0.017146867 0.018049965 0.05108391
000050 0d 5e ae 3c 1d 03 c9 3c f3 fc 40 bd eb c6 e7 bc
       0.021285081 0.024537617 -0.04711623 -0.028293094
000060 18 0d a6 bc f0 90 79 bc 85 5d 30 bd a8 b5 00 bd
       -0.020269915 -0.01523231 -0.043057937 -0.03142324
000070 1f c6 3c 3d 68 63 e1 3c 50 8c 41 b9 bc f2 e2 bc
       0.04608738 0.02751322 -0.00018458185 -0.027703635
000080 1f e6 3e 3c 49 6a 01 3d e2 bf 27 3d 03 33 41 bd
       0.011651545 0.031595502 0.040954478 -0.04716779
000090 67 54 84 bd 08 58 25 3d 68 80 ea bc 8b 12 25 3d
       -0.06461411 0.040367156 -0.028625682 0.040300887
0000a0 ad 04 a0 3c 69 e9 96 ba b8 af 52 bd 58 6f 3c 3d
       0.01953348 -0.0011513653 -0.05143711 0.046004623
0000b0 db e8 5e bc c5 97 0f 3d 78 5c 53 3d ff 46 2d 3d
       -0.013605322 0.035056848 0.051601857 0.042304035
0000c0 41 ca 49 3d ea 04 01 3d 91 f1 1c bd 36 5e 50 bd
       0.04926515 0.031498827 -0.038316313 -0.050871097
0000d0 96 d2 d3 3c 48 a2 c3 3c 98 06 23 bd 4d 37 12 bd
       0.025857251 0.023881093 -0.03980121 -0.03569727
0000e0 a4 58 f6 bc d7 e8 22 3c 4c 5e 46 3d b3 89 4e bc
       -0.030071564 0.009943209 0.048429772 -0.012606072
0000f0 2b 31 dd bc f6 4e e8 3c 18 ed 0b bd f1 e9 dd 3c
       -0.027000984 0.028357964 -0.034161657 0.027089091

linear.weight f4 [1, 64]
000000 fc 04 2c be 2b ed 0c 3e 5a d3 47 3e c4 d2 52 3e
       -0.16798776 0.13762347 0.19514218 0.20588213
000010 3e 8d f6 3d 8c 20 11 3e 97 0f 51 3e 4c 93 2e 3e
       0.120386586 0.14172572 0.20416103 0.17048377
000020 f3 28 c5 bd 5d 72 54 3e 29 b7 5b 3e b4 02 71 be
       -0.09626951 0.20746751 0.21456589 -0.23536187
000030 fa ca 29 3e e6 49 32 3e 43 f6 4a 3e ea 7f 56 3e
       0.16581336 0.17411003 0.19820504 0.20947233
000040 b1 bc 29 3e e4 41 51 3e 6c 85 dc 3d 26 03 0d be
       0.16575886 0.20435292 0.10767636 -0.13770732
000050 73 cf 27 3e f7 d9 19 3e a3 8a 42 be 41 f2 d9 3d
       0.1638773 0.15024553 -0.18998198 0.106419094
000060 d0 78 09 3e cc 83 fb bd 48 e6 ce 3d c1 e8 37 3e
       0.13424993 -0.12280998 0.101025164 0.17959882
000070 a8 a3 2e be c1 8b 39 be 79 8a 23 be 3b e8 1f be
       -0.17054617 -0.18119718 -0.15970792 -0.15615933
000080 da 55 34 be e9 ff 55 be 01 2a 1a be 52 e7 a6 bd
       -0.17610875 -0.20898403 -0.15055086 -0.081495896
000090 13 6b 05 3e f9 96 5b 3e 80 4a 5c be 7d 22 0c be
       0.13029127 0.2144431 -0.21512794 -0.13685031
0000a0 8e c2 50 be 73 3d 24 be e2 bc 44 be 5f 37 f8 3d
       -0.20386717 -0.16039066 -0.19212678 0.12119936
0000b0 26 de 09 3e 92 84 d5 3d 52 69 3c be b0 7e 04 3e
       0.13463649 0.104256764 -0.18399552 0.12938952
0000c0 47 20 19 be ab 31 27 be a2 58 f2 bd b0 96 5b be
       -0.14953719 -0.1632754 -0.118333116 -0.21444201
0000d0 8e c8 d7 3d 55 4f 25 3e e9 8b 07 3e 78 80 22 be
       0.105363 0.16143544 0.13236965 -0.1586932
0000e0 9e 05 16 3e 37 7e 2c be 66 69 17 be 15 0d 2c 3e
       0.1465058 -0.16845022 -0.147863 0.16801865
0000f0 f2 d9 40 3e 8d 0c 05 3e 8b 28 03 3e e8 42 41 3e
       0.1883314 0.12993069 0.12808435 0.18873179
