concepts_sequential/saved_probes/clearance_layer_10_probe.pth (torch, 372914 bytes, 5 tensors)

conv1.weight f4 [32, 256, 3, 3]
0	0xba34abf7	-0.000689208
1	0x3cbe8a20	0.023259223
2	0xbbcb36d2	-0.0062016034
3	0xbaeed15b	-0.0018220352
4	0xbb9ae42e	-0.004726908
5	0x3bde8d1f	0.0067917253
6	0xbb511e0c	-0.0031908778
7	0x3d1f7a3a	0.038934924
8	0x3d36035a	0.04443679
9	0xbd0cf10c	-0.034409568
10	0x3c03b1b6	0.008037975
11	0x3be61d9b	0.007022572
12	0x3c64e1ad	0.013969821
13	0xba0332f3	-0.00050048454
14	0x3c3e660d	0.0116210105
15	0xb985bcfc	-0.0002550854
16	0x3c32d2f7	0.010914556
17	0x3c22b1f6	0.0099301245
18	0xbc1ba1f8	-0.009499066
19	0x3b64a692	0.0034889323
20	0xbc5f2abf	-0.013621031
21	0x3bd8ad51	0.006612458
22	0xbc91b798	-0.01778774
23	0x3c49c266	0.012314415
24	0xbce30c54	-0.02771584
25	0xbcd1b786	-0.025600206
26	0xbc377b42	-0.011198821
27	0xbd08e8e0	-0.033425212
28	0xbc8655e3	-0.016398376
29	0xbd95f7ad	-0.07322631
30	0x3be415e1	0.006960616
31	0xbd25c89b	-0.040474515
32	0x3c8c60e2	0.017136041
33	0xbcc74ed4	-0.02432958
34	0xbc4d4568	-0.012528755
35	0x3cd61cce	0.026136782
36	0x3bfbad62	0.007680581
37	0x3cecbbb1	0.028898092
38	0x3d33862c	0.04382913
39	0x3d385bf4	0.04500957
40	0x3d8804a9	0.06641514
41	0x3c72108d	0.014774454
42	0x3da14aaf	0.07875573
43	0x3d70f553	0.05882771
44	0x3d0d1850	0.034447014
45	0xbbc23e20	-0.005927816
46	0xbb89aaf3	-0.004201287
47	0x3af9c70c	0.0019056513
48	0xbbca678a	-0.0061768936
49	0xbd46a927	-0.04850116
50	0xbd6f638c	-0.058444545
51	0x3be6375e	0.0070256433
52	0xbbf9cc0f	-0.0076232026
53	0x3d120cd0	0.03565675
54	0x3c217951	0.009855584
55	0x39ec5837	0.00045079153
56	0xbb32b2d5	-0.0027267237
57	0xbc9d2b8d	-0.019185806
58	0x3be546e5	0.0069969767
59	0xbc879135	-0.016548732
60	0xbc0b6edf	-0.00851032
61	0xbcc5ac73	-0.024130082
62	0x3b02ae42	0.0019940292
63	0xbc081a2f	-0.008307024
64	0x3c3a1f31	0.011359976
65	0x3bb2be6c	0.005454829
66	0x3c69e892	0.0142766405
67	0xba894c7d	-0.0010475066
68	0xbb2c36b8	-0.0026277732
69	0xbc8e2c71	-0.017355176
70	0x3d16a35b	0.03677688
71	0x3cc0c211	0.023530038
72	0x3cb067da	0.021533895
73	0xbcc6d060	-0.024269283
74	0xbc93d39a	-0.018045235
75	0xba3781d3	-0.00070002413
76	0xbc06897a	-0.008211488
77	0x3c8541c2	0.016266707
78	0x3c79a166	0.015236234
79	0x3ce9dca2	0.028547589
80	0x3c3a1ca3	0.011359367
81	0xbcd2f841	-0.025753142
82	0x3a6d25f2	0.0009046487
83	0xbd41cb22	-0.047312863
84	0x3cf0ed7a	0.029410113
85	0x3c73a4c4	0.014870826
86	0x3bf797be	0.007555931
87	0xbc73c385	-0.014878158
88	0xbc3c55bd	-0.011495051
89	0xbc269432	-0.010167168
90	0x3cf69e84	0.030104883
91	0xbcadd6bd	-0.02122056
92	0x3d0c323a	0.034227587
93	0x3c049c46	0.008093899
94	0xbc2371a8	-0.009975828
95	0xbc93188f	-0.017956046
96	0x3d65552f	0.05598944
97	0xba7cf7ae	-0.0009649944
98	0x3cc7a578	0.024370894
99	0xbd07caa2	-0.03315223
100	0xbcee4805	-0.029087076
101	0xbc759c86	-0.014990931
102	0x3c01515d	0.007892934
103	0xbcf96826	-0.03044517
104	0xbcd80cd3	-0.026373303
105	0x3b69ffa6	0.0035705357
106	0xbc8d3ef4	-0.017241932
107	0xbca70e53	-0.020392573
108	0x3b8088ae	0.0039225435
109	0x3bd33057	0.0064449715
110	0x3d7caa7e	0.06168603
111	0x3c4b2664	0.01239929
112	0x3d25b14c	0.040452287
113	0x3c293d5d	0.010329572
114	0x3d14dfab	0.03634612
115	0x3d24348d	0.04008918
116	0x3d73c78d	0.05951648
117	0x3bcf12c4	0.0063193757
118	0xbc8cf94c	-0.017208718
119	0xbd052d6f	-0.032514032
120	0x3c97bd9b	0.018523028
121	0xbcc7ffb3	-0.02441392
122	0xbd75cced	-0.060009886
123	0x3b86b728	0.0041111894
124	0xbc9f72b0	-0.019463867
125	0xbdb32b4c	-0.087484926
126	0xbc8bee51	-0.017081412
127	0xbc9fdd06	-0.019514572
128	0x3c3d5e93	0.011558193
129	0xbcc365fa	-0.023852337
130	0x3b0e8d1d	0.002175159
131	0x3a60e3db	0.0008578875
132	0xbc71df45	-0.014762704
133	0x3bafb8cd	0.005362606
134	0xbab4e6df	-0.0013801715
135	0xbc8ba76e	-0.01704761
136	0xbc904f50	-0.017615944
137	0xbcf1d97b	-0.029522648
138	0x3b6fd17f	0.0036593375
139	0x3c5d0670	0.013490304
140	0x3c56da2f	0.013113542
141	0x394d7c73	0.00019596684
142	0x3c58dd14	0.013236303
143	0xbcbe0574	-0.02319596
144	0xbc1e4436	-0.009659817
145	0xbc4063a5	-0.011742507
146	0x3d129242	0.035784014
147	0x3b413a19	0.0029484092
148	0x3c8993a0	0.016794026
149	0xbc744f64	-0.014911506
150	0xbc046df3	-0.008082855
151	0xbc9bee92	-0.019034658
152	0x3c818d6d	0.015814507
153	0x3c248975	0.010042538
154	0x3c9284ea	0.017885644
155	0xbc93193c	-0.017956369
156	0x3c48fed5	0.012267788
157	0x3a8deb49	0.0010827567
158	0xbc4b21d1	-0.012398199
159	0xbcf4e633	-0.029894924
160	0xbc456523	-0.012048039
161	0xbc0027d0	-0.007821992
162	0x3c292d40	0.01032573
163	0xbc55b135	-0.013042738
164	0x3c2a645b	0.010399903
165	0xbacf5156	-0.0015817087
166	0xbbeab157	-0.007162254
167	0x3c56e0b7	0.0131151
168	0x3c86363a	0.01638328
169	0xbc30831c	-0.010773446
170	0xbc096235	-0.008385231
171	0x3d8884a6	0.06665926
172	0x3d4fab65	0.050700564
173	0x3d1d77d6	0.038444363
174	0xbb46f185	-0.003035636
175	0xbc3d3348	-0.011547871
176	0xbc013fca	-0.007888744
177	0x3c06e656	0.008233627
178	0x3bce75e6	0.0063006757
179	0xbc7f905e	-0.015598385
180	0x3a88427a	0.0010395788
181	0x3c400f7f	0.011722445
182	0x39d6e229	0.00040985763
183	0xbbf06644	-0.0073364098
184	0x3c1d7545	0.009610479
185	0x3c32ae1e	0.010905771
186	0xb91a1936	-0.00014695976
187	0xbbe9de50	-0.0071370974
188	0xbc5dfe61	-0.013549418
189	0x3c6c316a	0.014416078
190	0x3bcfaac3	0.006337495
191	0x3c9956fb	0.018718233
192	0x3c529899	0.012853765
193	0x3c62758e	0.0138219725
194	0xbae46f7e	-0.0017428247
195	0xbaa04ccc	-0.0012229919
196	0xbba50fad	-0.005037269
197	0x3c04fc0a	0.008116731
198	0x393fde0b	0.00018297897
199	0x3c158b76	0.009127488
200	0x3c8f8ea7	0.017524077
201	0x3bc7a611	0.0060927947
202	0xbcfafb5a	-0.030637432
203	0x3c87fbd1	0.016599568
204	0x3b867fa6	0.0041045723
205	0xbd108f66	-0.035293005
206	0xbc4a5049	-0.012348243
207	0xbaf8b6c6	-0.0018975369
208	0x3c26c28a	0.010178218
209	0x3d7b5882	0.061363705
210	0x3cc17a4f	0.023617892
211	0xbcea7c0b	-0.028623601
212	0xbcfbc788	-0.030734792
213	0x3c92e146	0.017929684
214	0xbd7f4171	-0.06231827
215	0x3d4dcf0e	0.05024629
216	0x3c887393	0.016656673
217	0x3c3dd2cc	0.011585902
218	0x3ccf397f	0.025295971
219	0x3abf0716	0.0014574255
220	0xbb8b4910	-0.004250653
221	0x3cfd9304	0.030953892
222	0xbc6e97f9	-0.0145626
223	0x3c4fc7ce	0.0126819145
224	0xbc840433	-0.016115284
225	0x3d7c0f3c	0.061537966
226	0x3d4832c0	0.048876524
227	0x3c6bb32a	0.014385978
228	0x3ae1896c	0.0017207093
229	0xbc4f60cc	-0.0126573555
230	0x3ca23506	0.019800674
231	0x3d40cc3b	0.04706977
232	0x3d9b77f5	0.07591239
233	0x3dc172dc	0.09445736
234	0xbca2b025	-0.019859383
235	0xbac3bbf4	-0.0014933334
236	0xbc4954d7	-0.012288294
237	0x3c16f506	0.009213692
238	0xbc29dee6	-0.010368085
239	0xbbe08469	-0.006851722
240	0x3d0f7162	0.03502024
241	0x3c8b2a64	0.016987987
242	0x3d83bf62	0.06432988
243	0xbc9625f7	-0.01832865
244	0xbc8dd3ba	-0.017312873
245	0xbc4e337e	-0.012585519
246	0xb884544a	-6.3099505e-05
247	0x3cd756f8	0.026286587
248	0xbc10cfff	-0.008838653
249	0x3d48d57d	0.049031723
250	0x3c8417a9	0.016124563
251	0x3cc76fd6	0.02434532
252	0xbc446676	-0.011987319
253	0xbcacdded	-0.021101916
254	0xbbcdb9a3	-0.006278233
255	0xbcd9bc23	-0.026578968

conv1.bias f4 [32]
0	0xba26b131	-0.0006358801
1	0x3c8e4c3d	0.017370338
2	0x3bc5d02c	0.006036779
3	0xbc921bbb	-0.017835489
4	0xbc060014	-0.00817873
5	0x3cb04b9f	0.021520434
6	0xbc945850	-0.018108517
7	0xb79d87dd	-1.8779125e-05
8	0x3c9645c0	0.018343806
9	0x3bad5fdd	0.005290969
10	0xbc9ee06a	-0.019394118
11	0x3c82f645	0.015986571
12	0x39c32570	0.0003722119
13	0xbcb55031	-0.022132965
14	0x3bc3a8ff	0.0059710736
15	0xbc918f26	-0.017768454
16	0x3c986a0e	0.018605258
17	0x3b8b8f3d	0.0042590187
18	0xbc2b92e4	-0.010472033
19	0x3c9fc11a	0.019501258
20	0x3c0ba296	0.00852265
21	0x3c11ee87	0.008906967
22	0x3c1a0a2a	0.009401837
23	0xbc304beb	-0.010760288
24	0x3c706031	0.014671371
25	0xbcc3b72e	-0.023891058
26	0x3b52d70a	0.003217163
27	0xbcae3153	-0.021263754
28	0xbbb11a92	-0.0054047788
29	0xbc3b2ef4	-0.011424769
30	0xbbe70b96	-0.0070509417
31	0xba9fd1a3	-0.0012193214

conv2.weight f4 [64, 32, 3, 3]
0	0xbdc4dadb	-0.09612056
1	0xbd1e97f7	-0.038719144
2	0xbd481b2c	-0.048854038
3	0xbc368b77	-0.011141649
4	0xbd403236	-0.046922885
5	0xbbabadb1	-0.0052392115
6	0xbdc4f693	-0.09617343
7	0xbdadeb6f	-0.08492171
8	0xbd855f54	-0.06512323
9	0xbc71808b	-0.01474012
10	0xbd24a73a	-0.040198542
11	0x3c48e32d	0.012261194
12	0xbd920d56	-0.0713145
13	0xbc27fd32	-0.010253238
14	0x3c69b07b	0.014263268
15	0x3c7d444d	0.015458179
16	0xbd0abbbe	-0.03387045
17	0xbd893707	-0.06699949
18	0x3dca705a	0.098847106
19	0x3d1b52e5	0.03792085
20	0x3ca123b3	0.019670343
21	0x3b392a7f	0.002825409
22	0x3d8ab2ae	0.06772362
23	0x3dca4c03	0.09877779
24	0x3dd18df6	0.10232155
25	0x3cc7efa8	0.02440627
26	0x3db65cda	0.08904429
27	0xbc56a096	-0.01309981
28	0xbd57b5b9	-0.05266354
29	0x3c93322b	0.017968258
30	0xbcf3e2ca	-0.029771227
31	0xbd9209ab	-0.0713075
32	0xbcdba962	-0.026814166
33	0xbd0fc95e	-0.035104148
34	0xbda1bf79	-0.07897849
35	0x3c20eaed	0.009821636
36	0x3dea7223	0.11447551
37	0x3d971bb5	0.073783316
38	0x3d752c38	0.059856623
39	0x3c8d110d	0.017220045
40	0x3dca7d15	0.09887139
41	0x3d3123ea	0.04324714
42	0x3dc76c9a	0.09737511
43	0x3dadf423	0.08493831
44	0x3e125a17	0.14292179
45	0x3d1454f2	0.036213823
46	0x3d2bf151	0.041978184
47	0x3d3d0432	0.04614658
48	0x3da2f3d8	0.07956666
49	0x3d792011	0.060821597
50	0xbbdab5fb	-0.006674526
51	0x3d17f9f7	0.03710362
52	0xbbfefb6b	-0.007781436
53	0x3da4fb49	0.08055741
54	0xbd2e8570	-0.042607725
55	0xbd63ee1d	-0.055647004
56	0xbb8fec0d	-0.004392153
57	0x3c3ff9cd	0.011717272
58	0xbd9ebb3f	-0.07750558
59	0xbda76dc8	-0.08175236
60	0xbcd58da0	-0.026068509
61	0x3b6e1ace	0.0036331895
62	0x3c7c64c1	0.015404881
63	0x3da65324	0.081213266
64	0xbb3a7cad	-0.002845566
65	0x3d8071d4	0.06271711
66	0x3d895f62	0.06707646
67	0x3cbef83d	0.023311729
68	0x3d5c0081	0.053711418
69	0xbc139d04	-0.009009603
70	0xbc85e7cb	-0.016345879
71	0x3c8bc3fe	0.01706123
72	0x3d95e79a	0.07319565
73	0x3c7bc057	0.015365682
74	0x3d0d412d	0.034485985
75	0x3d2fba72	0.042902417
76	0x3bfbb3e9	0.007681359
77	0x3dd60601	0.10450364
78	0x3c26e56a	0.0101865325
79	0x3ddde495	0.10834614
80	0x3d0f6f67	0.03501835
81	0x3cd2af3a	0.02571832
82	0xbcaf8903	-0.021427637
83	0x3d746122	0.059662946
84	0xbcad97b5	-0.021190504
85	0x3d163f16	0.036681257
86	0xbba6334c	-0.005072033
87	0x3d89ee9f	0.067349665
88	0x3b9a8454	0.004715482
89	0x3ca69808	0.020336166
90	0x3cfe2b36	0.031026464
91	0x3c19f79e	0.009397415
92	0x3cb95675	0.022624234
93	0x3d9acd5c	0.075587004
94	0x3c6f42fe	0.0146033745
95	0x3d54fd61	0.051999453
96	0xbb10c222	-0.0022088368
97	0x3cbbc7e9	0.022922473
98	0x3d8ddcd2	0.06926884
99	0xbd0bb0bc	-0.034104094
100	0xbd8ac6ca	-0.06776197
101	0x3c8bd708	0.017070308
102	0xbd325de5	-0.043546576
103	0xbd9d7def	-0.076900356
104	0xbd6de5f7	-0.05808064
105	0x3aeb4d72	0.0017952158
106	0xbd571e8f	-0.052519377
107	0x3b9548bb	0.0045557893
108	0x3c87f1e9	0.016594844
109	0x3d7f7c14	0.06237419
110	0x3ca8e6ab	0.020617804
111	0x3d9bfaae	0.07616173
112	0xbce47610	-0.027888328
113	0xbc8c5ef2	-0.017135117
114	0x3d805bf8	0.06267542
115	0x3bad8457	0.005295317
116	0x3d690748	0.05689171
117	0x3d6525e4	0.05594434
118	0x3da390cf	0.079866044
119	0x3d639429	0.05556122
120	0x3dae4ecf	0.08511125
121	0x3d2aefb9	0.041732524
122	0x3d749c08	0.059719115
123	0x3dee3d7b	0.1163282
124	0x3d8d35b2	0.06895007
125	0x3ca36bf6	0.01994894
126	0xbbee283e	-0.007267981
127	0xbd545769	-0.051841173
128	0xbdbe232e	-0.09284054
129	0xbd410d0f	-0.047131594
130	0xbbd5c996	-0.006524275
131	0xbdbd0b45	-0.09230665
132	0xbc61ed63	-0.013789508
133	0xbd1f3b57	-0.03887495
134	0xbdb8cea6	-0.0902379
135	0x3da8e3b5	0.08246557
136	0x3d44f9e4	0.048089877
137	0x3d40dbaa	0.047084488
138	0x3c988326	0.018617224
139	0x3dc52e7e	0.09628008
140	0x3cb5122a	0.022103388
141	0x3db9bab7	0.09068816
142	0x3db1fe71	0.08691109
143	0x3d3722de	0.044710986
144	0xbcac88db	-0.021061352
145	0xbc1c06d7	-0.009523115
146	0xbcb370ee	-0.021904435
147	0xbd91dcb4	-0.07122174
148	0xbb932244	-0.0044901688
149	0xbd89b26f	-0.06723487
150	0xbdb68941	-0.08912898
151	0x3c27284b	0.010202478
152	0xbd1f71b7	-0.038926806
153	0xbc08cd3f	-0.008349716
154	0x3c3d7806	0.01156426
155	0xbcbc0f0c	-0.022956394
156	0x3d6845ac	0.05670707
157	0xbb91e400	-0.0044522285
158	0xbcee9818	-0.029125258
159	0x3c802090	0.015640527
160	0x3d89fcae	0.06737648
161	0x3c032e07	0.008006579
162	0xbc87a800	-0.0165596
163	0xbb033c2e	-0.0020024884
164	0xbc8adf6d	-0.01695224
165	0xbd38d3b6	-0.04512378
166	0xbdb7a9c1	-0.08967925
167	0xbdb6b718	-0.08921641
168	0xbd7e4f92	-0.062087603
169	0xbdade159	-0.08490247
170	0xbce8379e	-0.028346833
171	0x3d830f91	0.063994534
172	0x3d869400	0.065711975
173	0x3dd82876	0.10554592
174	0x3d673876	0.05645033
175	0x3d0df256	0.034654938
176	0x3d1d1606	0.03835108
177	0x3dae0030	0.084961295
178	0x3c9ba701	0.019000532
179	0x3d0b0918	0.03394422
180	0xbc8d0139	-0.017212497
181	0x3d520f99	0.051284406
182	0x3d944314	0.07239357
183	0x3d912dca	0.07088812
184	0x3c3d966a	0.011571506
185	0x3d057bc0	0.03258872
186	0xbb602483	-0.003420145
187	0x3c786549	0.015160867
188	0x3cf8b62e	0.030360308
189	0xbd39bf50	-0.045348465
190	0xbd97bc44	-0.07408956
191	0xbbde6eff	-0.006788134
192	0xbd9c218f	-0.07623588
193	0x3c33f3e0	0.010983437
194	0xbc95d4bd	-0.018289918
195	0xbc9933e2	-0.018701497
196	0xbd1f2c4d	-0.038860608
197	0xbd6a5bca	-0.057216443
198	0x3dbfa806	0.0935822
199	0x3d83fb71	0.06444443
200	0x3db29368	0.08719522
201	0x3d9f05f7	0.077648096
202	0x3dae3ecc	0.08508071
203	0x3d94b3e7	0.07260876
204	0x3d5793fb	0.05263136
205	0x3d8145a8	0.06312114
206	0x3d399aec	0.04531376
207	0xbc8a1a86	-0.01685835
208	0x3d087770	0.03331703
209	0xbc90e363	-0.017686551
210	0xbcf61c97	-0.03004293
211	0x3c93c024	0.018035956
212	0x3c832a45	0.016011367
213	0x3d19cd33	0.03754921
214	0xbcc976b2	-0.024592731
215	0xbce948b4	-0.02847705
216	0x3dd71b3e	0.10503243
217	0x3c61d0d3	0.013782698
218	0x3d2f0f50	0.042739213
219	0x3d5f0640	0.05444932
220	0x3da9f1ca	0.08298071
221	0x3dfc440c	0.123176664
222	0x3d0dfd6a	0.034665503
223	0x3d2852bd	0.04109453
224	0x3d191a3c	0.037378535
225	0x3d6e8cc4	0.058239713
226	0x3cc785b0	0.02435574
227	0x3bbf2c2d	0.0058341236
228	0x3d655641	0.05599046
229	0x3d7722f4	0.06033607
230	0xbc330f9c	-0.0109290145
231	0xbbf7af3a	-0.0075587304
232	0x3d5a093b	0.05323146
233	0x3bf36828	0.007428188
234	0x3cc5977d	0.024120087
235	0xbd700307	-0.058596637
236	0x3c6ac6e2	0.014329644
237	0x3d0537dc	0.032523975
238	0xbd4a2a67	-0.049356844
239	0xbd836709	-0.06416137
240	0xbc912602	-0.017718319
241	0x3b16f822	0.0023036082
242	0xbc80c559	-0.015719103
243	0xbd579a48	-0.05263737
244	0xbd8b573d	-0.06803749
245	0xbd93e185	-0.07220749
246	0xbd207dff	-0.03918266
247	0xbdb659dd	-0.08903859
248	0xbd715066	-0.058914565
249	0xbe004018	-0.1252445
250	0xbddae1df	-0.10687613
251	0xbc50af79	-0.012737148
252	0x3ca40d89	0.020025985
253	0xbcf16462	-0.029466812
254	0xbcd98677	-0.026553376
255	0xbd8c4cb4	-0.068505675

conv2.bias f4 [64]
0	0xbd3cb70e	-0.046073012
1	0x3c307d09	0.010771998
2	0x3c419103	0.011814359
3	0xbae5d587	-0.001753495
4	0xbcacd086	-0.021095525
5	0x3c200b7a	0.009768361
6	0xbd38e848	-0.045143396
7	0x3d320ef3	0.043471288
8	0x3d2e81d1	0.04260427
9	0x3d1cbf80	0.038268566
10	0x3d0f6178	0.035005063
11	0xbbf3044b	-0.0074162832
12	0x3cbdc9b4	0.023167469
13	0xbcfd9756	-0.030955952
14	0xbc997051	-0.018730314
15	0xbd39d47b	-0.045368653
16	0xbc5f8551	-0.013642625
17	0xbd27e6c4	-0.04099156
18	0xbc858fa8	-0.016303852
19	0xbd35d721	-0.044394616
20	0xbcae0580	-0.021242857
21	0xbd1d54d8	-0.03841099
22	0xbb27fdd6	-0.0025633476
23	0x3c75a80d	0.01499368
24	0x3d51cecd	0.05122261
25	0x3c837ed6	0.016051691
26	0xbcd95db9	-0.026533948
27	0x3d149acd	0.036280442
28	0x3b72f825	0.0037074175
29	0xbd2bf6b1	-0.04198331
30	0xbb25dd19	-0.0025308786
31	0x3d42d56f	0.047566827
32	0xbcf151e5	-0.029457996
33	0xbd11b466	-0.035572432
34	0x3ca22a0d	0.019795442
35	0x3d54b31c	0.051928625
36	0xbd223a72	-0.03960652
37	0x3d3693ee	0.04457467
38	0xbd38d61a	-0.04512606
39	0x3d2569c7	0.04038408
40	0x3d27697e	0.04087209
41	0x3d6497e3	0.055808913
42	0xba3ef73e	-0.0007284767
43	0x3c23b961	0.009992928
44	0xbd402897	-0.04691371
45	0xbd476d9f	-0.048688527
46	0x3d6f2a61	0.058390025
47	0x3ccf9778	0.02534078
48	0x3cd05e87	0.0254357
49	0xbc2031a2	-0.009777458
50	0xbcddabc3	-0.027059441
51	0x389c7bf3	7.461747e-05
52	0x3c12723a	0.008938367
53	0x3ce6328f	0.02810028
54	0x3bc58144	0.0060273726
55	0xbcc2de3e	-0.023787614
56	0x3aedc70b	0.0018140984
57	0xbcbb3e8d	-0.022856975
58	0xbd27f1d9	-0.04100213
59	0xbb3ce978	-0.0028825682
60	0xbc460c09	-0.01208783
61	0x3d653ed8	0.055968136
62	0x3d550af0	0.052012384
63	0x3d22cb72	0.0397448

linear.weight f4 [1, 64]
0	0xbe5c53ea	-0.21516386
1	0x3e3074b3	0.17232017
2	0x3e224b69	0.15849079
3	0xbdf5fb90	-0.12010872
4	0x3e5eebb5	0.21769603
5	0xbe1f0461	-0.15529014
6	0x3e1f92b2	0.15583304
7	0x3e1f2aee	0.1554372
8	0x3df69a34	0.12041131
9	0x3e584b7d	0.21122546
10	0xbe601d5b	-0.21886198
11	0x3e361703	0.17782216
12	0xbe0171e6	-0.12641105
13	0xbe539bbd	-0.20664878
14	0x3e510800	0.20413208
15	0x3e68330f	0.22675727
16	0x3e628971	0.22122742
17	0xbdfce39c	-0.123481005
18	0x3ddb7aa1	0.10716749
19	0x3e5bd99a	0.21469727
20	0x3e0220cc	0.12707824
21	0x3e6a2329	0.22864975
22	0x3e2b86a2	0.16750577
23	0xbe18a1a0	-0.14905405
24	0x3e03552f	0.12825464
25	0xbe021526	-0.1270338
26	0x3e652465	0.22377165
27	0xbe4ab889	-0.19796957
28	0x3e681168	0.2266289
29	0xbe0e793d	-0.13913436
30	0x3e5a3d65	0.21312483
31	0xbdffc0fc	-0.12487981
32	0x3e02631c	0.1273312
33	0x3e33005d	0.17480607
34	0xbe52de6d	-0.20592661
35	0xbe62b650	-0.22139859
36	0x3de40ee4	0.11135653
37	0xbe5c03e7	-0.21485864
38	0x3e561aa4	0.209086
39	0x3e14306e	0.144716
40	0x3e3c255a	0.18373623
41	0xbe17cb5b	-0.14823668
42	0xbe04c095	-0.12964089
43	0x3e3cfd7d	0.18456073
44	0x3e6d1d61	0.23155738
45	0x3e0ea591	0.13930346
46	0xbdfbbbf9	-0.12291712
47	0xbe497002	-0.19671634
48	0xbe3f4f94	-0.186827
49	0x3e066e87	0.131281
50	0x3e31f8c0	0.17380047
51	0x3df68d7c	0.12038705
52	0x3e499a77	0.1968783
53	0x3e0989cb	0.1343147
54	0x3e6cd3af	0.23127626
55	0xbe13cc32	-0.14433363
56	0xbdfc3591	-0.123149045
57	0xbe605770	-0.21908355
58	0xbe056b75	-0.13029273
59	0xbe639996	-0.22226557
60	0xbe36f85b	-0.17868178
61	0xbe1c761b	-0.15279429
62	0xbe66dc23	-0.22544913
63	0xbe49a12b	-0.19690387
