concepts_sequential/saved_probes/defensiveMove_layer_10_probe.pth (torch, 372954 bytes, 5 tensors)

conv1.weight f4 [32, 256, 3, 3]
000000 6f a2 70 bc ec 3f 7d bc e0 0d 54 3c 70 eb 1b 3c
       -0.014687165 -0.015457135 0.012942761 0.009516582
000010 20 80 93 b7 e0 69 48 bc e8 2c f3 bb 41 e3 b4 b9
       -1.7583428e-05 -0.012232274 -0.0074211247 -0.00034501593
000020 c0 2c 17 3c 6c ce 59 3c bc 49 91 3c 48 92 8b 3c
       0.009226978 0.013293844 0.017735355 0.017037526
000030 3f f1 d1 3c 75 e9 56 3a b1 06 94 3c df 3a af 3b
       0.02562773 0.000819824 0.018069597 0.005347594
000040 9c 0e c9 3c e1 2e ac 3b 6d e0 9c bc 62 2e 72 3b
       0.0245431 0.005254612 -0.019149983 0.0036953916
000050 b8 ae d8 bb 92 d0 8c bc b0 c3 bc bc aa 12 fe bb
       -0.006612625 -0.017189298 -0.02304253 -0.00775369
000060 3b fe d0 3a d1 2c 2a 3c 99 eb 74 3c ff 72 0b 3c
       0.0015944907 0.010386662 0.014948749 0.008511304
000070 02 99 6d 3c 69 3a 41 bb 7b 03 0a 3c 2c fe e1 bb
       0.014501812 -0.0029484278 0.008423681 -0.0068967547
000080 37 4a a8 bb e1 2f db bb 88 36 72 bc c2 68 4b 3c
       -0.0051358 -0.006689057 -0.014783509 0.012415113
000090 2b b3 59 bc c8 8a 38 3b 99 da 94 bc 0a c2 86 bc
       -0.013287346 0.0028158892 -0.018170642 -0.016449947
0000a0 6c d0 a8 bc e6 d7 cb bc 7b 92 67 bc 09 34 98 bb
       -0.020607196 -0.024883222 -0.014134045 -0.004644875
0000b0 5b 4d 57 bc 8e 5d b3 ba cf 5a 6c bc 2b e4 f1 bb
       -0.013141002 -0.0013684498 -0.014425947 -0.007381936
0000c0 18 38 3d bb 65 c3 57 3c 44 a3 99 3b 9e 2f 24 3c
       -0.0028872546 0.013169144 0.004688652 0.010021118
0000d0 6e 5d ae bc 58 df 92 3b 76 89 03 bc c8 07 5c bc
       -0.021284785 0.004482191 -0.008028379 -0.01342959
0000e0 18 a7 29 bc a2 bc a7 bc 8c d8 ec bc 2a b4 31 bb
       -0.01035478 -0.02047569 -0.028911851 -0.0027115443
0000f0 f8 85 5c 3c 1a 1c 67 3a 81 32 63 bc 61 97 83 bb
       0.013459675 0.0008816138 -0.013867022 -0.0040158485
000100 a2 df 47 39 a6 20 38 3c d1 26 99 3c 39 ed 8a 3c
       0.00019061429 0.011238253 0.018695267 0.01695882
000110 31 30 59 3c af 68 ac b9 66 ea 3d 3a f0 0f d9 bb
       0.013256119 -0.00032884392 0.0007244706 -0.0066242144
000120 57 79 d6 bb 95 11 d4 ba 73 85 33 3c 6f 2b 6e 3c
       -0.0065452266 -0.0016179556 0.01095711 0.014536723
000130 4c 04 3c 3c 27 38 96 3c 42 84 be 3b ca 40 e6 bb
       0.011475634 0.018337322 0.005814106 -0.0070267664
000140 46 c9 c3 bb 53 b0 42 bc f9 38 5e bc d7 27 87 3c
       -0.0059749214 -0.011882859 -0.013563388 0.01649849
000150 eb f9 75 bc 2d 9b 09 3c 0d 68 5c bc cd 0e 80 bb
       -0.015013198 0.008398813 -0.013452542 -0.0039080144
000160 9d 68 0a 3c 9b 46 1a 3c 6a 5c 0d 3b 53 0d 24 bb
       0.008447793 0.009416248 0.0021569976 -0.0025032356
000170 6b f1 f2 3a 72 a0 ca 3c 55 e7 b8 3c ae 30 28 3c
       0.0018535083 0.02473471 0.022571245 0.010265512
000180 16 81 32 bc 3c f6 66 3c 58 21 25 bc 2d f0 3a 3c
       -0.010895034 0.014096793 -0.010078751 0.011409801
000190 4e c2 a0 3b fa 78 c7 3b d0 35 72 3c fa 4b 32 3c
       0.0049059754 0.0060874196 0.014783338 0.010882372
0001a0 14 0b 04 3b 70 61 cd 3c 50 e8 3d bc 12 83 db 3c
       0.0020148205 0.025070876 -0.011591032 0.026795898
0001b0 3f 70 e0 3b a6 11 28 3b cc d0 8d 3b bf 1a 02 bc
       0.0068493183 0.0025645285 0.004327869 -0.007940947
0001c0 e9 09 13 bc b3 44 c4 ba 8c 77 1d 3c 03 c4 22 3c
       -0.008974531 -0.0014974087 0.009611022 0.009934428
0001d0 e9 c2 ea 3b 5c 74 16 3c 6c 0b 0a 3d 3b d1 a2 bb
       0.0071643484 0.009183016 0.0337023 -0.00496879
0001e0 a1 db 34 bb bd a8 37 3c 76 84 0d bc ee fe 74 3c
       -0.002759673 0.011209664 -0.008637538 0.014953358
0001f0 ce 62 d7 bb 8a 0a 2c 3b de 63 8f 3b e9 92 f9 3c
       -0.0065730577 0.00262514 0.004375919 0.03046556
000200 70 c8 95 3c a6 2c a3 ba 9b 71 74 3c ba dc 0c 3c
       0.018284053 -0.0012449219 0.014919664 0.008597547
000210 e1 d8 11 3d 33 fe ac bb 66 ca 31 3b 92 69 57 bb
       0.035607222 -0.0052793263 0.0027128696 -0.0032869321
000220 ef 5a 4b ba 7d 2b 97 bb 3f 04 c3 3c 6e 88 be 3c
       -0.00077573856 -0.0046133385 0.023805736 0.023258414
000230 ef 4c 52 3c 1a c3 e2 3c d6 9d b6 3c 29 01 47 bc
       0.012835725 0.027680922 0.022292059 -0.012146273
000240 2c be 41 bc 4f 19 cd b9 91 dd 93 bc d6 76 e5 3b
       -0.011825126 -0.00039119503 -0.018049987 0.0070026917
000250 30 77 33 3c cc a6 85 bc 4a 2b 7a bc c2 70 c6 bb
       0.0109537095 -0.016314887 -0.01526911 -0.0060559222
000260 78 15 85 3b 9e fb f2 3b bd a5 84 ba 84 5b 8e 3b
       0.004061397 0.007415249 -0.0010120195 0.0043444056
000270 e7 31 89 3b f2 17 38 b8 5c 06 7b bc 3c b5 ae 3b
       0.004186857 -4.389132e-05 -0.01532134 0.0053316634
000280 24 c9 8c bc 21 72 4f 3c 41 a0 93 3c e9 33 c1 3c
       -0.017185755 0.012661488 0.018020751 0.023584323
000290 5e 7d a3 3c 93 17 b2 3c 4e 10 b3 ba 2b 2f fd bb
       0.01995724 0.021739757 -0.0013661475 -0.00772657
0002a0 dc ab 23 bc 1f 02 22 bc e6 4f 24 3c 77 ee ac 3a
       -0.009989705 -0.009888201 0.010028815 0.0013193627
0002b0 f3 82 13 bc 10 fd 0f 3c 7c 4d cd bc 4f 42 45 bc
       -0.009003389 0.008788362 -0.025061361 -0.012039735
0002c0 d3 4a 42 3b ef 12 ba bb 74 57 70 3c 61 74 bc 3c
       0.002964665 -0.0056785266 0.014669288 0.023004713
0002d0 3c f7 ad 3b a1 c8 20 bc 7c da 14 3c f5 21 4f 3c
       0.0053090136 -0.009813459 0.009085294 0.012642373
0002e0 58 06 e8 3b fe 32 0c bb f8 27 69 3c 06 f6 39 3c
       0.0070808344 -0.0021392698 0.014230721 0.01135016
0002f0 d6 79 24 bc dc fd 00 bd 32 c2 ac bc ae bb 7f bc
       -0.010038814 -0.0314921 -0.021088693 -0.015608711
000300 36 e2 25 bc 9d 40 14 39 3e df 01 bc 08 ef 53 bc
       -0.010124734 0.0001413845 -0.00792676 -0.012935407
000310 09 ab de bc 20 1f a5 bc e5 00 6b bc f6 2f 10 bc
       -0.027181165 -0.020156443 -0.014343475 -0.008800497
000320 40 35 b1 bc 4d 4e 21 3c 4d c5 0e 3c ad 49 30 bc
       -0.021631837 0.0098453285 0.008714032 -0.010759753
000330 39 6e 97 3c c7 18 81 3c a0 eb 93 bc 24 6e ab bc
       0.018485175 0.015758885 -0.01805669 -0.020926543
000340 40 e0 11 bd f9 26 2c bc 29 74 e2 bc b5 18 24 bd
       -0.035614252 -0.010507339 -0.02764328 -0.040062625
000350 0e 70 bc bc 3d 13 d2 bc 6a 4a 38 bd 7a 92 46 bd
       -0.02300265 -0.02564394 -0.04499284 -0.048479535
000360 c9 05 ea 3c 0b 71 a6 3b 43 5d de bb bd d3 ba 3c
       0.028567212 0.0050793937 -0.00678602 0.022806043
000370 28 de da bb ea 5e a8 3c 1f 33 d8 3c 1f 13 fe bb
       -0.006679315 0.020553071 0.026391564 -0.0077537443
000380 ea a2 4a 3c 13 e4 97 bc 6a 27 38 bb 98 0d ae bb
       0.012367943 -0.018541371 -0.0028099664 -0.005311679
000390 0a e0 78 bb d3 60 4f bc 0c 63 88 bc 0a 57 08 bc
       -0.0037975335 -0.012657362 -0.016648792 -0.008321533
0003a0 cd b5 59 bc 5b ed 82 ba 0e c9 d0 b9 86 b2 a9 bc
       -0.013287974 -0.000998895 -0.0003982265 -0.02071501
0003b0 33 a0 d9 bb d6 16 de bc d5 b6 5f bc a9 07 53 3b
       -0.0066414117 -0.027110498 -0.01365443 0.003220061
0003c0 23 41 bf 3c ee 50 ef 3c 8c 6e b5 3c d0 be 08 3c
       0.02334649 0.029213395 0.02214744 0.0083462745
0003d0 d4 70 0d ba 1c c8 85 3c a4 c3 9e 3c 5b f6 6a 3b
       -0.0005395536 0.016330771 0.019380398 0.0035852406
0003e0 85 fb 3f 3c 1a a5 08 bb 3f db 18 3d 57 28 43 bb
       0.011717682 -0.0020850361 0.037318464 -0.0029778683
0003f0 fa 2f 6f 3c 93 87 62 3a af 14 7d 3c 7b cc b7 3c
       0.014598841 0.0008641418 0.015446826 0.022436371

conv1.bias f4 [32]
000000 b4 27 1e bc 30 38 39 bc 1e cf 89 3b 03 77 86 3c
       -0.009653021 -0.0113049 0.0042055985 0.016414171
000010 4c 38 b6 3c c5 f9 3c 3c b7 4d 35 3a ff 5d aa bc
       0.022243641 0.011534159 0.00069161825 -0.020796774
000020 c8 ee a0 bc 2e 98 eb 3b a7 8a 72 bb 50 71 96 bb
       -0.01964511 0.007189772 -0.0037008913 -0.0045911446
000030 9d 7a c4 3b b5 21 35 bc 14 44 9d 3c d2 56 8a 3c
       0.005996062 -0.0110554 0.019197501 0.016887102
000040 0a fc 46 bc 58 26 0b 3b 94 99 be bb f5 96 d4 3b
       -0.012145052 0.0021232571 -0.005816648 0.006487722
000050 36 3b 8e 3c ee 9c df bb ae 44 a4 3c d4 30 7d 3c
       0.017362218 -0.0068241274 0.02005228 0.015453536
000060 e6 7a 09 bc e9 12 ba 3b f6 ab 12 3c bb 7e ea bb
       -0.008391118 0.005678524 0.0089521315 -0.0071562207
000070 54 84 50 bb 89 4b 4a bc d3 82 d3 3a 3c 46 85 3c
       -0.0031817155 -0.012347111 0.0016137011 0.016268842

conv2.weight f4 [64, 32, 3, 3]
000000 df fd ba bc ab 0a 31 ba 05 56 69 bc c6 b1 9e bb
       -0.022826133 -0.0006753604 -0.0142417 -0.0048429696
000010 1d 68 ae 3b 8b bb 4d bd ea 7c ed 3c 09 cf f8 bc
       0.00532247 -0.050227683 0.028990228 -0.03037216
000020 b3 2b d4 bc 72 f2 a4 bd 07 76 0c 3c 59 89 ab bd
       -0.025899744 -0.08054055 0.008573062 -0.08375806
000030 ee 65 0b bd 6c 73 83 bc c7 24 d2 bd c9 dc bf bd
       -0.034032755 -0.016046248 -0.10260921 -0.09368283
000040 30 67 2f bd 60 d0 65 bd 71 c5 2b 3d 2d 55 f6 39
       -0.042823017 -0.056106925 0.04193634 0.00046984237
000050 41 de 7e 3c 56 4a 36 ba f9 94 6a 3b d3 9c d8 3c
       0.015555919 -0.0006953826 0.003579436 0.026441967
000060 25 8e 45 3c 43 71 bd 3b f9 f7 52 3c d1 52 50 3c
       0.012057816 0.005781324 0.012876504 0.0127150575
000070 fd 34 0a 3d aa 66 a9 3c 7d 74 a7 3d b9 b4 b5 bc
       0.03374194 0.020678837 0.08176515 -0.022180902
000080 05 88 96 bc 2e 76 0e bc 3f 64 86 3c 20 8a e7 3c
       -0.018375406 -0.008695168 0.016405223 0.028264105
000090 eb fa d7 bc ed 11 e3 3c 4c 45 d6 3b 82 12 b8 3c
       -0.026364764 0.027718509 0.0065390225 0.022469763
0000a0 94 9a 40 3d 4a a0 06 3d c9 c5 f9 3c 04 a0 16 bd
       0.047022417 0.032867707 0.03048982 -0.036773697
0000b0 1b 2d 5c 3d 53 7e 2c bc 32 39 19 bc 87 12 ab 3a
       0.053753953 -0.010528165 -0.009352015 0.0013051786
0000c0 22 a8 40 3d e6 3c ee ba 5a 13 d5 3c e0 0e 1c 3b
       0.047035344 -0.0018176108 0.026010204 0.0023812577
0000d0 29 3e 40 3d 45 17 f9 bc f1 87 e4 3c d9 c4 19 3d
       0.04693428 -0.030406604 0.027896853 0.037541244
0000e0 22 be 63 3d 4e 07 54 bc f7 69 66 3d df 29 b9 bc
       0.055601247 -0.012941195 0.0562534 -0.022602974
0000f0 f5 6e 8c 39 a2 88 3b 3d 3b 2d 84 3c 55 be 87 bc
       0.0002678555 0.0457846 0.016134849 -0.01657025
000100 83 6c 82 3c f4 5a a3 3d 3a c9 cd bb 6e 8e ab bc
       0.015920883 0.07976332 -0.0062800916 -0.02094194
000110 77 f9 e5 bc d2 4f d2 3c 24 fe 8c 3d 41 fe b2 3b
       -0.028073056 0.025672827 0.06884411 0.0054624383
000120 bf 93 11 bd 01 c5 99 3c 6c 16 ad 3c e4 cd 53 3c
       -0.035541292 0.018770697 0.021128856 0.012927506
000130 8e a9 7c 3d fc 68 06 3d f3 10 1b 3d 95 18 9a 3d
       0.061685137 0.032814965 0.03785796 0.0752422
000140 18 eb 97 3d 2d ee 57 3b 2a 0b 94 3c 53 76 5f bd
       0.074178874 0.003294836 0.01807173 -0.054556202
000150 4c b8 dc 3c 39 fa 18 bd 98 fb a7 bc e5 79 ca ba
       0.026943348 -0.037348006 -0.020505711 -0.0015447704
000160 85 43 92 bc 79 33 1c 3b f3 19 cb 3c d5 61 d8 3c
       -0.017854461 0.002383439 0.024792647 0.026413837
000170 f5 56 31 3d 8d ae 58 3d 71 2e 66 3d 78 1b 3b bd
       0.04329582 0.05290084 0.056196634 -0.045680493
000180 5c ad 14 3d 6c ec 2f bd f3 54 24 bd ad dc ab 3c
       0.03629814 -0.04295008 -0.040120076 0.02097925
000190 39 e9 c4 bc db 8b 85 3d f0 5b 0d bc 77 b8 d0 3c
       -0.02403699 0.06520816 -0.008627877 0.025478585
0001a0 a9 67 b7 bb 8b be ec 3c 5b dc 59 bc a3 99 8b 3d
       -0.005597074 0.028899452 -0.013297166 0.06816413
0001b0 d9 2a 8f bb bd c6 db 3c 67 ed d1 3a 79 ec 68 bd
       -0.0043691215 0.026828164 0.0016016186 -0.056866143
0001c0 c5 15 2b bd f4 59 4c 3d 29 20 9d bb 1f 2f 16 3d
       -0.041768808 0.049890473 -0.0047950936 0.036666032
0001d0 2a 24 5c 3c 2c e2 24 bd c6 0b 97 bc 2b 9c 86 3d
       0.013436357 -0.040254757 -0.018438231 0.065727554
0001e0 1a 31 8f 3c 21 ab db b9 6d 96 83 3d f2 84 cb bc
       0.017479468 -0.00041898436 0.06425176 -0.024843667
0001f0 4b 88 22 bd 40 52 93 3a b1 a7 bc 3d cc 0b 0a 3d
       -0.03968076 0.0011239722 0.09211672 0.033702657
000200 fa 50 d4 3d d0 84 6b 3c bc 7c 5b 3d b3 ee d8 3d
       0.103670076 0.014374927 0.053585753 0.10592403
000210 61 47 d6 3c 3b 88 3f 3c 81 e9 6c 3c 04 70 2e 3d
       0.026157083 0.011690195 0.014459969 0.042587295
000220 a7 f2 73 bd 38 d3 13 3c e3 0f 77 bd be 4f 2e bd
       -0.059557583 0.009022526 -0.060317885 -0.042556517
000230 6e b7 f8 bc 92 ea 0b bd 0e df eb bb ca 67 67 bc
       -0.030360904 -0.03415925 -0.007198221 -0.014123866
000240 8a 6b 08 bc 03 b3 8b bc 04 90 0b bd 4d 74 82 3d
       -0.008326421 -0.017053133 -0.03407289 0.06369839
000250 f8 ee 10 3c ab 51 a8 bb f4 9f c6 bc 98 e7 84 3d
       0.008846037 -0.0051366887 -0.024246193 0.064894855
000260 2a f1 44 bc 1f f2 43 3d 96 96 f0 bc c0 ff e0 3c
       -0.012020389 0.047838327 -0.02936868 0.027465701
000270 00 89 39 bd de 05 5a 3d e7 36 35 3c 06 6c 31 3b
       -0.04529667 0.05322825 0.011060453 0.0027072444
000280 9d 3a 88 3d 52 07 1d 3d 7e 75 a5 3c d9 fa 99 bc
       0.066518046 0.03833706 0.020197626 -0.018796371
000290 3c 1f 27 3d 49 f7 e0 bc d5 64 48 bd 07 11 52 3b
       0.04080127 -0.027461665 -0.048924286 0.0032053606
0002a0 dd 51 dd bc 7b 15 bb bc 69 88 13 bc ef 94 93 3c
       -0.027016575 -0.022837391 -0.009004691 0.018015353
0002b0 03 19 33 bc 80 1f 90 3c 61 b4 ef bb 58 13 f1 3c
       -0.010931256 0.017593145 -0.007315204 0.02942817
0002c0 3a 80 a3 3c 32 50 0d bd 39 a8 33 3c af 55 13 bc
       0.019958604 -0.03450031 0.0109654 -0.0089925965
0002d0 1e 28 57 bc cc c2 ac 3c 94 55 84 bd 64 e1 2d bd
       -0.013132123 0.02108898 -0.06461635 -0.042451277
0002e0 1e 2b 40 bc e3 cc cc bc 5d 43 27 bd da 54 ad bc
       -0.01172903 -0.025000041 -0.040835727 -0.021158624
0002f0 14 ba 7c bd ab fc 12 bd 1c f1 5c 3d 8c d1 70 3d
       -0.061700895 -0.035885494 0.053940877 0.05879359
000300 6a 6d 6f 3d 74 e4 1f bb 28 44 35 bc 12 35 17 3c
       0.058453955 -0.0024397643 -0.011063613 0.009228962
000310 20 74 46 3b c5 01 55 3d 44 13 d8 3a 6e c4 0c bd
       0.0030281618 0.05200364 0.0016485234 -0.034367017
000320 d1 f6 70 bc 8f e5 45 bc fd f6 23 bb cb 2b d3 bc
       -0.014707283 -0.012078657 -0.0025019043 -0.025777718
000330 56 da 02 bd 5d 27 41 3d 8a bb 25 bc 31 62 8c bc
       -0.031946503 0.04715668 -0.010115514 -0.017136665
000340 42 6a c1 bc 0b 1a f4 bc 39 05 41 bd b9 07 2b bd
       -0.023610238 -0.029797575 -0.04712412 -0.04175541
000350 6d 2e f9 3c 65 9e c3 3c 44 93 ea 3c 47 b5 b5 bc
       0.030417645 0.02387924 0.028634675 -0.022181166
000360 55 80 36 3d be 91 56 3d 4e 4a c3 bc f5 ac 71 3c
       0.04455598 0.052385084 -0.023839142 0.014750709
000370 12 86 83 bc 63 4a 3a bd b3 9c df bc ef 2d 73 3b
       -0.01605514 -0.045481097 -0.0272964 0.0037106236
000380 0f ed 79 3d 2f 7b b1 3d 6c 41 aa 3d aa b2 82 3b
       0.061017092 0.086660735 0.083132595 0.0039885836
000390 a8 a7 84 3d a0 d6 1f 3d 7d 35 36 3d ae 08 9e 3c
       0.064772904 0.03902304 0.044484604 0.019291248
0003a0 63 88 ab 3d f8 eb c7 3d 2d 9e f7 3c 41 6b 5e 3d
       0.08375623 0.09761804 0.030226791 0.054301504
0003b0 7d 1a 7d bc fa 6f 1e bd 90 3b 03 bd c6 55 2e ba
       -0.01544821 -0.038681008 -0.032039225 -0.00066503545
0003c0 e9 01 74 3c 99 d9 32 3d 8e 3a a8 bc a7 9a 87 bd
       0.014893034 0.04366455 -0.020535734 -0.066212945
0003d0 05 6f 97 bd 3a 6c 66 3c bd 04 21 bd 89 de a9 bd
       -0.07394222 0.014063889 -0.03931116 -0.08294398
0003e0 c2 86 2a bc 2b bc 6a bd 74 12 a1 bd ef 0d c6 bc
       -0.010408105 -0.057308357 -0.07864848 -0.024176566
0003f0 65 8d 8c 3d 03 41 c9 3c 09 ff bb 3c 09 0c 05 bc
       0.06862906 0.024567133 0.022948759 -0.008120545

conv2.bias f4 [64]
000000 44 df 30 bd 41 02 7a bc ae cf 26 bd bd f2 47 3d
       -0.043181673 -0.015259326 -0.040725403 0.048815478
000010 cd 69 48 bd 61 a2 d2 3c 2d fb d6 3c bb 79 02 3d
       -0.048929024 0.025712194 0.026242817 0.031854372
000020 27 46 27 bd 5f 17 60 bd 33 0f 1f bd 10 15 a7 bc
       -0.040838387 -0.05470979 -0.038832854 -0.020395786
000030 e4 ed 76 3d 4d f1 4c bc 7c c0 3a bc 6c 65 b4 3c
       0.060285464 -0.012508702 -0.011398431 0.022021018
000040 f1 a5 3f 3d 91 8b 70 bb 2a 0d e6 bb ec 9b b1 bc
       0.046789113 -0.0036704282 -0.0070206122 -0.021680795
000050 e8 3d 83 b9 07 29 c8 bb e6 e4 07 bd 4c cc a1 ba
       -0.0002503239 -0.0061084065 -0.03317728 -0.001234421
000060 17 a6 b8 bb a9 a8 54 bd e3 32 4e bd 9c cf e2 3b
       -0.005635034 -0.05191866 -0.050341498 0.0069217216
000070 63 d5 5d bb 0b 91 2d 3d 55 7f 9a bc d1 20 f1 bc
       -0.0033849112 0.042374652 -0.018859545 -0.029434593
000080 3f 13 c8 3c 5e 08 54 bd da f6 31 3d c2 ec bd bb
       0.02442324 -0.051765792 0.043448307 -0.005796046
000090 91 bc ce 3c 6f f2 43 3d c1 3b 8a bc ac 7c 2a bc
       0.0252364 0.047838625 -0.016874196 -0.010405701
0000a0 94 58 3e 3a 90 65 19 bd 04 6f a4 bc 13 c0 36 3a
       0.0007261124 -0.037450373 -0.020072468 0.00069713703
0000b0 cc e3 21 3d 0c 4f 0c 3d a6 82 ea 3c 51 cf 7e bd
       0.039523885 0.034255072 0.028626751 -0.06220943
0000c0 32 1b f4 bc 02 be ae bb 19 ce ac 3c 42 a8 00 3d
       -0.029798124 -0.0053327093 0.021094369 0.031410463
0000d0 90 dd ac bc 97 d6 f9 bc 67 44 1b bd 81 fc 75 3d
       -0.021101743 -0.030497832 -0.03790703 0.06005526
0000e0 65 b6 65 bc 8e e7 1f 3c 07 e6 f9 3c 97 c6 39 3b
       -0.014020537 0.009759797 0.030505193 0.0028347129
0000f0 e6 4b 28 3c b8 4f 46 3b 3b 16 99 bc 1c 4f 26 3d
       0.010272002 0.0030259918 -0.018687358 0.04060279

linear.weight f4 [1, 64]
000000 b8 13 d0 bd 99 43 ab bd df 76 c0 bd 01 4c b9 bd
       -0.10160011 -0.083625026 -0.09397673 -0.090477
000010 e2 30 db 3d 4f 53 ad 3d df a7 4b 3d 78 58 59 3d
       0.10702683 0.084631555 0.04972064 0.053062886
000020 84 f3 24 3d a3 b2 93 bd bb d4 b2 bd 15 a9 85 3d
       0.040271297 -0.072118066 -0.08731981 0.065263905
000030 44 b7 34 be 1a 64 6b 3d f1 a4 57 bd 4d ae 7e bd
       -0.17648035 0.05746851 -0.052647535 -0.062177945
000040 79 32 0b be 59 de 98 bd c3 af 9a bd f2 d0 17 3e
       -0.13593473 -0.074642844 -0.07553055 0.148258
000050 a9 0b 72 bd a8 7a a3 bd 8c e2 40 bd 31 54 85 bd
       -0.05909315 -0.07982379 -0.047091052 -0.06510199
000060 f6 52 bd bd bf 87 f6 3d 42 8a c9 bd 3c 67 94 bd
       -0.09244339 0.1203761 -0.09840824 -0.07246253
000070 cd 64 85 3d e3 9c 8a bd 3f 73 49 bd 48 35 3a bd
       0.06513367 -0.06768205 -0.049182173 -0.04546097
000080 31 f0 6e 3d 0d f2 e2 3d 6d 81 6e 3d 75 c5 39 3d
       0.058334533 0.11081324 0.0582289 0.045354325
000090 ea 2a ed 3d c0 46 ef 3d 7e 88 7e bd 60 f1 16 3e
       0.11580451 0.11683416 -0.062141888 0.14740515
0000a0 88 a3 19 3e 1c 42 12 3d 19 c0 21 3d d9 14 55 3d
       0.15003788 0.035707578 0.03948984 0.052021835
0000b0 c7 89 4c 3d cc ba 3f bd 3d de d8 3d 43 13 fd 3d
       0.049936082 -0.046809003 0.105892636 0.123571895
0000c0 5e 89 42 3d 7b 4b 5a 3d 53 53 1c 3d a6 5c ae bd
       0.047494285 0.05329464 0.0381654 -0.08513765
0000d0 e5 8f 0c be eb ff 28 3d 80 fa 08 3e 81 f8 b6 3d
       -0.13726766 0.041259687 0.13376808 0.08934117
0000e0 8d c7 a2 3d dc bd 2c be 31 b8 df 3d a9 13 57 3d
       0.079482175 -0.168693 0.109238036 0.052508984
0000f0 19 3e 12 3e 5c 38 e8 bd 9e b0 e5 3d 2f 5b c1 bd
       0.14281501 -0.11338875 0.11215328 -0.0944122
