concepts_sequential/saved_probes/deflection_layer_10_probe.pth (torch, 372924 bytes, 5 tensors)

conv1.weight f4 [32, 256, 3, 3]
0	0xbb581feb	-0.003297801
1	0x3d0b24ba	0.033970572
2	0x3b875f7f	0.004131257
3	0xbc9a0656	-0.01880185
4	0x3c0e8422	0.008698495
5	0xb981f081	-0.00024783987
6	0xbd102fcf	-0.035201844
7	0x3c550a8a	0.013003001
8	0xbcb73198	-0.022362515
9	0x3c7b4740	0.015336812
10	0x3b391880	0.0028243363
11	0xbc27c2bc	-0.010239299
12	0xbc14bea3	-0.009078654
13	0x3c751531	0.014958666
14	0x3b800777	0.00390714
15	0xbc9b091f	-0.018925248
16	0x3bb64b8a	0.005563204
17	0xbc4f8374	-0.012665618
18	0x3c7f3954	0.015577633
19	0xbc7f563c	-0.015584525
20	0xbc77f9e3	-0.015135261
21	0xbc21f902	-0.009886028
22	0x3b3117a2	0.0027022143
23	0x3c292e7d	0.010326025
24	0x3c25b5bc	0.01011413
25	0x3c9dc03f	0.01925671
26	0x3cca16f5	0.02466915
27	0xbd17ed87	-0.037091758
28	0xbc97ebd0	-0.018545061
29	0xbd52199b	-0.05129395
30	0xbd351a11	-0.044214312
31	0x3c336321	0.010948927
32	0x3b8aafae	0.0042323684
33	0x3b7328e3	0.0037103228
34	0xbc0446ec	-0.00807355
35	0xbcc507b5	-0.024051527
36	0xbd2bb3bc	-0.041919455
37	0xbcf38fdb	-0.029731682
38	0x3916fa7c	0.00014398427
39	0x3c4266b8	0.01186531
40	0xbd38eb15	-0.045146067
41	0x3c82b76a	0.0159566
42	0x3ccbded3	0.024886524
43	0xbd276e5a	-0.040876724
44	0x3c24bfa3	0.010055455
45	0x3c14f44a	0.009091446
46	0x3c985ee3	0.018599933
47	0x3d0f6a2e	0.03501337
48	0x3c6a9bf9	0.014319413
49	0xbc0f329d	-0.0087400945
50	0xbb2b98af	-0.0026183536
51	0x3cf3ab1d	0.02974468
52	0x3d07d7d0	0.0331648
53	0xbb724b15	-0.0036971022
54	0x3ac3989b	0.0014922799
55	0xbcaa58c6	-0.020794284
56	0xbc1091f2	-0.008823859
57	0x3b9f7cd8	0.0048671775
58	0xbcc37764	-0.02386064
59	0xbc25d4ee	-0.010121567
60	0xbcc52a5d	-0.024068052
61	0xbd033ec5	-0.032042284
62	0xbce10764	-0.027469344
63	0x3bd95716	0.006632696
64	0x3cc8e1c8	0.024521723
65	0x3cf3aba8	0.029744938
66	0xba644ceb	-0.00087089714
67	0x3be8fdf1	0.0071103503
68	0x3cefe79a	0.02928524
69	0x3c5092e0	0.01273033
70	0x3c240fde	0.010013549
71	0xbc26c6e3	-0.010179254
72	0x3d1e495c	0.03864418
73	0x3cc88e17	0.024481816
74	0xbb318e81	-0.0027092996
75	0xbbe09d6c	-0.0068547036
76	0x39755421	0.00023396361
77	0xbb0e317a	-0.002169697
78	0xbb4053cc	-0.0029346822
79	0x3c1aafee	0.009441359
80	0xbc16b69b	-0.00919881
81	0xbcd46cb0	-0.025930732
82	0xbd22a00f	-0.039703425
83	0xbce264e3	-0.027635997
84	0xbc1b70b2	-0.009487318
85	0xbbdbe91b	-0.006711138
86	0xbc9cc259	-0.019135641
87	0x3bd8225c	0.006595893
88	0x3c84ba32	0.016202066
89	0xbc30b355	-0.010784944
90	0x3c9954f6	0.01871727
91	0x3c5a9310	0.0133407265
92	0xbc502a67	-0.012705422
93	0xbb881fe6	-0.004154193
94	0xbd1023f0	-0.035190523
95	0x3ca4df4c	0.020126007
96	0xbc74043b	-0.014893587
97	0xbd5fb450	-0.05461532
98	0xbba77a9f	-0.005111053
99	0x3b57803a	0.0032882825
100	0xbc8511a5	-0.016243765
101	0x3a2a5d75	0.00064989115
102	0x3cb40390	0.021974355
103	0x3c1447cd	0.009050322
104	0xbc5eb7a8	-0.013593592
105	0x3c29d3a8	0.010365404
106	0xbc464e5d	-0.012103644
107	0x3c759fa0	0.014991671
108	0x3cd05ab3	0.025433874
109	0x3a4b93da	0.0007765867
110	0x3c7cdd80	0.015433669
111	0xbc875515	-0.016520062
112	0xbc325f10	-0.0108869225
113	0xbc33a5d1	-0.010964827
114	0x3cc08722	0.023501936
115	0xbcdb7568	-0.026789382
116	0xbce7bf89	-0.028289573
117	0xbbcf0b5b	-0.0063184923
118	0x3c4acb1e	0.0123775285
119	0xbb31ffb1	-0.002716046
120	0x3be3471a	0.006935966
121	0xbd0063c4	-0.031345144
122	0xbb41b79a	-0.0029558898
123	0xbd280de2	-0.041028865
124	0xbd569ddd	-0.052396644
125	0x3add0bec	0.0016864515
126	0x3bf283b1	0.0074009527
127	0x3c6f9909	0.014623889
128	0xbabb4e08	-0.0014290223
129	0xbbbf9e78	-0.0058477484
130	0xbc2820e2	-0.010261746
131	0x3ca19831	0.01972589
132	0x3c120b6a	0.008913854
133	0xbc3a8bda	-0.011385882
134	0x3bc6fb24	0.0060724188
135	0xbb82cec9	-0.003991936
136	0x3d40c1d7	0.04705986
137	0xbc681312	-0.014164703
138	0x3c02b5dc	0.007977929
139	0x3cda803f	0.02667248
140	0x3bb191fc	0.005419014
141	0x3cb4a349	0.022050517
142	0x3d4d9f4e	0.050200753
143	0x3cafac2c	0.021444403
144	0x3c02f995	0.007994075
145	0xbc7e8f42	-0.015537085
146	0xbc08631e	-0.008324413
147	0xbc752609	-0.014962682
148	0xbc88df23	-0.016707962
149	0xba51757a	-0.00079902227
150	0xbbf59734	-0.0074948315
151	0xbc9c40b8	-0.019073829
152	0xbcdcc96a	-0.02695151
153	0x3a486695	0.00076446804
154	0x3ccebf25	0.02523763
155	0x3bf05947	0.0073348614
156	0xbb55cda0	-0.0032623783
157	0xbbf11075	-0.007356698
158	0xbc2fcd58	-0.01073011
159	0xbc6d7bc6	-0.014494842
160	0xbbb36031	-0.0054741134
161	0x3c4bc7c2	0.012437763
162	0x3cb97d6b	0.022642812
163	0x3c85d1db	0.016335418
164	0xbb67eabe	-0.003538772
165	0xbc871563	-0.01648969
166	0x3ca6afc4	0.020347483
167	0xbbda8a87	-0.006669346
168	0xbc8ba7cc	-0.017047785
169	0x3c8660ad	0.01640352
170	0x3c1fded2	0.009757714
171	0xb9e41673	-0.00043504275
172	0xbc357d23	-0.011077198
173	0xbc285ba3	-0.010275754
174	0x3be2c598	0.0069205277
175	0x3ca245f2	0.019808743
176	0xbca51c07	-0.020154966
177	0xbbbd6159	-0.005779427
178	0x3c1a3a5e	0.00941333
179	0xbc40ee25	-0.011775528
180	0x3c29bf8e	0.010360612
181	0x3be29b91	0.0069155176
182	0xbc4c2763	-0.012460562
183	0xbb87988e	-0.004138059
184	0x3b08b4b4	0.002085966
185	0x3c381401	0.011235238
186	0x3c5d8b57	0.013521991
187	0xbc9cfffe	-0.019165035
188	0x3ca6cb78	0.020360693
189	0x3c4dd903	0.012563947
190	0x3a4b871a	0.0007763967
191	0xbbeba615	-0.0071914294
192	0xbca3b253	-0.019982493
193	0xbd36b001	-0.044601444
194	0xbcbbd1bb	-0.022927156
195	0xbd06be3a	-0.032896258
196	0xbcdc3368	-0.026879981
197	0xbc32e578	-0.010918967
198	0xbba7aab4	-0.005116785
199	0x3d0177b4	0.0316083
200	0xbc90ad96	-0.017660897
201	0x3cb0ed05	0.021597395
202	0x3b3756e0	0.0027975366
203	0x3c790a85	0.015200262
204	0xbc3c1d64	-0.011481617
205	0xbcc60b58	-0.024175331
206	0x3d089f5c	0.033355102
207	0x3c074f45	0.008258645
208	0xbb211f7b	-0.0024585414
209	0xbcbe63c7	-0.023240937
210	0xbb5edcb7	-0.0034006068
211	0xbcc1279d	-0.02357846
212	0xbcca5e2e	-0.024703111
213	0x3d259852	0.040428467
214	0xbc35feb0	-0.0111080855
215	0xbc5c65c4	-0.013451997
216	0x3c92977d	0.0178945
217	0x3c65c251	0.014023379
218	0x3d20c1e2	0.0392474
219	0xbb8bda06	-0.004267934
220	0x3c95f38c	0.018304609
221	0x3c171d1c	0.009223249
222	0x3c855e43	0.016280299
223	0x3c498a77	0.012301079
224	0x3c6cbb29	0.014448919
225	0xbcd41d6c	-0.025892936
226	0x3c63419e	0.013870625
227	0xbc8db828	-0.017299727
228	0x3c0a28b2	0.008432554
229	0x3ce69c04	0.028150566
230	0x3c0999d8	0.008398496
231	0x3d05dbd7	0.03268036
232	0x3c6c5d14	0.014426488
233	0xbbcf61c4	-0.0063287932
234	0x3d36f496	0.04466685
235	0xbca0a35b	-0.019609144
236	0xbcb032d1	-0.021508606
237	0x3cd7506f	0.02628347
238	0xbc7fd24a	-0.015614102
239	0xbc85575f	-0.016277013
240	0x3c536897	0.012903354
241	0x3ceb4454	0.028719105
242	0x3c19176a	0.009343961
243	0xbb91e7ee	-0.004452697
244	0xbc0e6c57	-0.008692822
245	0x3c9837fd	0.018581385
246	0xbccf576d	-0.025310243
247	0xbbcf0d48	-0.006318722
248	0x3c8a7c10	0.01690486
249	0x3bd9c00e	0.006645209
250	0x3c581c2e	0.013190312
251	0xbc2ebe2b	-0.010665457
252	0x3c3db101	0.011577846
253	0x39cc18e0	0.00038928445
254	0x3cb7e766	0.022449207
255	0x3b70f2cd	0.0036765814

conv1.bias f4 [32]
0	0x3b2f9cd7	0.0026796365
1	0xbcae73e7	-0.0212955
2	0x3bfdaa32	0.007741236
3	0xbc8decd4	-0.017324843
4	0xbc1534b0	-0.0091068
5	0x3b4b9dac	0.0031069322
6	0xbc25ce12	-0.010119932
7	0xba90cb64	-0.0011046943
8	0x3bc387c5	0.0059671127
9	0x3c06ffc0	0.0082396865
10	0x3ca3aa4a	0.019978661
11	0x3c9e3d7e	0.019316431
12	0x3c88a75e	0.01668137
13	0xbc531e1a	-0.012885595
14	0x3c1fcc56	0.009753307
15	0xbc4776c4	-0.012174312
16	0xbc987c18	-0.01861386
17	0xbbb5345b	-0.005529923
18	0xbc7f3c7e	-0.015578387
19	0x3c857de5	0.016295383
20	0xbbcbe463	-0.006222294
21	0x3b8930ba	0.004186717
22	0xbc55f198	-0.013058089
23	0x3bab0f5a	0.005220336
24	0xbc8219f7	-0.015881522
25	0x3c59a68e	0.013284339
26	0xb8a46195	-7.8383055e-05
27	0x3c052e8c	0.008128773
28	0xbb48690d	-0.0030580193
29	0xbc970d23	-0.018438881
30	0xbc4c9bc4	-0.012488309
31	0x3c9ce9cc	0.019154452

conv2.weight f4 [64, 32, 3, 3]
0	0x3d51be2b	0.05120675
1	0x3dc3b7b8	0.09556526
2	0x3d98ca45	0.07460455
3	0x3c2bf1c5	0.010494654
4	0x3ce15b61	0.027509393
5	0x3de8d473	0.113686465
6	0x3d8ba1e2	0.06817986
7	0x3d5b8337	0.053591933
8	0x3deb937c	0.1150274
9	0xbb9c4680	-0.0047691464
10	0xbc6711b5	-0.014103343
11	0x3d0572e8	0.032580286
12	0x3d8f550b	0.069986425
13	0x3c61080d	0.01373483
14	0x3dabe0fe	0.08392523
15	0xbb54023b	-0.0032349962
16	0x3d03803c	0.032104716
17	0x3dadd6ff	0.08488273
18	0xbb950adf	-0.004548415
19	0xbc90aea4	-0.0176614
20	0xbc392e14	-0.01130249
21	0x3da33026	0.07968168
22	0xbc8259f2	-0.01591203
23	0x3d64e1a2	0.055879243
24	0xbc747879	-0.014921301
25	0x3b1d2034	0.0023975493
26	0x3c948b31	0.018132778
27	0x3d3592a6	0.044329308
28	0x3d908f09	0.07058532
29	0x3d853870	0.06504905
30	0x3d6cb516	0.057789885
31	0x3d441798	0.047874063
32	0x3cf41577	0.029795391
33	0x3e0b563d	0.13607116
34	0x3dabb66e	0.08384405
35	0x3d8b3151	0.06796516
36	0xbd121f0d	-0.035674144
37	0x3d5e24b6	0.05423423
38	0xbc62884c	-0.013826441
39	0x3d413c06	0.047176383
40	0xbcf1fd29	-0.029539661
41	0x3cf8558a	0.030314226
42	0xbd1bebb9	-0.0380666
43	0x3d59a3b9	0.053134654
44	0x3c7f0110	0.015564218
45	0xbd357d8b	-0.04430918
46	0x3c1a68e2	0.00942442
47	0xbcb14c87	-0.021642936
48	0xbc7c424a	-0.015396664
49	0xbd56cedf	-0.05244338
50	0x3a890473	0.0010453596
51	0xbd5c83bb	-0.053836565
52	0xbd9fd915	-0.07805077
53	0xbd0f86fb	-0.035040837
54	0x3d2f93ad	0.042865444
55	0x3d415393	0.047198843
56	0x3d81cf8c	0.063384145
57	0x3d7bf977	0.061517205
58	0x3d103213	0.035204004
59	0x3d86723f	0.065647595
60	0x3d3040e0	0.04303062
61	0x3da511dc	0.08060047
62	0x3d9371f7	0.071994714
63	0xbc93eed8	-0.018058226
64	0x3cf97ccb	0.030455014
65	0x3c842329	0.016130047
66	0x3d498655	0.049200375
67	0x3dae2d57	0.08504742
68	0x3b01477b	0.0019726444
69	0x3cbfbbb5	0.023404935
70	0x3d5d8b2b	0.0540878
71	0x3d1d21e0	0.038362384
72	0x3d99c102	0.075075164
73	0x3de46040	0.11151171
74	0x3d99b421	0.0750506
75	0x3d6b4670	0.05744022
76	0x3e23668b	0.15957086
77	0x3e2948a3	0.16531615
78	0x3e1a0593	0.15041189
79	0x3de5ebf3	0.11226644
80	0x3dd4dba1	0.103934534
81	0x3ce1cebd	0.0275644
82	0x3cc90b22	0.024541441
83	0x3d9a7b97	0.07543104
84	0x3c8426b3	0.016131734
85	0xbc89658b	-0.016772052
86	0x3b378acf	0.002800632
87	0x3bfa9084	0.007646622
88	0x3c908b1d	0.01764446
89	0xbc0a5334	-0.008442689
90	0xbda6d894	-0.08146778
91	0xbbc989ce	-0.006150461
92	0xbd83ccdc	-0.06435558
93	0xbd5f2672	-0.054480024
94	0xbd7c7484	-0.061634555
95	0xbd836350	-0.06415427
96	0xbda78b2a	-0.0818084
97	0xbd9c1fa8	-0.076232255
98	0xbbd570a9	-0.0065136743
99	0xbc0b3826	-0.008497274
100	0x3b57f954	0.0032955008
101	0xbd23aad4	-0.039957836
102	0xbb54f48d	-0.0032494396
103	0x3c4e7904	0.012602095
104	0xbd60f491	-0.054920737
105	0xbcf9dce3	-0.030500835
106	0xbd519698	-0.051169008
107	0xbd976477	-0.07392209
108	0x3d09fc9a	0.033688165
109	0x3d8415e5	0.064494886
110	0x3df58d7e	0.11989878
111	0x3dd4f522	0.10398318
112	0x3dbe2e6f	0.092862
113	0x3c792c3d	0.015208301
114	0x3daeb58d	0.08530722
115	0x3d5f0e80	0.054457188
116	0x3d77776d	0.060416628
117	0xbdadd74c	-0.0848833
118	0xbcb88f72	-0.022529338
119	0xbc2128aa	-0.009836355
120	0xbc927eec	-0.017882787
121	0x3bc5af2c	0.006032845
122	0xbd5be28b	-0.053682845
123	0xbd9fe24b	-0.07806834
124	0xbd8ed905	-0.06974987
125	0xbd17000f	-0.03686529
126	0x3d50bec5	0.050963182
127	0x3da78e21	0.08181406
128	0x3cb2df16	0.021834891
129	0xbbdc60a5	-0.006725388
130	0xbc645b4e	-0.013937784
131	0x3d9e2591	0.07722009
132	0x3d01aa76	0.031656705
133	0xbc5683e9	-0.013092973
134	0x3d737ae5	0.059443373
135	0xbda966b8	-0.08271545
136	0xbdbf564e	-0.09342633
137	0xbd0cb2e3	-0.034350287
138	0xbb56dbe3	-0.0032784871
139	0xbd1eae8a	-0.038740672
140	0xbd018e9b	-0.03163014
141	0xbd9a13da	-0.07523318
142	0xbdbd984b	-0.09257563
143	0xbd34d71d	-0.04415046
144	0x3d17f52a	0.03709904
145	0x3d61d947	0.055138852
146	0x3d4abcab	0.049496334
147	0x3d079442	0.033100374
148	0x3c2565c5	0.0100950645
149	0x3d370f81	0.04469252
150	0x3ce45627	0.027873112
151	0x3da3a09f	0.079896204
152	0x3df1b6d5	0.118024506
153	0x3d41bc3a	0.047298647
154	0x3df32f17	0.11874216
155	0x3de413e4	0.11136606
156	0x3d5cd061	0.053909663
157	0x3dc52f15	0.09628121
158	0x3db1870d	0.08668337
159	0x3e106178	0.14099681
160	0x3e02561d	0.12728162
161	0x3dc65bfa	0.09685512
162	0xbc977f52	-0.018493328
163	0xbd4b7e37	-0.049680915
164	0xbd57e827	-0.052711632
165	0xbd9dce2c	-0.0770534
166	0xbbf27bc8	-0.00740001
167	0xbd1642fa	-0.036684968
168	0xbbbb63f9	-0.005718705
169	0xbd1e2d40	-0.038617373
170	0x3c9cf7bd	0.0191611
171	0xbd6bdf18	-0.057585806
172	0xbd9f15b1	-0.07767809
173	0xbda35222	-0.0797465
174	0xbd441609	-0.047872577
175	0xbc09f587	-0.008420355
176	0xbc774bc3	-0.015093747
177	0xbd9a6dc0	-0.075404644
178	0xbd434458	-0.0476726
179	0x3c727dfd	0.014800546
180	0xbe0a2766	-0.13491592
181	0xbd3ea51c	-0.04654418
182	0xbdf6f872	-0.12059106
183	0xbd80fa23	-0.0629771
184	0xbde4c710	-0.11170781
185	0xbdedf25d	-0.11618493
186	0xbd9106d3	-0.0708138
187	0xbd8d6a36	-0.06905024
188	0xbd25dd6c	-0.040494367
189	0xbd147af3	-0.036250066
190	0xbdda12d4	-0.106481224
191	0xbd501f1e	-0.050810926
192	0xbd8f0a4d	-0.069843866
193	0xbd6079b7	-0.054803576
194	0xbde38ee0	-0.111112356
195	0xbd41a5e1	-0.047277335
196	0xbcb00289	-0.021485584
197	0xbd63f4bd	-0.055653322
198	0x3d81233b	0.06305548
199	0x3dc9777c	0.09837243
200	0x3b4f933b	0.003167345
201	0x3caaa195	0.020829001
202	0x3d3936cb	0.04521827
203	0x3d9937cd	0.07481346
204	0x3da3ecc2	0.08004142
205	0x3d979433	0.07401314
206	0x3d6cab2c	0.05778043
207	0x3c1dce62	0.009631725
208	0xbd06e9a6	-0.03293767
209	0x3d14ad21	0.03629792
210	0x3c9d0039	0.019165145
211	0x3cb0e691	0.021594318
212	0x3cdb0683	0.026736503
213	0x3d0d79a2	0.034539826
214	0xbd6692cd	-0.056292344
215	0x3d14b4f3	0.03630538
216	0x3d88fcdc	0.06688854
217	0x3d59a694	0.053137377
218	0x3dbdc3ad	0.09265838
219	0x3db853e2	0.090003744
220	0x3dc47dd0	0.09594309
221	0x3de573f3	0.11203756
222	0x3d7862de	0.060641162
223	0x3d8cfeea	0.068845585
224	0x3d30766e	0.043081693
225	0x3d319447	0.0433543
226	0x3dd094ba	0.10184617
227	0x3c8d8c12	0.017278705
228	0x3d0a4d3c	0.033765063
229	0x3dae18dd	0.08500836
230	0x3d859c03	0.065238975
231	0x3dccaa38	0.09993404
232	0x3dcfd4c9	0.101480074
233	0x3c4c7821	0.012479813
234	0x3d1e70a9	0.03868166
235	0xbd4d1d61	-0.050076846
236	0xbc46fcd9	-0.0121452445
237	0x3cbd96c4	0.02314318
238	0xbd59d3c9	-0.05318049
239	0xbd422ca5	-0.047405858
240	0xbd0564f4	-0.03256698
241	0xbce83b82	-0.028348688
242	0xbd82922b	-0.063755356
243	0x3da1700b	0.078826986
244	0x3da8b6a2	0.082379594
245	0x3ce83e07	0.02834989
246	0x3dd514ec	0.10404381
247	0x3d9cd5c5	0.07657961
248	0x3d279db2	0.040921874
249	0x3dd3b3eb	0.10337051
250	0x3cd883b7	0.026429994
251	0x3d32876c	0.04358618
252	0x3d78e3c0	0.060764074
253	0x3e095137	0.13409887
254	0x3debdb0a	0.11516388
255	0x3d2a37f7	0.04155728

conv2.bias f4 [64]
0	0x3a119e1a	0.000555487
1	0xbcca5e0f	-0.024703054
2	0xbd042120	-0.032258153
3	0x3c64153e	0.01392108
4	0x3d62c80a	0.055366553
5	0x3d0b1326	0.03395381
6	0x3ce0047b	0.027345886
7	0xbd6172b3	-0.055041026
8	0x3cea937e	0.028634783
9	0x3c634d58	0.013873421
10	0x3d11384d	0.035454083
11	0xbd239a02	-0.039941795
12	0x3cea0f4c	0.028571747
13	0xbc264bd1	-0.010149912
14	0x3d236e75	0.039900262
15	0x3d1924af	0.0373885
16	0x3bf58af9	0.0074933735
17	0xbb8000fb	-0.003906367
18	0x3c75f653	0.015012342
19	0x3d734f1d	0.05940162
20	0x3d5927f3	0.053016614
21	0xbc70df03	-0.014701608
22	0x3cb25109	0.021767156
23	0x3d1fe420	0.039035916
24	0xbc8cff43	-0.017211562
25	0x3c5a9240	0.013340533
26	0xbd133484	-0.035938755
27	0x3d07626a	0.03305284
28	0xbd4e865f	-0.050421115
29	0xb9854aca	-0.0002542346
30	0x3b80d80c	0.003932005
31	0xbd3d4d57	-0.046216335
32	0xbd0fb41f	-0.035083886
33	0xbbec9ad5	-0.007220606
34	0xbc99167f	-0.018687485
35	0x3c84343f	0.016138194
36	0xbd2888c8	-0.04114607
37	0xbc6b5721	-0.014364035
38	0x3cfc01e9	0.03076263
39	0xbd1e412b	-0.038636368
40	0x3c145966	0.009054517
41	0x3c7e075e	0.015504686
42	0xbc7ee685	-0.01555789
43	0x3cc1f486	0.023676168
44	0x3bed6bb3	0.0072455048
45	0x3ca06df3	0.019583678
46	0xbd809731	-0.062788375
47	0x3b978e42	0.0046251127
48	0xbd35373a	-0.04424212
49	0xbc5717dc	-0.013128247
50	0x3d44c178	0.04803607
51	0xbd45688e	-0.048195414
52	0xbd2392c4	-0.03993489
53	0xbd41fb45	-0.04735877
54	0x3d13fb0e	0.036128096
55	0xbd5ea4cd	-0.054356385
56	0x3d171dd6	0.03689369
57	0x3d17fbd5	0.0371054
58	0xbcd3dfb7	-0.025863511
59	0x3b9cd8cb	0.004786586
60	0xbba58bff	-0.005052089
61	0x3b6a4fd4	0.0035753148
62	0x3c88b53b	0.01668798
63	0x3d1b1c74	0.037868932

linear.weight f4 [1, 64]
0	0x3e2fb413	0.17158537
1	0x3e101aec	0.1407277
2	0xbe22b7a3	-0.15890364
3	0xbe3cb357	-0.18427788
4	0xbe4f6ac6	-0.20255575
5	0xbe5e9b5a	-0.2173895
6	0xbe3902c6	-0.18067464
7	0x3dff6a2f	0.12471425
8	0x3e51ee3a	0.20501032
9	0xbe39e0cd	-0.18152161
10	0x3e250ba0	0.16117716
11	0x3e4b29d5	0.19840176
12	0x3e68c821	0.22732593
13	0xbdf45ea2	-0.11932112
14	0xbdbdc69e	-0.09266399
15	0xbe2c232f	-0.16810296
16	0x3e3970da	0.18109456
17	0xbe7097b9	-0.23495378
18	0xbe09b988	-0.13449681
19	0xbe27b7e9	-0.1637875
20	0xbe41de23	-0.18932395
21	0xbe20bcbe	-0.15697
22	0xbe246aad	-0.16056319
23	0xbe18a3ec	-0.14906281
24	0x3e665b5c	0.22495788
25	0x3de72360	0.11286044
26	0x3e0683a7	0.13136159
27	0x3e17d11f	0.14825867
28	0x3e3e4102	0.18579486
29	0x3e50d0a8	0.20392096
30	0x3e3779c3	0.17917542
31	0x3e4456c9	0.19173731
32	0x3e1d5538	0.1536454
33	0x3e101bbd	0.14073081
34	0x3e3a34f7	0.18184267
35	0x3e2ff913	0.17184858
36	0xbe422140	-0.18957996
37	0xbdf534d6	-0.11972968
38	0xbdf1c0d4	-0.11804357
39	0xbe37f562	-0.179647
40	0xbe582680	-0.21108437
41	0xbdf284a2	-0.11841704
42	0xbe10cd1b	-0.14140742
43	0xbe1c6fb1	-0.15276982
44	0x3e163d01	0.14671709
45	0xbe2ed690	-0.17074037
46	0x3e5219ca	0.2051765
47	0xbe0b77cd	-0.13619919
48	0x3df87af7	0.12132829
49	0x3df959a9	0.121753044
50	0xbe4118d6	-0.1885713
51	0x3e279b6a	0.1636788
52	0x3df8e9d6	0.12153976
53	0xbdf9e13a	-0.12201162
54	0x3de214a9	0.11039097
55	0x3e2dcdab	0.16972987
56	0x3de0a30b	0.10968598
57	0xbe16bb27	-0.1471983
58	0xbe1ebcf8	-0.15501773
59	0x3e06689c	0.13125843
60	0xbe39db46	-0.18150052
61	0x3e3e092b	0.18558185
62	0xbe271528	-0.16316664
63	0xbe6fdc36	-0.23423848
