concepts_sequential/saved_probes/discoveredAttack_layer_10_probe.pth (torch, 372984 bytes, 5 tensors)

conv1.weight f4 [32, 256, 3, 3]
00000000: 1271 58bc e445 ce3c a9cc dabb 9248 793c
00000010: b97a aabc 8180 1fbb 8e16 42bc 0cfb d13c
00000020: ba33 053d 5d0c 7bbc a069 ad3c b482 053c
00000030: 8a2f a33c c1f9 5a3a b13b 873c 997f a0bc
00000040: 915f ef3a 1a7f 763b 81cf 16bc 357d 943c
00000050: 713d 89bc ae30 073c 80dd ccbb f189 8b3c
00000060: 15ab 29bc 12ad d0bb 85d5 5ebb ff1c fd3c
00000070: 90b0 b93c cd30 fabc e890 243d d722 0e3b
00000080: a8de 8c3d 1d23 e8bb 5a66 603b 9025 19bc
00000090: a6ca 073d a618 7c3b 7760 de3c dc4b 40bc
000000a0: 9d9f a63c a040 72bc 96bc 753c ab5e 343c
000000b0: 6f61 b63c 19b7 243b cc64 933c da15 403d
000000c0: cfdc 813c 6cf2 b33c 86d2 aebb 33a4 40bb
000000d0: bdc4 083c 4aa9 523d b3ed 213d e65f 7b3c
000000e0: d6a9 7d3b e2b2 683c a466 f33c 93f4 4ebc
000000f0: 1c12 e93c 709b 9c3a 1910 023d 642d 55ba
00000100: 4198 f0bb 52f1 c7ba a24b 103c 4ad4 a0bc
00000110: 5d3b bbbc cc72 94bc 39cd 6ebb 6edb 83bb
00000120: 0e51 f43c 3df1 f1bb 0287 b2bc ad94 3abb
00000130: e3cd 87ba ca96 913c 7b6b a63c 483f a93c
00000140: 79c9 9ebb b19c c2bc 5675 e4bb 99c2 a3bb
00000150: 0b4b e43c 4cc7 95bb e168 e63c 5f55 e2bc
00000160: 2e1e eebb 8bbf 243c 32e5 223a 2807 31bc
00000170: 89fa 63ba 8519 373c 3260 33bc 36c2 9aba
00000180: ef5e 4d3c c99a 98bc 31e8 b4bc c143 51bc
00000190: 07a3 48bc 3bda 093c 8608 ff3b 3630 aebc
000001a0: b38a 35bc ed47 8d3a ac62 15bc 7a11 27bc
000001b0: 089d babc d13c afbc 7f50 d53c 242c 1a3b
000001c0: 55f1 e33c ef63 89bb cb44 85bb d295 523b
000001d0: 673a 673d d94a 8f3a 370b afbc 5a5e 363b
000001e0: 6547 91bc 846e e3bc 91fc 8abd 2518 5abc
000001f0: 6547 92bd 8ae5 f2bb e2a4 2cbb 6ede d9bc
00000200: a7c2 af3b 533d 63bc 376f 8a3c 328f d7bb
00000210: c0b7 4dbc fb1b 4f3c 73c0 3cba d2c9 953c
00000220: fb82 0abb 2265 cabc 3649 893c 633c 983c
00000230: 7f6d 8a3c 063b 03bb 5124 3e3c 8281 1d3d
00000240: 4ba4 b33b 831c c43c b029 033d f03e 7f3c
00000250: 8693 8c3c 9730 66bc c91e 543c 6859 fabb
00000260: 65e2 e0ba 4dae b6bc 701f 353c 6949 d8bb
00000270: 6a22 8f3b dcf0 173c 21cd 773c bf93 a4bc
00000280: 594b 2b3c 2ed4 8cbb f917 af3b 3fd9 d8bc
00000290: 67dd 453c 0c88 9d3a b226 0ebc 9760 673c
000002a0: bdf0 4e3c bba1 35bc 901c 35bc 9c1a 70bc
000002b0: d6ff 943c 27c2 0abd fa55 fbbc dd66 99bc
000002c0: 3ec1 d0bc df33 95bb f011 ac3c 5a74 00bd
000002d0: 3a2f 1a3c 3d2c 703c 1186 2f3c dd89 5dbb
000002e0: bce0 813c d645 953c 8c4e 6d3c f430 133a
000002f0: d2b9 493b 7f9d d03b 76da 023c 4a6d 6cbb
00000300: 9888 fa3c 344e ad3c e26e fcba 6cec 553b
00000310: e2a0 0137 3744 303c 90a3 423c b01b a9bb
00000320: cb7b dabc c4c8 043a 92c0 8d3c 702f 8dbb
00000330: 904a cd3b 1e88 3c3c 9e89 fbbc d01f eabc
00000340: 59b8 46bc 882b 35bc d719 8c3c 1364 ea3c
00000350: 1031 8dbc 5648 8c3c 3bcf f53b a983 323d
00000360: 52ad 2c3c 449c 28bb a5d6 c83c 4c18 93ba
00000370: 008e 6ebc 1688 063d 423b 293a fb64 223c
00000380: 1c3b 57bc 24d1 da3a dd38 d63c 17ab b13b
00000390: d1d3 f5bc c837 4bbd a292 8cbb 98b6 b93b
000003a0: 0c93 52bb 2669 a53c 3bab a73c e400 643b
000003b0: 9a78 eebb 10bb f3bc 7153 95bc b8f5 dcbc
000003c0: 89d8 7fbc 93c7 dabc a332 8e3c 7148 11bd
000003d0: a9c7 f2bb 27d1 99bc 662f ac3b af21 883c
000003e0: 4358 76bc c41b b03c 1349 1dbc dfc5 6bbc
000003f0: 4a46 86ba f2fd a7ba 44ea 953b d35e 89bc
-0.013210552 0.02517981 -0.0066772294 0.015215056 -0.020810472 -0.002433807 -0.011846198 0.025632404
0.032520033 -0.015322772 0.02116853 0.008148838 0.01992013 0.0008353256 0.016507955 -0.019592093
0.0018262734 0.003761238 -0.009204746 0.01812611 -0.01675293 0.008251352 -0.006251991 0.017033549
-0.010355731 -0.006368288 -0.003400178 0.030897615 0.0226672 -0.030540848 0.040177256 0.0021688247
0.06878406 -0.007084264 0.0034240694 -0.0093473345 0.033152245 0.003846684 0.027145607 -0.011736836
0.020339781 -0.014785916 0.014998576 0.011008899 0.022263257 0.0025133549 0.0179924 0.04689584
0.01585236 0.021966182 -0.005335155 -0.0029394745 0.008347687 0.051430978 0.03953333 0.015342688
0.0038705966 0.014202805 0.029712029 -0.012631553 0.028451018 0.001194818 0.031753633 -0.0008132069
-0.007342369 -0.0015254414 0.008807095 -0.019632477 -0.022855455 -0.018121146 -0.003643824 -0.004023961
0.029823806 -0.007383494 -0.021792892 -0.0028469965 -0.0010361042 0.017772097 0.020314923 0.020660058
-0.0048457948 -0.023756357 -0.0069719953 -0.004997563 0.027867815 -0.004570877 0.028126182 -0.027628599
-0.0072667813 0.010055433 0.00062139623 -0.010804929 -0.00086966954 0.011175518 -0.010948228 -0.0011807147
0.012534841 -0.018628495 -0.022083374 -0.012772501 -0.0122459 0.008413847 0.0077829985 -0.021263223
-0.011080432 0.0010778882 -0.0091177635 -0.010197038 -0.022779956 -0.021391304 0.02603936 0.0023524845
0.027825037 -0.004192821 -0.0040670387 0.0032132757 0.05645218 0.001093234 -0.021367652 0.0027827234
-0.017734239 -0.027762659 -0.067864545 -0.013311421 -0.07142524 -0.007412617 -0.0026343395 -0.02659532
0.0053637805 -0.013869601 0.016898734 -0.0065783495 -0.012556016 0.012640948 -0.0007200308 0.018284712
-0.00211352 -0.024706427 0.016758543 0.018583482 0.016897915 -0.0020024194 0.011605338 0.038453586
0.0054822317 0.023939377 0.03202218 0.01557897 0.017160188 -0.014049671 0.012946793 -0.0076400526
-0.0017157315 -0.02229991 0.011054859 -0.006600548 0.004368116 0.009273734 0.01512459 -0.020089982
0.010454976 -0.0042977547 0.005343434 -0.026470779 0.012076712 0.0012018695 -0.008676218 0.01412215
0.012630639 -0.011085923 -0.011054173 -0.014654782 0.018188398 -0.033876564 -0.030680645 -0.018725807
-0.02548277 -0.0045533027 0.021004647 -0.03136096 0.009410674 0.014658985 0.010713116 -0.0033804097
0.015854232 0.018221777 0.014484059 0.00056148996 0.0030780924 0.0063664312 0.007986655 -0.0036075884
0.030582711 0.021155454 -0.001925912 0.003264214 7.726458e-06 0.010758451 0.011879817 -0.0051607713
-0.026670357 0.0005065317 0.017303739 -0.0043086335 0.006264992 0.011507062 -0.03070527 -0.028579623
-0.012128913 -0.011057742 0.017102165 0.028612172 -0.017235309 0.017124336 0.0075015104 0.043582592
0.01053937 -0.0025727907 0.024516413 -0.0011222451 -0.014560223 0.032844625 0.00064556685 0.009911771
-0.013136651 0.0016694409 0.026150161 0.005422007 -0.030008228 -0.049613744 -0.004289941 0.005667519
-0.0032131104 0.02019174 0.020467391 0.003479057 -0.0072775604 -0.029752284 -0.018228265 -0.026972637
-0.015615591 -0.026706493 0.01735813 -0.035469476 -0.0074090553 -0.01877649 0.005254674 0.016617624
-0.015035692 0.021497615 -0.009599942 -0.014390438 -0.0010244336 -0.001281677 0.004575046 -0.016768849

conv1.bias f4 [32]
00000000: eac9 d3bb 02cb 693c a6ba 0f3c 652d a4bc
00000010: fc00 b2ba 4d6d 883c 0230 a2bc 3723 8e3b
00000020: 1d4b b33c 2526 3a3c 0433 73bc 6477 1f3c
00000030: ef95 743b b6ac bebc c9a7 ee3a 59c7 78bc
00000040: 26b1 763c b70a 0f3c 6c28 4bbc 8589 bf3c
00000050: adf4 073c b7d7 be3b ec09 5e3c b40f 86bc
00000060: c4d8 a13c feed b3bc 4ce8 553b 4c48 acbc
00000070: 0f39 0fbc a771 08bc 5023 23bc 90bb 89bb
-0.006463279 0.014269592 0.008772528 -0.020041177 -0.0013580616 0.016653681 -0.019798283 0.004337694
0.021886403 0.011361633 -0.014843706 0.009733055 0.0037320813 -0.023275714 0.0018207963 -0.015184247
0.015056884 0.008730582 -0.012399774 0.023381004 0.008298081 0.005824055 0.01355217 -0.01636491
0.019756682 -0.02196407 0.003263968 -0.021030568 -0.008741631 -0.008327878 -0.00995715 -0.0042032674

conv2.weight f4 [64, 32, 3, 3]
00000000: 7378 e3bd d16d 34bd 4a71 3cbd bb35 a9bc
00000010: 01ac 40bd c328 aeba d2bc dbbd c32b afbd
00000020: 47bc 6ebd 6f29 07bd b7b5 72bd 17cc 9cbb
00000030: dd24 aabd 32e2 babc 6885 493b 8d3e 133b
00000040: 7dca 32bd 4099 9cbd d9d8 b23d 347a 953c
00000050: eb70 133b 8a1b 4ebc 8003 493d 15d4 9a3d
00000060: 3bce ba3d a666 7d3b 7b3c 8f3d 623b a9bc
00000070: dbb5 69bd c5b8 3f3c b03a f5bc b9b1 98bd
00000080: 0475 f0bc 666a 14bd 7400 9fbd dd2a 183c
00000090: 32c5 7d3d 2fd0 893c 6984 783b 8be1 22bd
000000a0: f93a 113d 9e44 a5bc 85da 213d 7ea9 bd3c
000000b0: d66e a33d a576 41bc b2bd b3bb 52f3 31bc
000000c0: acf6 083d 77ce 973c 6fa0 7abd 43a3 64bc
000000d0: 73ab 6abd be49 d33c 03f5 8bbd 9e66 9ebd
000000e0: 2c4e b5bc 4925 d4bb 88b9 c4bd ab4a c5bd
000000f0: c442 4fbd 95ec 8dbc 1318 27bb e677 863d
00000100: bf67 87bc 6754 4e3d 0af9 4a3d c632 153c
00000110: 2d4c 1a3d 379e edbc 0dee 09bd cc12 173b
00000120: f298 973d eee6 ee3b c796 d73c 91fc 293d
00000130: 269f 6d3b 4415 c83d 927d 113c b861 de3d
00000140: c198 093d 6e7e 103c ccbe 2dbd 893e 2d3d
00000150: 8642 2abd 8559 5d3c fab6 eabc 76a8 373d
00000160: e10b aabc 8552 c0bb 5a30 ff3c da7d 5a3c
00000170: db27 df3c e461 9d3d 0a39 7d3c f59f 683d
00000180: e8eb 22bb e623 c13c 2fa9 923d 6dab 9ebd
00000190: d4cc d8bd 27ab a6bc 4ffd aabd f3d6 dcbd
000001a0: a820 b5bd f2a5 41bd e6c8 babd 25cb f3bc
000001b0: 5231 853c fecb 863d f7a7 db3c 38b7 9c3d
000001c0: 816d e3bc 627b 63bc 49cd 803d 334b a83b
000001d0: f946 703d 54d1 52bd d4f9 ecbc 4525 6abd
000001e0: 167d dbbc f72e 85bd 932e 4dbd 7088 02bc
000001f0: adb6 3dbd 6a77 dabd 218a 863c 48ad 04bd
00000200: 401a acbd 5567 ccbc e31e 603c 5781 b7bd
00000210: 54f8 f03b 3c88 b4bc cf9b 9fbd 8922 933d
00000220: 16b7 0c3d 6b52 173d 668a 863b 7542 a73d
00000230: f540 6f3b f06e 9f3d 4e7b 8e3d 3074 ca3c
00000240: 9927 21bd f9d8 ebbc 9d00 fcbc 06bd a7bd
00000250: 5682 99bc 4467 a3bd 59d7 ccbd 7c01 99ba
00000260: 7d6c 58bd 4092 6cbc ce56 943b 4472 e1bc
00000270: 4ddd 503d 7b0b 1dbc 4105 1cbd 1ab6 2c3c
00000280: ce4a 813d d9ea bc3a f140 12bd 2e0c 91bc
00000290: 86e7 07bd 7438 74bd 59c7 c9bd 9ff4 c9bd
000002a0: f436 abbd e47d c0bd 729f 18bd c08b 6a3d
000002b0: a9d0 643d b578 c33d c27f 403d 0b44 e13c
000002c0: d95e fa3c c545 a93d 98e6 6d3c d0cd e83c
000002d0: c8e7 87bd 2ccf 9a39 7c4d 843c a8a6 8d3c
000002e0: fbc3 2ebd bd02 e3bc d5a6 9dbd fcc6 65bd
000002f0: b760 24bd 15dc 8fbd 8017 b3bd 19e4 84bc
00000300: 9f76 bbbd c547 083c ebb4 86bc c71f 16bd
00000310: 74b0 3cbd eef0 5abd 4501 7d3d 1700 e73c
00000320: 8d9a 473d d91b 2f3d 46cc 3a3d 73cc 0b3d
00000330: 0a8b a23c 9be8 db3c 9fc3 093c 9af6 97bd
00000340: bebb a2bc 77c3 87bd 4fd2 a6bd 2269 e9bc
00000350: 03f7 ccbc cf53 b7bc b044 96bd bc1c 9cbd
00000360: 3e5b fb3d 38c2 143d 0a3e 873d fc3d 8f3d
00000370: 61cb d13d ac0c 123e 8917 5a3d 97a0 893d
00000380: 14a2 643d 21c9 183c 9ef4 9bbc ba66 30bd
00000390: 905b b43b bf98 5d3c 54d2 88bd ae08 82bd
000003a0: 62d8 06bc 7ad9 6fbd 0a38 813d a89b abbc
000003b0: 4b6f 6d3d 921a 983d db5c 42bc 4aa1 a3bc
000003c0: 6696 b53c 5b93 3b3d 70a2 dd3c 6936 b2bc
000003d0: e7e5 1ebd 1cb7 7abd 4399 90bb 1cff 78bd
000003e0: dc4e 28bd afe6 c1bd 870c 9fbd d742 f83b
000003f0: 1156 8e3c 5eeb 0abd cea0 f7bc 74c1 95bd
-0.11106958 -0.04405004 -0.04600648 -0.020655503 -0.047039036 -0.0013287294 -0.10729374 -0.08553269
-0.058285024 -0.0329985 -0.059255328 -0.0047850716 -0.08307812 -0.022812936 0.0030749682 0.0022467703
-0.04365014 -0.076464176 0.08732767 0.018246748 0.0022497724 -0.012579808 0.049075603 0.07559983
0.091213666 0.003866592 0.069939576 -0.020658199 -0.057058197 0.011701767 -0.029935211 -0.07455773
-0.029352672 -0.036234282 -0.07763758 0.009287563 0.06195564 0.016822902 0.003792072 -0.039765876
0.03545663 -0.02017432 0.039515037 0.02315211 0.07980125 -0.011808072 -0.00548526 -0.010861235
0.03343837 0.018531067 -0.061188158 -0.01395494 -0.057292413 0.025791999 -0.06833842 -0.077344164
-0.022132002 -0.0064741713 -0.096057 -0.096333824 -0.050600782 -0.017324725 -0.0025496527 0.065658376
-0.016528962 0.05037346 0.04955391 0.009106344 0.037670303 -0.029006107 -0.03367429 0.0023051975
0.07402219 0.0072907126 0.026317013 0.04150063 0.003625819 0.09769681 0.008880036 0.10858482
0.033592943 0.008819206 -0.042418286 0.042295966 -0.041567348 0.013510113 -0.028651703 0.04483839
-0.020757617 -0.005869212 0.031150986 0.013335669 0.027240684 0.07684687 0.015455494 0.056793172
-0.002485985 0.023576688 0.071611755 -0.077475406 -0.10585943 -0.020345284 -0.08349096 -0.10783186
-0.08844119 -0.0472774 -0.091203496 -0.029759953 0.01625887 0.06581877 0.02681349 0.07652134
-0.027762176 -0.013884397 0.06289155 0.0051359176 0.058661435 -0.051469162 -0.028927721 -0.05716445
-0.026793044 -0.065030985 -0.050093245 -0.0079671 -0.04631679 -0.10667308 0.016423287 -0.032391816
-0.08403444 -0.024951616 0.013679239 -0.089602165 0.007353822 -0.022037618 -0.0779339 0.071843214
0.03435429 0.036943834 0.004105854 0.081669725 0.0036507223 0.077848315 0.06957112 0.024713606
-0.039344404 -0.028789984 -0.030762011 -0.0819035 -0.018738907 -0.07978681 -0.10002012 -0.0011673416
-0.052837837 -0.014439166 0.0045269495 -0.027520306 0.0509923 -0.009585257 -0.038090948 0.010541463
0.06313096 0.0014413252 -0.035706464 -0.017706003 -0.033179782 -0.05962415 -0.09852476 -0.09861111
-0.08360091 -0.09399012 -0.037261434 0.057262182 0.055863056 0.095445074 0.04699684 0.027498266
0.030562805 0.082652606 0.01452031 0.028418452 -0.06636006 0.00029527524 0.016150229 0.017291382
-0.04266737 -0.027711267 -0.07697836 -0.05609797 -0.040131297 -0.07024399 -0.08744717 -0.016222047
-0.091534846 0.008317892 -0.01644369 -0.0366514 -0.046066716 -0.053452425 0.06176879 0.028198285
0.048731375 0.042751167 0.045604967 0.034130525 0.01984169 0.026844313 0.008408456 -0.074200824
-0.019864913 -0.06629079 -0.08145582 -0.028492514 -0.025020128 -0.02237883 -0.0733732 -0.07622668
0.122732624 0.036318034 0.0660363 0.069942445 0.102438696 0.14262646 0.0532451 0.06720083
0.055818632 0.009325297 -0.019037541 -0.043066718 0.005504079 0.013525187 -0.06680742 -0.06349312
-0.008230301 -0.05855701 0.06309517 -0.020948246 0.057967465 0.07426943 -0.011862959 -0.01997437
0.022166442 0.045794826 0.027054995 -0.02175446 -0.03879347 -0.061209783 -0.0044128015 -0.060790166
-0.04109083 -0.094678275 -0.07766061 0.0075763273 0.017375024 -0.03391587 -0.030228045 -0.07312289

conv2.bias f4 [64]
00000000: d62f 19bd e3da 3bbb 6c07 e9bb a113 be3b
00000010: a23f 16bd 38dc 453c b549 6dbd 1f13 f93c
00000020: 212b d63c d9b2 e23c 362f 243d 26ee dfbc
00000030: 6786 ed3c dae1 00bd e827 ffbc a9c8 80bd
00000040: 8029 d1bc 5243 01bd 35e7 10bd 103a 84bd
00000050: 530d 1cbd ca1b 5ebd 1b46 b0bc 7cb5 ca3c
00000060: b696 f83c f6cc 71bb 7262 22bd 3fcb 463d
00000070: cfc2 18bc ef06 1abd 1d1a 95bc 19ac 713d
00000080: ef15 39bd 3b42 6ebd e21c 9d3c 5647 783d
00000090: ec42 5fbd c558 683d 1126 6bbd 0fc6 b83c
000000a0: 1cd2 df3c b3ef 823d e22b c23b b97b 96bb
000000b0: 024a 8abd 0708 80bd 2739 813d c672 e43c
000000c0: 348a 123d 8c8b f8bc a2f4 2fbd 5b81 8fbc
000000d0: 8877 00bc 8ff1 713c ae39 c2bb 5a66 98bb
000000e0: e21d aa3b ba2c 92bc 6846 0bbd 56cd 723b
000000f0: 50af 9b3a 9d1f 783d 7f1d 7f3d 824a 493d
-0.037399136 -0.0028664402 -0.0071114805 0.00580068 -0.03668178 0.01207643 -0.05793162 0.030404625
0.026143612 0.027673172 0.040084086 -0.027335238 0.028994752 -0.03146539 -0.031146958 -0.06288273
-0.025532484 -0.031558342 -0.035376746 -0.06456387 -0.038098644 -0.05422572 -0.021517804 0.024744742
0.030345302 -0.0036895848 -0.039644666 0.048533674 -0.00932379 -0.03760427 -0.018200928 0.059002016
-0.045186933 -0.05816863 0.019178811 0.060614906 -0.05450718 0.056725282 -0.05740935 0.02255538
0.027321868 0.06393375 0.0059256414 -0.0045923856 -0.06752397 -0.06251531 0.06309729 0.02788676
0.035776332 -0.030339979 -0.04295791 -0.017517736 -0.0078409985 0.014767065 -0.005927286 -0.004650873
0.0051915506 -0.017843593 -0.03400269 0.003704866 0.0011877809 0.060577024 0.06228399 0.04914332

linear.weight f4 [1, 64]
00000000: c3f5 54be 4bee 253e 07f2 193e a101 efbd
00000010: 52fe 3f3e 5472 1cbe 0f0f 0b3e d4b1 0c3e
00000020: 08c6 f93d 0d33 473e 7d0e 5dbe 4ba2 173e
00000030: 186e dfbd bb79 50be 9a63 483e 6ca9 433e
00000040: c810 4b3e d54b f0bd 0415 da3d 5858 4b3e
00000050: 8830 ff3d 2fb6 573e f556 1e3e 7974 0dbe
00000060: 4f94 2b3e 276c 063e e4c6 413e 88d7 46be
00000070: c409 503e 7b35 06be 4064 453e cf48 fabd
00000080: 3905 df3d 6dd8 293e 2a3f 4bbe 5f1c 57be
00000090: 8fa0 c83d b6be 64be 6e72 3d3e 8613 f53d
000000a0: 70b6 163e b96c 19be d027 efbd 1006 2c3e
000000b0: d2cd 473e 32a7 083e a923 f3bd d4e6 50be
000000c0: 1ef1 3ebe 81a4 023e 63be 173e 0df0 d33d
000000d0: 1252 443e e1b3 003e c85b 4f3e 84cc 10be
000000e0: 1fac ecbd 62e8 53be ba23 fdbd 8a79 62be
000000f0: 618e 42be aafa 05be a4fd 6dbe 03b4 45be
-0.20796876 0.16204183 0.15033732 -0.116702326 0.18749359 -0.15277988 0.13579963 0.13739711
0.121959746 0.19453068 -0.21587558 0.14808004 -0.109096706 -0.20358936 0.19569245 0.19107598
0.1983062 -0.11733214 0.1064854 0.19857919 0.124604285 0.21065591 0.15462859 -0.13813962
0.16755794 0.13127194 0.18923527 -0.19418156 0.20316225 -0.13106339 0.19276524 -0.122209184
0.10889668 0.16586466 -0.19848314 -0.21006916 0.09796249 -0.22338375 0.18500683 0.119666144
0.14718032 -0.1498288 -0.116775155 0.16799188 0.19512108 0.1334503 -0.11872036 -0.20400554
-0.18646666 0.12758066 0.1481872 0.103485204 0.19171932 0.12568618 0.20249856 -0.14140517
-0.11556267 -0.20694116 -0.1236033 -0.22116676 -0.18999626 -0.13083902 -0.23241287 -0.1930695
