concepts_sequential/saved_probes/doubleCheck_layer_10_probe.pth (torch, 372934 bytes, 5 tensors)

conv1.weight f4 [32, 256, 3, 3]
-0.015699485 0.0046303477 -0.035705704 0.027683474 0.013351286 0.01028852 -0.0022199827 0.040043596
0.024706066 -0.025849784 0.00047738958 -0.024156952 0.0137794865 -0.005652445 -0.021755524 0.011116552
0.0037798616 -0.03344076 -0.026945783 -0.000982575 -0.032506257 -0.01101836 -0.012747533 0.013220544
-0.014768623 -0.0100941 -0.0025732422 -0.021699514 0.014902931 -0.07412507 0.055205595 -0.052475296
-0.031374324 0.052586317 0.02297165 0.015696097 -0.014527289 0.015130161 0.008175749 -0.004425445
-0.0034342192 -0.02709504 -0.030195972 -0.05753719 -0.025049658 -0.006372219 0.025986617 -0.0001426647
0.05064931 -0.011293077 -0.016961236 0.038927156 0.03747442 0.06791386 0.021699429 0.014627791
-0.0038553597 -0.014197754 -0.005923261 -0.044983517 -0.004924129 -0.006641 -0.013776138 -0.016962294
0.002003368 0.004174235 0.003087336 -0.010732996 -0.007254877 -0.024314165 0.010924084 -0.005168257
0.031684473 -0.009126761 -0.016047819 -0.011133033 -0.018719798 0.0126178255 0.0020184494 0.00978164
-0.027463479 -0.012726834 0.0071100364 0.009956458 0.0018235554 -0.010655582 0.010485366 -0.05299921
-0.04133674 0.00011479939 -0.043257255 -0.006849518 0.0075278226 0.026875695 -0.019722044 -0.037928615
0.047614496 -0.010557045 0.0049326546 0.023652082 -0.008715329 0.027438499 0.018694654 -0.005222492
0.03169199 0.0041211364 -0.008462927 0.033462033 -0.023453893 -0.009787996 0.010418051 0.025723264
0.0124414675 -0.016261995 0.020162147 0.00019754158 0.014057755 -0.039117645 -0.02707581 -0.02897877
0.0056085153 -0.0068188296 -0.045038596 0.03148551 -0.0043599973 -0.034791205 -0.004008519 -0.0019697475
0.014670364 -0.024199713 0.004356361 -0.0127709005 -0.043859877 -0.017188007 -0.018944463 -0.037329726
-0.012625374 -0.026222743 -0.009305494 -0.008604833 0.026582068 0.0003940702 0.005878554 -0.027522007
-0.015867228 0.0048019984 0.03343132 0.0057164296 -0.0016833255 -0.024136018 -0.0028296825 -0.015478358
-0.0037691202 -0.002734743 0.004969818 -0.014635113 0.014427227 0.0022601928 0.010479306 -0.019364988
0.0068569467 0.010778015 -0.0036001261 -0.0144705 0.013395679 -0.01053717 -0.019037642 0.0069649313
0.011759338 -0.003343585 -0.0100304 0.01389324 0.008671535 0.0013750737 -0.008056429 -0.005015338
-0.04093181 0.009224984 0.004258019 -0.037865542 0.008334027 0.008781673 -0.002340475 -0.005048875
0.0087063955 0.004691237 0.004672652 -0.014704431 -0.01695108 -0.004928304 -0.01494787 -0.016318277
-0.0015600562 0.0058731185 0.0023209776 -0.01955003 -0.012065665 -0.020578189 0.03901104 0.009130801
-0.026910996 -0.010567897 0.033447094 -0.03731029 0.012727945 -0.075309314 -0.027725525 -0.07402283
-0.016312933 -0.019286802 0.020440176 0.013179925 -0.047126237 -0.010889385 -0.073712766 0.0011401047
-0.0031023282 0.0048986143 0.027106889 -0.022563955 -0.008183552 0.036556724 -0.03021234 -0.03264066
-0.04235979 0.04292928 0.022850787 0.036423977 0.010788758 -0.006072472 -0.07140565 0.058711927
-0.023303619 -0.005045674 -0.008964289 -0.01080053 -0.021055713 -0.023568941 -0.019907102 -0.06392545
0.041432023 0.015296879 0.012230416 0.0015392608 0.0047238963 -0.00027804633 0.013793021 0.009428624
-0.021056188 0.030995376 -0.050162267 -0.0374732 0.0063610133 -0.013256549 -0.0023226524 -0.01901927
00000000: 359c 80bc 2cba 973b 2540 12bd 74c8 e23c
00000010: 5abf 5a3c 2e91 283c 217d 11bb c104 243d
00000020: 6064 ca3c edc2 d3bc 254a fa39 cde4 c5bc
00000030: 5bc3 613c 2538 b9bb a438 b2bc 3322 363c
00000040: 8eb7 773b 2ef9 08bd 67bd dcbc bfc9 80ba
00000050: 4825 05bd 5a86 34bc 07db 50bc fb9a 583c
00000060: 18f8 71bc b961 25bc d7a3 28bb 2ec3 b1bc
00000070: 6c2b 743c e2ce 97bd 431f 623d 56f0 56bd
00000080: 5d82 00bd c064 573d 0b2f bc3c 1a95 803c
00000090: de03 6ebc 7fe4 773c 94f3 053c 5303 91bb
000000a0: a310 61bb 6bf6 ddbc 8b5d f7bc 1eac 6bbd
000000b0: f134 cdbc 0cce d0bb e3e1 d43c 4498 15b9
000000c0: a775 4f3d 9906 39bc 4af2 8abc 1572 1f3d
000000d0: c77e 193d 6c16 8b3d 00c3 b13c 67a9 6f3c
000000e0: 34aa 7cbb b29d 68bc ea17 c2bb a340 38bd
000000f0: 975a a1bb bf9c d9bb 50b5 61bc 82f4 8abc
00000100: f04a 033b 05c8 883b e754 4a3b 73d9 2fbc
00000110: 52ba edbb 802e c7bc eefa 323c 7b5a a9bb
00000120: 94c7 013d 6988 15bc b776 83bc 5367 36bc
00000130: 435a 99bc ffba 4e3c f647 043b 2c43 203c
00000140: 17fb e0bc 3684 50bc 4ffb e83b 6920 233c
00000150: 5e04 ef3a c094 2ebc d0ca 2b3c b315 59bd
00000160: b750 29bd 74c0 f038 852e 31bd ec71 e0bb
00000170: f4ab f63b 6b2a dc3c 2090 a1bc 095b 1bbd
00000180: 6b07 433d 75f7 2cbc 1ba2 a13b 03c2 c13c
00000190: bdca 0ebc b4c6 e03c 8825 993c 7021 abbb
000001a0: 76cf 013d 990a 873b 17a8 0abc 7c0f 093d
000001b0: 6122 c0bc d55d 20bc 79b0 2a3c 98b9 d23c
000001c0: 4cd7 4b3c e037 85bc 162b a53c 2a23 4f39
000001d0: 7f52 663c d339 20bd 17ce ddbc e364 edbc
000001e0: a3c7 b73b 7d70 dfbb 647a 38bd f3f6 003d
000001f0: 4fde 8ebb 3981 0ebd e559 83bb e116 01bb
00000200: f75b 703c 7a3e c6bc cebf 8e3b 0a3d 51bc
00000210: 6aa6 33bd ddcd 8cbc 6b31 9bbc 0ee7 18bd
00000220: a8da 4ebc 14d1 d6bc 1276 18bc 49fb 0cbc
00000230: a3c2 d93c 359b ce39 e3a0 c03b d575 e1bc
00000240: fdfb 81bc 155a 9d3b 48ef 083d e350 bb3b
00000250: 08a3 dcba e6b8 c5bc 3272 39bb f098 7dbc
00000260: 5803 77bb 6039 33bb dbd9 a23b 1dc8 6fbc
00000270: 2d60 6c3c be1f 143b 65b1 2b3c 53a3 9ebc
00000280: 3db0 e03b 4596 303c 18f0 6bbb ad15 6dbc
00000290: 8d79 5b3c 18a4 2cbc d4f4 9bbc 143a e43b
000002a0: 3daa 403c 0c20 5bbb 8c56 24bc 79a0 633c
000002b0: 0e13 0e3c d13b b43a 1dff 03bc b457 a4bb
000002c0: 1da8 27bd 6324 173c da86 8b3b e618 1bbd
000002d0: 718b 083c 02e1 0f3c a862 19bb 0971 a5bb
000002e0: 45a5 0e3c f3b8 993b 0c1d 993b dbea 70bc
000002f0: fedc 8abc 9c7d a1bb e9e7 74bc e8ad 85bc
00000300: cd7a ccba 4a73 c03b 8b1b 183b 6227 a0bc
00000310: 11af 45bc 9793 a8bc 0aca 1f3d 5b99 153c
00000320: 7374 dcbc f924 2dbc d2ff 083d add2 18bd
00000330: df88 503c c53b 9abd a420 e3bc 4899 97bd
00000340: b3a2 85bc 5bff 9dbc 2872 a73c 9df0 573c
00000350: 7107 41bd 6469 32bc b8f6 96bd 916f 953a
00000360: 6e50 4bbb 8e84 a03b 440f de3c 0bd8 b8bc
00000370: 4e14 06bc 81bc 153d df7f f7bc 36b2 05bd
00000380: 7681 2dbd 9dd6 2f3d 9331 bb3c 4f31 153d
00000390: 55c3 303c 96fb c6bb 203d 92bd eb7b 703d
000003a0: 3be7 bebc 2e56 a5bb f4de 12bc b5f4 30bc
000003b0: 087d acbc a713 c1bc 3814 a3bc 59eb 82bd
000003c0: a0b4 293d c39f 7a3c 1562 483c 06c1 c93a
000003d0: eaca 9a3b bfc6 91b9 20fc 613c 847a 1a3c
000003e0: 077e acbc 04ea fd3c f376 4dbd 807d 19bd
000003f0: 0c70 d03b ff31 59bc a437 18bb 4dce 9bbc

conv1.bias f4 [32]
-0.01078804 0.011352041 0.0027564697 -0.02415615 -0.0010499257 0.016083788 -0.023076642 0.00326133
0.021382026 0.010922153 -0.020450046 0.010063596 0.0057196943 -0.017217614 0.0010004207 -0.01556449
0.013091071 0.008037452 -0.007435069 0.024085177 0.019971516 -0.0023166516 0.01452472 -0.019317273
0.020167958 -0.022643274 4.3785685e-06 -0.024258567 -0.009101288 -0.009038905 -0.014538928 0.00063441426
00000000: 52c0 30bc e9fd 393c e3a5 343b 1ee3 c5bc
00000010: a99d 89ba 26c2 833c 3a0b bdbc 0abc 553b
00000020: 5c29 af3c d4f2 323c db86 a7bc c8e1 243c
00000030: 466c bb3b f40b 8dbc 8c20 833a 3402 7fbc
00000040: ee7b 563c 84af 033c e1a1 f3bb 474e c53c
00000050: 4e9b a33c f7d2 17bb 17f9 6d3c 423f 9ebc
00000060: 4637 a53c 637e b9bc 9eeb 9236 e7b9 c6bc
00000070: 921d 15bc ea17 14bc af34 6ebc d24e 263a

conv2.weight f4 [64, 32, 3, 3]
-0.13686974 -0.0637439 -0.067415826 -0.038893245 -0.060999896 -0.016764795 -0.1236996 -0.095065996
-0.07805661 -0.041830316 -0.06958036 -0.017846862 -0.102611005 -0.04491455 -0.019718854 -0.0075623654
-0.053535968 -0.09542177 -0.06126258 -0.11053808 -0.1381499 -0.15099375 -0.06952407 -0.05914191
-0.06268952 -0.1322836 -0.077698 -0.040149927 -0.067477085 0.0056212274 -0.052082952 -0.08314031
-0.038079005 -0.065554045 -0.094079554 -0.006615692 0.05771444 0.010142561 -0.005471577 -0.04438806
0.031648226 -0.023184802 0.03161408 0.016567169 0.07928943 0.010531434 0.01978855 0.022455044
0.062680066 0.043587506 -0.027545923 0.018310895 -0.025393248 0.062109515 -0.043239094 -0.058872063
-0.0082868505 0.007253006 -0.08868816 -0.09613573 -0.038070552 -0.0066172117 0.00072111137 0.08595879
-6.3420855e-05 0.06830526 0.06959907 0.025503498 0.055846654 0.00017499889 -0.010555212 0.023967829
0.09384174 0.02223725 0.047738865 0.05389635 0.0109651135 0.10849178 0.024246119 0.11948191
0.050449297 0.020606749 -0.031607974 0.053029824 -0.026049199 0.028103095 -0.010926449 0.061421223
-0.0032248017 0.015448695 0.028402193 0.013389809 0.022743829 0.07120721 0.015969004 0.051493265
-0.011788061 0.017606562 0.061234977 -0.1001102 -0.123334266 -0.047860675 -0.10765062 -0.13092668
-0.111464724 -0.069103055 -0.108391725 -0.0454682 0.004469948 0.0507329 0.00917894 0.06581411
-0.041787468 -0.029679159 0.052609675 -0.007350671 0.046278156 0.033053655 0.05310254 0.030628497
0.057188105 0.012218063 0.03411867 0.09015258 0.047109302 -0.0019459384 0.061487827 0.003940206
-0.052852638 0.02247202 0.052099388 -0.05791999 0.05908897 0.016369455 -0.050037947 0.07491562
0.03247839 0.034085695 0.010020831 0.0858565 0.008766988 0.0873712 0.08390225 0.04288903
-0.08667013 -0.064335644 -0.06951579 -0.12572686 -0.049743492 -0.10603114 -0.13626166 -0.023283314
-0.07097554 0.027916774 0.056249607 0.034076925 0.09818593 0.04887656 0.03848742 0.06579642
0.12563725 0.08176604 0.06994027 0.078586966 0.07348492 0.037186466 -0.0110776285 -0.0056847436
0.024619462 0.0038037694 0.07028737 0.05885405 0.060342163 0.09941448 0.05308032 0.034701906
0.0394011 0.08698621 0.019734751 0.041482564 -0.049031302 0.004191189 0.011794093 0.037561823
-0.041004565 -0.034487072 -0.049057648 -0.043074027 -0.03638512 -0.12413147 -0.1349335 -0.06737116
-0.13459371 -0.034107693 -0.06107336 -0.08005691 -0.08517488 -0.09197504 0.07187626 0.035645187
0.05921181 0.056350503 0.058177598 0.04514715 0.034465 0.04209016 0.025113504 -0.043887444
0.0087296795 -0.046989072 -0.05415681 -0.0036300302 -0.008777579 0.0062894784 -0.046237037 -0.054079227
0.118259296 0.022144383 0.053380832 0.060974553 0.08785343 0.13244529 0.048273727 0.058150183
0.057759415 0.043039512 0.003882533 -0.02584504 0.03038292 0.025686173 -0.05920068 -0.051748823
-0.0036008188 -0.057716824 0.06433305 -0.018911088 0.057289004 0.07111824 -0.016015317 -0.028456457
0.015764043 0.038764905 0.016192432 -0.014006939 -0.031968866 -0.051548187 -0.0038963833 -0.0638979
-0.041470483 -0.09401678 -0.08349269 0.0015109756 0.046916723 -0.0014319442 0.00081268424 -0.04782788
00000000: 9527 0cbe 298c 82bd 4f11 8abd 864e 1fbd
00000010: 07db 79bd 5356 89bc 3756 fdbd f6b1 c2bd
00000020: 25dc 9fbd 4456 2bbd 2680 8ebd 9533 92bc
00000030: b825 d2bd 52f8 37bd 6f89 a1bc b8cd f7bb
00000040: 8848 5bbd 7d6c c3bd 79ee 7abd ca61 e2bd
00000050: 2b77 0dbe 1b9e 1abe a362 8ebd ca3e 72bd
00000060: 5d63 80bd 5a75 07be 2120 9fbd 4074 24bd
00000070: 6d31 8abd 4632 b83b ef54 55bd 7845 aabd
00000080: bbf8 1bbd 3341 86bd c8ac c0bd 72c8 d8bb
00000090: fa65 6c3d fc2c 263c ea4a b3bb 41d0 35bd
000000a0: 92a1 013d 0eee bdbc c47d 013d dfb7 873c
000000b0: 7f62 a23d 098c 2c3c 991b a23c a4f3 b73c
000000c0: 685e 803d d088 323d fda7 e1bc bb00 963c
000000d0: 8005 d0bc 8c66 7e3d 7a1b 31bd d523 71bd
000000e0: 92c5 07bc a0aa ed3b 23a2 b5bd cfe2 c4bd
000000f0: deef 1bbd 32d5 d8bb f708 3d3a 290b b03d
00000100: d000 85b8 a1e3 8b3d f589 8e3d b6ec d03c
00000110: 76bf 643d e87f 3739 c5ef 2cbc 2e58 c43c
00000120: 1930 c03d e52a b63c d489 433d 6bc2 5c3d
00000130: 05a7 333c f030 de3d cc9f c63c eeb2 f43d
00000140: eca3 4e3d 7ccf a83c 5d77 01bd cd35 593d
00000150: 2165 d5bc 7638 e63c d904 33bc d294 7b3d
00000160: 3257 53bb 861c 7d3c b7ab e83c ee60 5b3c
00000170: 4451 ba3c 16d5 913d 6ed1 823c 9aea 523d
00000180: b622 41bc a33b 903c 87d1 7a3d 9406 cdbd
00000190: ad96 fcbd 8e09 44bd ee77 dcbd a511 06be
000001a0: 9e47 e4bd e785 8dbd 7bfc ddbd dd3c 3abd
000001b0: a478 923b 4dcd 4f3d 4463 163c 8cc9 863d
000001c0: 5629 2bbd b521 f3bc 3e7d 573d e6dd f0bb
000001d0: 2a8e 3d3d 4563 073d 0d82 593d 9de8 fa3c
000001e0: 133e 6a3d 452e 483c 05c0 0b3d eaa1 b83d
000001f0: aff5 403d dc0e ffba a9da 7b3d d81c 813b
00000200: 027c 58bd 3e17 b83c 2b66 553d 833d 6dbd
00000210: 4707 723d 3c19 863c 97f4 4cbd 5c6d 993d
00000220: 0f08 053d 719d 0b3d 692e 243c 88d5 af3d
00000230: 6aa3 0f3c acef b23d f1d4 ab3d 68ac 2f3d
00000240: 1c80 b1bd 68c2 83bd 4b5e 8ebd 8bbe 00be
00000250: d5bf 4bbd db26 d9bd 2d88 0bbe a6bc bebc
00000260: a05b 91bd b8b1 e43c fd65 663d 3f94 0b3d
00000270: b415 c93d ca32 483d fca4 1d3d 46c0 863d
00000280: 0da7 003e f474 a73d d83c 8f3d 34f2 a03d
00000290: 437f 963d d650 183d f17e 35bc 1647 babb
000002a0: c1ae c93c a948 793b d3f2 8f3d f210 713d
000002b0: 5829 773d d299 cb3d c06a 593d 9623 0e3d
000002c0: 0c63 213d d325 b23d c6aa a13c 9fe9 293d
000002d0: 0cd5 48bd 3e56 893b 033c 413c 6dda 193d
000002e0: 67f4 27bd 5142 0dbd acf0 48bd 646e 30bd
000002f0: 9008 15bd a438 febd 022c 0abe e4f9 89bd
00000300: efd2 09be 82b4 0bbd 0f28 7abd e1f4 a3bd
00000310: 2b70 aebd 695d bcbd dc33 933d b000 123d
00000320: 1588 723d c9cf 663d a24b 6e3d 38ec 383d
00000330: 2c2b 0d3d bb66 2c3d d6ba cd3c 52c3 33bd
00000340: ee06 0f3c 9d77 40bd 88d3 5dbd cde5 6dbb
00000350: d6cf 0fbc f817 ce3b 0c63 3dbd 2e82 5dbd
00000360: ee31 f23d 2368 b53c dca5 5a3d 74c0 793d
00000370: 80ec b33d bd9f 073e acba 453d e32e 6e3d
00000380: 2395 6c3d 334a 303d 1872 7e3b fab8 d3bc
00000390: 9ae5 f83c cf6b d23c 6a7c 72bd 93f6 53bd
000003a0: b7fb 6bbb 7a68 6cbd 0cc1 833d 6deb 9abc
000003b0: e0a7 6a3d 71a6 913d 8e32 83bc 841d e9bc
000003c0: 9823 813c f3c7 1e3d fea5 843c 5c7d 65bc
000003d0: c9f1 02bd 3124 53bd 775a 7fbb e7dc 82bd
000003e0: f4dc 29bd df8b c0bd 37fe aabd ee0b c63a
000003f0: c02b 403d 13b0 bbba 510a 553a 2be7 43bd

conv2.bias f4 [64]
-0.04616681 0.00880597 0.005593742 -0.000880607 -0.025711568 0.001967873 -0.05361009 0.03288447
0.03832499 0.039357286 0.040519886 -0.015008258 0.019506885 -0.03471906 -0.02768806 -0.05611811
-0.015632497 -0.041467328 -0.034420863 -0.05663826 -0.028456347 -0.04893309 -0.009240304 0.017176809
0.037791416 0.017797336 -0.03145774 0.04131467 0.006498626 -0.042944085 -0.002774629 0.054654248
-0.041807167 -0.04930951 0.0145140905 0.05671325 -0.045611657 0.04886586 -0.053439297 0.028842876
0.03738608 0.058043037 -0.001024077 0.0031238934 -0.057115328 -0.061900686 0.061230585 0.021383632
0.025172237 -0.017480165 -0.026958205 -0.008608912 0.003827489 0.022060867 0.0093348 -0.02738979
-0.011729979 -0.018965043 -0.046147157 -0.0021056642 -0.011284982 0.05881774 0.05622303 0.048057094
00000000: 6919 3dbd ea46 103c b54b b73b 89d8 66ba
00000010: 11a1 d2bc 6ef7 003b 4196 5bbd deb1 063d
00000020: aafa 1c3d 1b35 213d 2ef8 253d 32e5 75bc
00000030: e7cc 9f3c 9335 0ebd 12d2 e2bc 1adc 65bd
00000040: b90f 80bc a5d9 29bd e4fc 0cbd 85fd 67bd
00000050: 491d e9bc 106e 48bd a564 17bc 61b6 8c3c
00000060: 2ccb 1a3d b8cb 913c d5d9 00bd 9239 293d
00000070: 6df2 d43b 23e6 2fbd 8dd6 35bb 22dd 5f3d
00000080: fe3d 2bbd c5f8 49bd 82cc 6d3c 274c 683d
00000090: 4ad3 3abd 9127 483d 2ae3 5abd e547 ec3c
000000a0: 2522 193d 89be 6d3d 523a 86ba 3cba 4c3b
000000b0: c3f1 69bd 938b 7dbd eccc 7a3d ba2c af3c
000000c0: 0236 ce3c 9032 8fbc 74d7 dcbc 650c 0dbc
000000d0: 9cd6 7a3b feb8 b43c fdf0 183c 8e60 e0bc
000000e0: 192f 40bc 945c 9bbc cd04 3dbd 2fff 09bb
000000f0: a5e4 38bc dfea 703d 1f4a 663d 84d7 443d

linear.weight f4 [1, 64]
-0.2521038 0.25854442 0.24051265 -0.14739776 0.29824188 -0.16339183 0.20677617 0.20623225
0.20909756 0.28985935 -0.2617704 0.24969906 -0.08462868 -0.24105653 0.29286432 0.2912288
0.30231127 -0.11738294 0.19449234 0.29585052 0.21651702 0.29237333 0.22409317 -0.1593918
0.23483884 -0.115071796 0.29113346 -0.21413453 0.29221874 -0.16154242 0.3009014 -0.13655439
0.18831094 0.2586755 -0.23708324 -0.25056893 0.16587289 -0.2452158 0.27634126 0.18045862
0.2649388 -0.1678843 -0.13336103 0.25440186 0.29427153 0.21631098 -0.13876815 -0.22612375
-0.19570178 0.2146113 0.251016 0.17582372 0.31349552 0.21165903 0.2974955 -0.1401816
0.20622598 -0.2432699 -0.14575702 -0.25903037 -0.21419084 -0.16134554 -0.26141506 -0.24092123
00000000: c013 81be ef5f 843e f348 763e 70ef 16be
00000010: 29b3 983e 3050 27be 22bd 533e 8c2e 533e
00000020: ac1d 563e 7268 943e c506 86be 1cb1 7f3e
00000030: cd51 adbd 86d7 76be 50f2 953e f11b 953e
00000040: 8bc8 9a3e 7866 f0bd 0029 473e b879 973e
00000050: a3b6 5d3e f5b1 953e ae78 653e 9b37 23be
00000060: 9879 703e c3aa ebbd 720f 953e 1546 5bbe
00000070: b29d 953e 606b 25be c00f 9a3e ead4 0bbe
00000080: 95d4 403e 1d71 843e f3c5 72be 924a 80be
00000090: 95da 293e da19 7bbe 9a7c 8d3e 25ca 383e
000000a0: 0fa6 873e dde9 2bbe cb8f 08be f640 823e
000000b0: c2aa 963e a080 5d3e 3d19 0ebe fc8c 67be
000000c0: 0c66 48be 11c3 5b3e 2b85 803e 220b 343e
000000d0: 7c82 a03e 25bd 583e 5551 983e c48b 0fbe
000000e0: e72c 533e bf1b 79be 5441 15be a19f 84be
000000f0: d854 5bbe c437 25be 32d8 85be 0eb4 76be
