concepts_sequential/saved_probes/exposedKing_layer_10_probe.pth (torch, 372934 bytes, 5 tensors)

conv1.weight f4 [32, 256, 3, 3]
000000 3c 9e 14 bd bf 84 b2 3b b0 e9 29 3c f5 28 41 bc
       -0.036283717 0.0054479535 0.010370657 -0.01178955
000010 eb 60 ef 3c b6 29 f5 3c c3 14 1c 3d 70 de 47 3c
       0.029221019 0.029927116 0.038105737 0.012199029
000020 2d 5f ec 3a 14 8e bb ba e7 99 88 ba 53 30 4d 3b
       0.0018033736 -0.001430931 -0.0010421843 0.003130932
000030 c5 70 ed 3b 1a 7b 0c 3c 1d 0e 80 3a e6 be c5 3c
       0.007246109 0.008574272 0.0009769831 0.024138879
000040 0f b3 95 3c 4e 73 35 bc f9 aa 67 bc 44 2e 37 bc
       0.018273858 -0.011074854 -0.014139884 -0.011180464
000050 a4 2a 0d bd d7 58 cd ba b7 0c 7c bb 55 c5 eb bc
       -0.034464493 -0.0015666735 -0.0038459727 -0.028780619
000060 a5 1a 0d bc 42 04 95 3a 66 ac 84 3c 7a d0 41 bd
       -0.00861231 0.0011369067 0.016195487 -0.04731796
000070 1e 72 d9 bc 3b 84 25 bd fd 7a 78 bd 6e 14 68 bd
       -0.026543673 -0.040409308 -0.060664166 -0.05666011
000080 05 fe 66 bd 0e 2b 8b bc 05 6e 9b bb ab 81 39 3d
       -0.056394596 -0.016988304 -0.00474334 0.045289677
000090 70 12 26 37 57 44 b5 3c d0 78 08 3c 70 fb 0a 3d
       9.898664e-06 0.022127314 0.008329585 0.033931196
0000a0 0b 46 ab bb f5 1c a7 bc 60 8a 3e 3c 1b 53 be bc
       -0.0052268556 -0.02039955 0.011629671 -0.023232987
0000b0 f2 21 b7 bc b9 0a 49 bb 72 7c 15 bd df 1a bd bb
       -0.022355054 -0.0030676557 -0.036495633 -0.0057710255
0000c0 c3 5a 87 bb 0e 7e 2e bd 0a e5 96 bc 38 ab cd b9
       -0.0041306927 -0.042600684 -0.018419761 -0.00039228215
0000d0 63 66 2e 3d 7c 62 6e 3d fb 03 3c 3c 06 66 d9 3b
       0.042578112 0.05819939 0.011475558 0.0066344766
0000e0 cf ca b0 3c a6 d3 5b 3c b1 9d 41 b9 be f3 06 3b
       0.021581082 0.01341716 -0.00018464659 0.002059206
0000f0 e3 da 85 3c 52 35 d8 3c b7 1b 61 3c 7d 3c 3d bc
       0.016339725 0.026392613 0.013739518 -0.011550066
000100 4b ce 4f 3b 54 8c 70 3c 65 7b 31 bc 75 2f 26 3c
       0.0031708654 0.014681894 -0.010832642 0.010143151
000110 5c c1 34 bc 70 91 03 bc 2a 84 bb bc 91 24 15 bd
       -0.011032429 -0.0080302805 -0.02289017 -0.036411826
000120 b2 63 86 bc c9 07 36 bc e7 1a a0 bc ac 7a a1 3c
       -0.01640496 -0.011110255 -0.019544078 0.019711815
000130 f7 d7 a5 3c cc 36 20 3c 6d 54 c6 3c 81 5d 55 3d
       0.020244582 0.00977869 0.02421018 0.052091125
000140 31 cb 11 3d fb 87 29 3c 9f 83 98 bc 53 f3 b0 bb
       0.03559417 0.010347362 -0.01861745 -0.0054001003
000150 e7 ee bd bc c5 84 03 bd 77 3d 58 bc 5d f1 97 3b
       -0.023185207 -0.03210904 -0.013198248 0.004636927
000160 a7 f0 b6 bc 84 36 01 bd 84 05 a4 3c bc 21 2e bb
       -0.022331549 -0.03154613 0.020022161 -0.00265704
000170 f1 a7 29 bc 9e 13 da 3c b3 99 aa ba 9d 69 94 3c
       -0.010354982 0.026620682 -0.0013015777 0.018116767
000180 55 30 49 3d 79 70 2a bb 2c ce 89 3c bb c0 8b bc
       0.04911836 -0.002600698 0.016821943 -0.017059674
000190 a4 76 02 3b e3 6c e4 3a df 14 c7 ba 9c e2 39 bc
       0.001990714 0.001742747 -0.0015188715 -0.011345532
0001a0 2c f5 1f bc b4 85 b0 bc b5 c9 0e 3b 5a 1b 10 3c
       -0.009763043 -0.02154813 0.0021787707 0.008795584
0001b0 b1 94 30 bc 62 af 1f bd d0 c7 7f bc bd f3 91 bc
       -0.010777638 -0.038985617 -0.015611604 -0.017816419
0001c0 54 71 d8 bc 17 73 af bb 78 23 09 bc b1 0a 07 3d
       -0.026421227 -0.005354296 -0.008370273 0.03296918
0001d0 00 af 1d 3d 84 75 54 bc 3e 01 48 bd 7c 90 c8 3a
       0.03849697 -0.012967471 -0.04882931 0.0015301849
0001e0 78 9d 47 3c 46 f6 9e bc 43 f1 b0 3c ef 25 d3 bb
       0.01218354 -0.019404542 0.021599418 -0.006443731
0001f0 b5 6a 53 3d a7 82 75 3d db 7b b1 3c f3 95 93 3c
       0.051615436 0.059939053 0.021665504 0.018015837
000200 59 f2 ff 3c 7e db b8 3c 83 24 dc b9 1a d0 45 bd
       0.03124349 0.0225656 -0.00041988873 -0.048294164
000210 dd 80 96 bb af 8d 15 bd 9d 68 a6 bc dd 60 67 bc
       -0.0045929984 -0.036512073 -0.020313555 -0.014122215
000220 45 e4 92 3b bb 72 30 bc b7 8a 3b 3c 4d 31 a5 bc
       0.0044827783 -0.010769541 0.011446646 -0.02016511
000230 a3 2d 4e bd d7 a2 0c bd 1a 2f 55 bc 22 95 01 bd
       -0.05033649 -0.034334984 -0.013011718 -0.031636365
000240 8b 21 2a bc a3 e3 88 ba 47 9c 6b bb 21 a2 c7 bc
       -0.010383974 -0.0010443818 -0.0035951303 -0.024369301
000250 f7 d5 50 bb dc 9a ee 3b 93 0f d1 3c d2 a5 8f 3c
       -0.0031865814 0.0072816443 0.025520122 0.017535124
000260 d9 71 7f 3b 51 ab c1 bc e6 60 34 3c 98 35 6d bc
       0.003897777 -0.02364126 0.0110094305 -0.01447811
000270 1b 49 8a bc c7 58 ec ba 8e c9 43 39 fd d9 cd bc
       -0.016880563 -0.0018031829 0.00018671734 -0.025128359
000280 57 56 33 3c c6 f4 31 3b 2c a4 52 39 8c 74 99 3c
       0.010945878 0.0027153953 0.0002008832 0.018732332
000290 90 cb 49 bc 6f 32 92 bc 99 43 01 3c a2 5d f6 bb
       -0.0123165995 -0.017846314 0.007889652 -0.007518486
0002a0 46 17 bc 3b 37 84 e8 3a aa 4a 41 bc 01 03 25 bd
       0.005740079 0.0017739598 -0.011797586 -0.040286068
0002b0 09 a6 6f bb ba fa 8c bc 2a d9 55 3b 86 37 e4 bb
       -0.003656747 -0.0172094 0.003263066 -0.0069646267
0002c0 a7 6d 8a 3c 14 70 17 bc 65 f3 f3 bb 44 30 3c 3c
       0.01689799 -0.00924303 -0.0074447864 0.011486117
0002d0 e7 f3 f6 bb 07 95 37 bc b8 23 00 3b 90 2b 04 bc
       -0.0075363996 -0.0112049645 0.001955254 -0.008067027
0002e0 62 dd 6b bb 15 32 06 3d 48 48 eb 3b 2b 89 be 3c
       -0.0035990109 0.032762606 0.0071802475 0.023258766
0002f0 23 d7 20 bc 62 5b 39 3b c4 8b e6 3b f9 6c 76 bb
       -0.009816918 0.0028283228 0.0070357043 -0.0037601574
000300 56 4b 1c bb 47 81 93 ba 58 ce cd 3c fe 3c 57 3c
       -0.0023848615 -0.0011253738 0.025122806 0.0131371
000310 5f 7d 40 bc 2c 7d 9f bc 70 8c fd 3c 1a 84 71 3d
       -0.011748641 -0.019468866 0.030950755 0.058963872
000320 36 d0 a0 3c 9a 58 0c 3d 89 60 52 3c 22 69 01 3c
       0.019630533 0.034264185 0.012840399 0.007898601
000330 a2 07 ec bb 1a 38 ff bb 83 c4 d5 3c 6b 95 24 3c
       -0.0072030583 -0.0077886702 0.02609468 0.01004539
000340 a6 5c 6d 3d 8e 91 46 3d 04 ad ea b9 09 e1 3f bc
       0.057949685 0.048478656 -0.00044760865 -0.011711367
000350 9d ea e7 bc 60 33 0b bc 03 20 4f bd 0e 16 93 bd
       -0.028310115 -0.0084961355 -0.050567638 -0.07181941
000360 7b de ea 3b 54 93 c7 3c 8d 44 87 3c 4d b1 15 3c
       0.007167635 0.024362244 0.01651218 0.00913651
000370 72 db ef bb 4b cc 8c bc 96 e6 30 3c 10 8b d4 bb
       -0.007319861 -0.017187258 0.0107971635 -0.006486304
000380 a9 b6 3a ba 0a 61 81 3c 39 78 08 3d 76 8d 23 3d
       -0.00071225554 0.015793342 0.03331778 0.03992983
000390 dc bf 7d 3c fe 74 ca 3a f1 0a d1 3b c9 58 06 bd
       0.015487637 0.0015446243 0.006379478 -0.032799516
0003a0 74 70 93 bc 4c ed 66 3c 5e 0f 6f bc 37 bb bd bc
       -0.017997958 0.014094662 -0.014591066 -0.02316056
0003b0 14 3e 75 3b 5e a1 d9 3c 89 8b 84 bb 66 29 e1 3b
       0.0037421035 0.026566204 -0.004044954 0.00687139
0003c0 a5 1b 9e 39 70 d1 cb 3b 01 b9 4c bc d8 84 d7 ba
       0.00030156705 0.0062200353 -0.01249528 -0.0016442789
0003d0 ea 7e c7 bc 1e 16 b3 bb e7 f1 95 3b 21 5d 10 3d
       -0.02435251 -0.005465283 0.004575956 0.035245065
0003e0 f1 1e b3 bb c7 68 49 3b 82 42 8e 3c cf 1c 81 ba
       -0.005466335 0.0030732618 0.017365698 -0.0009850505
0003f0 86 19 96 3c 9a e3 e1 3b 04 2b b5 3c 5e 05 4a 3c
       0.018322717 0.0068935873 0.022115238 0.012330381

conv1.bias f4 [32]
000000 d9 c6 ac 3c 98 ed 37 bc 16 4e 86 3c 41 1a 0a bc
       0.021090912 -0.01122608 0.016394656 -0.008429111
000010 84 94 a5 bc d6 50 82 bb 0f 55 a4 bc fc 01 83 3c
       -0.02021242 -0.0039769216 -0.02006009 0.015992157
000020 28 c4 60 bc 00 07 ad bb 53 3b 95 bb 6a 81 c0 3b
       -0.013718642 -0.0052803755 -0.004554191 0.0058748024
000030 cf bd 82 bc ce ed 54 3c d5 6f ba bb c2 48 89 3b
       -0.015959648 0.01299615 -0.005689601 0.0041895816
000040 22 49 a8 bb 65 26 cc bc 9f 67 8b bc f5 53 aa 3c
       -0.0051356712 -0.024920652 -0.017017184 0.020791987
000050 e9 92 c4 bb 26 8e 92 3c dd b3 0e 3c 43 67 82 bc
       -0.0059989584 0.017890047 0.008709875 -0.01591838
000060 81 26 66 bc cd d0 40 3c e1 fb 82 3b 9b bc c9 bb
       -0.014047266 0.011768532 0.0039973115 -0.0061565167
000070 a1 44 b6 3c 46 d7 98 bc 4d e1 c1 bc 6e 8d 05 bc
       0.022249522 -0.018657338 -0.023667002 -0.008151395

conv2.weight f4 [64, 32, 3, 3]
000000 cf f0 99 3d 2f ee 86 3c 7e db b3 3d 79 3e a0 bb
       0.07516634 0.016470997 0.08782099 -0.00489026
000010 aa 36 22 3d b9 c4 b9 3d e1 f0 90 3c fa 63 d4 3b
       0.039602913 0.09070725 0.017692985 0.0064816447
000020 0e e9 d1 3a 88 f9 8b 3d 37 09 fe bc 8e 3a 1e 3d
       0.001601489 0.06834704 -0.031010253 0.03863006
000030 5a 86 e9 bc 91 44 04 bc 5f 91 d5 3b 25 95 e9 3b
       -0.028506447 -0.008072988 0.0065175737 0.007128375
000040 c6 6f fe 3c 84 fc a6 3c 84 38 87 bc 7f 57 aa bc
       0.031059157 0.02038408 -0.016506441 -0.020793675
000050 80 22 0e bd b5 1a 64 3d c3 61 f9 3b af 01 78 bb
       -0.03470087 0.055689532 0.007610531 -0.00378428
000060 e9 20 d8 bc 4b e8 8b 3d 6f 09 ea bb 9b 45 90 3c
       -0.02638288 0.06831416 -0.007142238 0.017611315
000070 88 e4 87 bd 38 c2 4f bc a4 89 b6 bd e1 48 81 ba
       -0.06635386 -0.012680583 -0.089129716 -0.0009863639
000080 64 68 38 bd f9 22 41 bd 2b 68 c4 3b 8b 60 c5 bc
       -0.04502143 -0.047152493 0.005993863 -0.024093887
000090 7a 4c 34 bd 93 68 a8 bd 1e b7 21 bd 09 7e aa bd
       -0.044018246 -0.08223071 -0.039481275 -0.083248205
0000a0 3f 6e d4 bd 68 47 89 bd 78 0c a3 bd 2c e7 8c bd
       -0.1037259 -0.06703073 -0.079613626 -0.0688003
0000b0 6e 09 75 bd ca c7 cc bc bf 5c 6b bd 70 39 07 bd
       -0.059823446 -0.02499761 -0.057461496 -0.03301376
0000c0 96 4d 5e bd c7 bb a5 bc 9a 5a ef bc 3c 5c a4 bd
       -0.05427321 -0.02023114 -0.029218007 -0.08025405
0000d0 06 2e 14 bd e8 be 58 bd 77 d2 b4 bb ad e1 f3 3c
       -0.036176704 -0.052916437 -0.0055182534 0.029770697
0000e0 91 72 82 bd d6 48 23 bd fd b6 d4 bb 90 f2 d2 bc
       -0.06369508 -0.039864384 -0.0064915405 -0.025750428
0000f0 70 a4 18 bd 57 39 70 bc f4 17 77 bd cd 10 bf bc
       -0.037266195 -0.014662108 -0.060325578 -0.02332344
000100 49 75 8e 3d d2 b2 9d 3d 90 7a ac 3d a9 3e 06 3d
       0.06955964 0.07700123 0.084218144 0.0327746
000110 0e 24 cd 3c cc fa 52 3d ee 75 55 3d b3 9d c7 3d
       0.025041606 0.05150871 0.05211442 0.097468756
000120 f5 b8 f4 bc 3c 33 96 bd bf 11 80 bd ac fd 41 bd
       -0.02987335 -0.07333991 -0.06253385 -0.04736106
000130 5d f5 31 bd 98 01 96 bd 7e 80 91 bd dc 91 24 3b
       -0.043446887 -0.07324523 -0.07104586 0.0025111353
000140 33 d0 6b bd 00 0e 7c bd ad 40 8a bd 08 4e a2 bd
       -0.0575716 -0.06153679 -0.06750617 -0.079250395
000150 69 dd a6 bd 18 26 95 bd e7 01 cb bb 7e 1c fc bb
       -0.081476994 -0.072826564 -0.006195295 -0.007693826
000160 a3 d6 65 3b 6c b2 35 bd 6b 86 23 3d f2 af 44 3d
       0.003507056 -0.04435961 0.039923113 0.048019357
000170 e4 bc dd bc 85 87 41 3c de 02 90 bc 5e 1a 48 bd
       -0.02706761 0.0118120955 -0.017579492 -0.04885327
000180 c3 4c f7 bc 03 b9 c0 3a 22 90 5d 3d ca 12 56 3d
       -0.03018797 0.0014703575 0.054092534 0.052264012
000190 3c 73 38 3d 23 de 1e bd ef 31 02 3d 92 59 99 3b
       0.04503177 -0.038786065 0.0317859 0.004679867
0001a0 b0 fa ec 3b d8 fb 74 bc c0 6f 4e 3d 1c e5 67 3d
       0.0072320327 -0.014952622 0.05039954 0.05661498
0001b0 d7 b6 1e ba 4f 70 9e 3c 3e e4 6a bd b1 6a 8d bd
       -0.0006054467 0.019340662 -0.057346575 -0.069051154
0001c0 4e 89 8a bd 28 0a 25 bd b9 83 94 bc 24 dd 31 3c
       -0.0676447 -0.04029289 -0.018129217 0.010855947
0001d0 ea e8 5a bd e5 9c 88 bd 48 97 a1 bd 3c e3 4c 3c
       -0.05344478 -0.0667055 -0.07890183 0.012505349
0001e0 e1 5a 23 bd 80 76 b2 bd 2a ae 27 bc 41 ae 5b bd
       -0.03988159 -0.08714008 -0.010234395 -0.05363298
0001f0 2f 83 9e bd cd 8f 81 bc b0 17 1e 3d 68 a3 ca bb
       -0.07739865 -0.01581564 0.03859681 -0.0061840303
000200 c6 a7 7d bc d4 84 24 bd a1 18 84 bd 0e 7c f0 bc
       -0.015481895 -0.040165737 -0.0645001 -0.029356029
000210 e3 0f f8 bc 9a 38 8f bc 71 c2 02 bd 4b fd a5 bd
       -0.030281013 -0.017483044 -0.031923715 -0.081049524
000220 69 44 de bd e0 d8 b2 bd fc 57 c4 bd 23 cb 54 bd
       -0.10852892 -0.08732772 -0.09587094 -0.05195154
000230 50 a1 b0 bc 4d 3f c1 bd 1b 7d 81 bc fd 05 a6 bc
       -0.021561295 -0.09435902 -0.015806725 -0.020266527
000240 04 25 b8 bd f6 54 21 bd 3e 55 61 bd dd 60 bd b8
       -0.08991435 -0.039387666 -0.055012934 -9.0302645e-05
000250 cd 71 4c bc a4 58 49 bd 49 74 e8 bc 9b 32 85 bd
       -0.012478304 -0.0491568 -0.028375762 -0.06503793
000260 15 16 8a bd 9b a2 84 bd 42 14 88 3a fd 28 24 bd
       -0.06742493 -0.06476327 0.0010382014 -0.040078152
000270 5e 34 7f bb f2 98 1e bd 63 d6 89 3c 3a 1a f6 bc
       -0.0038941125 -0.03872008 0.01682586 -0.030041803
000280 f1 56 6b bd e1 f0 84 bd 86 11 8d 3c ee a2 4e 3d
       -0.05745596 -0.064912565 0.01722027 0.05044835
000290 4f c4 0a 3d 63 a9 e5 bc 0f c5 7a bb 9a ab 76 3d
       0.03387862 -0.028034871 -0.0038264429 0.060222246
0002a0 50 37 0f bd 2d 6b 89 3d d8 fa ac bc 57 ac 52 3d
       -0.03496486 0.06709895 -0.021115705 0.051433887
0002b0 7b aa c6 bb 94 a4 aa bc 78 c7 1d 3d a7 25 05 3d
       -0.0060628033 -0.02083043 0.038520306 0.03250661
0002c0 e0 2c 67 3d a1 23 61 3d d5 fe b0 bc 6e 70 06 3d
       0.05643928 0.05496562 -0.021605888 0.032822065
0002d0 70 ca cf 3d d3 f0 e6 3d de 1e 3e 3d d4 f5 f1 3d
       0.10146034 0.11276402 0.046416156 0.11814466
0002e0 54 96 14 3e e7 69 e5 3d 4b c8 d6 3d 11 03 28 3e
       0.1451047 0.1120184 0.104874216 0.1640742
0002f0 83 b2 7a 3d a3 39 26 bc 8a 97 a9 3c e2 eb 5f 3d
       0.0612054 -0.010145578 0.020702142 0.054668315
000300 9a 54 34 3d 69 dc 55 3d 2b a3 00 3d 74 3c 30 3d
       0.044025995 0.052212153 0.03140561 0.043026403
000310 91 92 9e b9 c4 d3 86 3d 70 43 42 3d 24 23 48 3d
       -0.0003024531 0.0658336 0.047427595 0.048861638
000320 ca 1f 49 3d a3 47 62 3d 31 bf 14 bd 36 c2 6e 3d
       0.049102582 0.0552441 -0.036315147 0.058290683
000330 b5 40 f6 3c 25 d7 63 3c 90 0e 55 3d e6 41 18 3d
       0.030060152 0.013906275 0.05201584 0.03717222
000340 37 e1 2c 3d a4 e8 67 3d 47 f9 fe 3b 9d de 60 3c
       0.04220697 0.056618348 0.007781181 0.01372495
000350 9d d5 66 bc 57 5b 02 bc 60 b8 4c 3d 65 8e 11 bd
       -0.014089015 -0.007956347 0.04998052 -0.03553619
000360 f9 c9 01 bd b0 57 62 3c d5 b5 57 bc ac 8e d5 3c
       -0.031686757 0.013814852 -0.013165911 0.026069008
000370 e6 7a ab 3c d8 f0 99 bd 76 1d f1 3c 0c ad 81 bd
       0.020932626 -0.075166404 0.029432993 -0.06331834
000380 0a 9f cf bc a9 a7 25 bd c6 78 fc bd 6f ba f7 bd
       -0.02534439 -0.040443096 -0.12327723 -0.12096106
000390 62 18 c0 bd 36 b8 b7 bd 79 e7 05 be c3 84 62 bd
       -0.09379651 -0.08970682 -0.13076581 -0.055302393
0003a0 96 8b 32 bd 5a 7f d7 bd 35 e6 3e 3d 00 f3 70 3c
       -0.04359015 -0.10522337 0.04660626 0.014706373
0003b0 09 a1 d5 bc 6f a8 44 3d ff 05 04 bd 20 60 a1 bc
       -0.026077764 0.048012193 -0.03223228 -0.019699156
0003c0 bc 49 61 bc 49 21 84 3d fc 23 24 3d bf 50 6f bd
       -0.01375049 0.06451661 0.04007338 -0.058426615
0003d0 1e 6c 21 3d 4c 98 7a 3c 13 7c 43 3d bf ef 09 3d
       0.03940975 0.0152950995 0.04772575 0.033675905
0003e0 b6 07 c3 bb 09 0e 7f bc cc be a6 3c f2 b9 d5 bc
       -0.005951847 -0.015567311 0.02035465 -0.026089642
0003f0 8f d9 62 bb ce a1 23 3b d9 8f 86 3c ce 84 60 3c
       -0.0034614538 0.002496827 0.016426014 0.013703538

conv2.bias f4 [64]
000000 bf d1 2d 3d 7d c3 01 bd f2 e4 e4 3c 96 07 fc 3c
       0.042436358 -0.031680573 0.0279412 0.030765336
000010 8b 46 cd 3c 4d e5 59 bc 62 58 1a bc 86 de 39 3d
       0.025058052 -0.0132992985 -0.009420486 0.04537823
000020 b0 b1 15 3d db b3 ed bc 31 bd d5 3b 9e 43 cd 3c
       0.03654641 -0.029016426 0.0065227975 0.025056656
000030 9a 68 f6 b9 a5 47 e5 3c 09 82 e2 bc 2e 8d 35 3d
       -0.0004699871 0.027988264 -0.027649896 0.044324093
000040 4b 05 3c bd ab 6c 7c 3c 7f c5 a8 3c c4 9e f8 bc
       -0.045903485 0.015406768 0.020601986 -0.030349143
000050 60 f1 e1 bc c7 e8 bb 3b e2 08 aa bb 28 bb e5 3c
       -0.027580917 0.0057345363 -0.005189047 0.028043345
000060 c6 f9 87 bd 60 88 03 bd 9c ad 1d 3c f9 d8 47 bd
       -0.066394374 -0.03211248 0.009623911 -0.048790906
000070 98 35 a2 bb ed 6f f4 bb e6 f3 13 bd 74 a4 20 3c
       -0.0049502365 -0.0074596317 -0.03612127 0.009804834
000080 7f 09 bf 3c 7b bb e2 3b 43 44 60 bd 63 a3 ca bb
       0.023319958 0.006919322 -0.0547526 -0.006184028
000090 ea 90 14 bd 3b fc ea bb 15 78 01 3d 1c 5f 15 bd
       -0.036271013 -0.0071711815 0.03160866 -0.036467656
0000a0 77 d0 13 bd 63 7f 61 bd ac e3 60 3d 9a 01 3f bd
       -0.03608748 -0.055053126 0.054904625 -0.046632387
0000b0 95 b1 53 3d 88 2d b1 3c ee cf 34 bd b6 4e a8 3c
       0.051683027 0.021628156 -0.04414361 0.020545345
0000c0 3c f6 71 bc 90 23 62 3c 1d 62 d2 3b c9 99 e7 3c
       -0.0147681795 0.013802424 0.0064203874 0.028271573
0000d0 ed fd 90 3c 62 5a 25 3b 85 f0 e0 bc 19 ca b2 bc
       0.017699206 0.0025230874 -0.027458439 -0.021824883
0000e0 7d 56 83 bc 67 71 51 bd b7 02 09 bd f2 03 a9 b9
       -0.016032452 -0.05113354 -0.033449855 -0.0003223713
0000f0 10 7f 60 3d 62 59 29 bd 65 c5 12 3d 11 a9 35 3d
       0.054808676 -0.041345008 0.03583278 0.044350687

linear.weight f4 [1, 64]
000000 85 09 56 3e 27 11 87 be 0e 7c 42 be cf 94 86 be
       0.20902069 -0.26380274 -0.18992636 -0.26285407
000010 1f ff 21 3e 1d 9f a6 be 83 a9 38 be 3b fd 70 be
       0.15819977 -0.3254327 -0.18033414 -0.235341
000020 a6 40 7c be fe ac 7c be 48 c3 52 be 6d 84 66 be
       -0.24634036 -0.24675366 -0.20582306 -0.22511454
000030 6e ae 66 3e 7d 5a dd 3d 1b b2 b2 3d be 63 e0 3d
       0.22527477 0.10808275 0.08725377 0.10956524
000040 e2 e2 32 3e 66 8c 30 3e 4b ef 34 3e 0a 87 25 3e
       0.17469361 0.17241058 0.17669408 0.16164795
000050 94 30 03 3e c2 e3 c0 3d 6a c6 2c 3e b9 b7 0c 3e
       0.128115 0.09418441 0.16872564 0.1374196
000060 a9 c2 84 be e5 f0 2c be a1 7e 20 be 7b 5f 77 be
       -0.25929764 -0.16888769 -0.15673305 -0.24157517
000070 8b fe 8e be 56 db 2e be fd a6 61 be 46 f5 6c be
       -0.27928576 -0.17075858 -0.22036357 -0.2314044
000080 c1 3f 03 3e 3b c2 78 be 47 3f 35 3e 73 7c 5f be
       0.12817289 -0.24292843 0.1769992 -0.21824817
000090 19 3a e3 3d 02 73 b1 3d e3 10 6e be d5 2e 24 3e
       0.110950656 0.08664514 -0.2324863 0.1603349
0000a0 08 6f ae 3d 2b ca 5d be 9b c8 b9 3d 21 48 1c 3e
       0.08517271 -0.21659152 0.090714656 0.1526189
0000b0 ec 22 c1 3d 89 01 60 be f8 a1 5d be 50 b4 e8 3d
       0.09430489 -0.21875586 -0.21643817 0.11362517
0000c0 9a 3b 73 be f5 18 1b 3e 98 aa 78 be 42 55 a9 be
       -0.23753205 0.15146239 -0.24283826 -0.3307286
0000d0 be 81 a5 be f1 95 65 be fc af 8a be 41 8c 1f 3e
       -0.32325548 -0.2242048 -0.2708739 0.15580846
0000e0 ab ba 39 3e e4 f5 6d be a9 27 81 be e2 3f 80 be
       0.18137614 -0.23238331 -0.2522557 -0.2504874
0000f0 2a 71 3c 3e 80 a6 93 be 7d 75 57 3e 98 8f 99 be
       0.18402544 -0.28837967 0.21040912 -0.29992366
