concepts_sequential/saved_probes/fork_layer_10_probe.pth (torch, 372800 bytes, 5 tensors)

conv1.weight f4 [32, 256, 3, 3]
0.013935254 -0.009376073 0.017038448 0.037426494 0.021333141 0.013612845 0.043573696 0.027796997
-0.005260099 -0.022744078 -0.012525178 0.0062812236 -0.010859163 0.019033482 -0.002401547 -0.011343113
-0.021645451 -0.013850336 -0.01494401 -0.013312262 -0.012478763 0.0059074014 0.006950651 -0.010198067
0.012724415 0.0153460475 -0.0101983305 0.0028361487 -0.018945746 0.004872202 0.017987998 -0.03974753
-0.038153294 -0.0034082234 -0.038450662 0.009359309 0.015187548 0.006750118 -0.015489735 0.024147931
0.012888012 0.015855081 0.03782747 -0.006337827 -0.005244944 -0.023020796 0.0019943255 0.020391598
0.0010338085 -0.012635334 0.015238909 -0.008092164 0.018712953 0.039211147 0.009803693 -0.0055337474
-0.025491426 -0.032619465 -0.029741248 -0.0040079835 0.0072626905 0.00588422 -0.0077595455 -0.0018228686
-0.010830482 0.013778878 -0.0010621053 -0.0086586345 0.00044449215 -0.018675094 0.017970491 -0.018806066
0.01585239 0.009190705 0.020326061 0.01652737 0.014012408 -0.010572332 0.022890886 0.007319002
-0.016282076 0.015954917 0.0094039235 0.0069946125 0.00035430372 0.023427747 -0.014170748 -0.0035197232
0.024836333 0.007920852 -0.025276162 -0.023478951 -0.02810624 -0.023462769 0.007863499 -0.019197693
0.039533146 0.018412482 0.008001052 -0.0056424174 0.016836764 -0.009647947 -0.007425455 0.007330113
0.009532792 0.004944662 0.012145055 0.0019835369 0.0150646735 0.012250694 -0.0012955507 -0.015152763
0.020713557 -0.0051183216 -0.001260324 0.015278762 -0.014069287 -0.0071620033 -0.0023689172 -0.0019508766
0.01425449 -0.02477075 0.028335301 0.02123226 -0.031797573 0.019934148 0.0013924359 -0.014372861
-9.113671e-06 -0.026275106 -0.01694827 0.022849008 0.0063982364 0.010767241 -0.01282508 -0.0005637971
-0.0044729766 -0.0026250624 -0.012372551 -0.012424 0.026714284 -0.006122052 -0.0051146057 -0.00956077
-0.0065665054 -0.022532046 -0.014307771 0.01594235 -0.0025473111 -0.01801515 0.009826933 -0.009544995
0.0063762222 -0.009543968 0.0060004056 0.018906305 0.015888548 0.02304007 0.026691193 0.0027427953
0.018885769 -0.005736998 0.0063716243 0.01594093 0.0003017596 0.010573695 0.0008524839 0.003809997
0.0003997507 -0.028861135 -0.020741155 0.0056753224 -0.002557637 -0.0063335574 -0.0032845957 -0.0039320807
0.016946435 -0.030239495 -0.005971641 0.017881738 -0.019532807 -0.0073929345 0.026571063 0.014693743
0.0074303336 0.0031867358 -0.0009005408 -0.009529711 0.007784248 -0.005584705 -0.018257456 -0.011823948
-0.0007422319 -0.0008177812 -0.022395432 0.0006133629 -9.641433e-05 -0.012372163 0.03870517 0.00027681352
0.020368695 0.009295588 0.008072685 0.022342982 0.00018213673 0.035422742 0.04408417 -0.00083761406
-0.031424657 0.031595085 -0.013823473 0.014762524 0.0012510179 0.031010132 0.049118258 -0.0062120617
-0.0052133487 -0.0063946666 -0.017599108 0.0007014916 0.025702255 0.020662436 0.02340994 0.015712881
-0.019480592 -0.024009412 0.0010654578 0.011202872 0.01387742 0.013893688 0.003844325 0.022199778
-0.010252501 -0.002069728 -0.0247274 0.0029289103 -0.026259247 -0.0072080265 -0.02904 -0.0018022116
0.0069165337 -0.0016531626 -0.0336123 -0.0038515467 0.019415757 -0.006721096 -0.006913987 -0.008739232
0.008229705 -0.018885009 -0.010222149 -0.0015294232 -0.007101333 0.015426683 0.010943099 0.01745126
00000000: b150 643c 1a9e 19bc 3794 8b3c 864c 193d
00000010: d7c2 ae3c 6908 5f3c 557a 323d 87b6 e33c
00000020: e95c acbb ca51 babc 6736 4dbc b9d2 cd3b
00000030: a1ea 31bc 1bec 9b3c 4663 1dbb 77d8 39bc
00000040: cd51 b1bc 85ec 62bc b9d7 74bc ac1b 5abc
00000050: ba73 4cbc e092 c13b 49c2 e33b cb15 27bc
00000060: 117a 503c fd6d 7b3c e616 27bc aede 393b
00000070: 1c34 9bbc fea6 9f3b 915b 933c 4ece 22bd
00000080: a146 1cbd 805c 5fbb 717e 1dbd ca57 193c
00000090: 31d5 783c 1830 dd3b a8c8 7dbc e2d1 c53c
000000a0: 3e28 533c 84e2 813c faf0 1a3d 8cad cfbb
000000b0: c7dd abbb 1c96 bcbc 3bb3 023b 480c a73c
000000c0: db80 873a 6f04 4fbc 9eac 793c ff94 04bc
000000d0: e84b 993c de9b 203d ab9f 203c 7054 b5bb
000000e0: 65d3 d0bc fd9b 05bd eba3 f3bc 6755 83bb
000000f0: ddfb ed3b 6ad0 c03b c943 febb 52ed eeba
00000100: 5572 31bc cec0 613c 5736 8bba f2dc 0dbc
00000110: ba0a e939 83fc 98bc da36 933c 2e0f 9abc
00000120: dfdc 813c 9c94 163c d782 a63c 6864 873c
00000130: 4d94 653c 9337 2dbc ab85 bb3c 3dd4 ef3b
00000140: fd61 85bc e3b3 823c ea12 1a3c 1033 e53b
00000150: d7c1 b939 8ceb bf3c 6d2c 68bc 28ab 66bb
00000160: 9175 cb3c 76c6 013c f40f cfbc ee56 c0bc
00000170: 0f3f e6bc fe34 c0bc e8d5 003c 7b44 9dbc
00000180: 82ed 213d c6d5 963c d816 033c 07e4 b8bb
00000190: 41ed 893c 6c12 1ebc 3b51 f3bb 7231 f03b
000001a0: 6d2f 1c3c d506 a23b 0efc 463c 3afe 013b
000001b0: d2d1 763c 23b7 483c 78cf a9ba 4b43 78bc
000001c0: 7aaf a93c 98b7 a7bb 7531 a5ba c653 7a3c
000001d0: de82 66bc 3daf eabb d63f 1bbb 8eb4 ffba
000001e0: aa8b 693c 07ec cabc 6f1f e83c 47ef ad3c
000001f0: 2c3e 02bd f04c a33c 6582 b63a 267c 6bbc
00000200: ebe6 18b7 e43e d7bc 19d7 8abc d82d bb3c
00000210: 4ca8 d13b 1569 303c 4920 52bc c8cb 13ba
00000220: 0c92 92bb 3d09 2cbb 3db6 4abc 088e 4bbc
00000230: ead7 da3c 7f9b c8bb 6c98 a7bb c7a4 1cbc
00000240: d72b d7bb 2095 b8bc 246b 6abc 8899 823c
00000250: caf0 26bb 8294 93bc 2501 213c 9c62 1cbc
00000260: a1ef d03b 4e5e 1cbc 0d9f c43b 65e1 9a3c
00000270: b328 823c 87be bc3c 7da7 da3c 78c0 333b
00000280: 54b6 9a3c 6dfd bbbb 0fc9 d03b 8e96 823c
00000290: 7d35 9e39 4b3d 2d3c 3a79 5f3a 25b1 793b
000002a0: a195 d139 306e ecbc 5be9 a9bc 0ef8 b93b
000002b0: 079e 27bb bb89 cfbb 5f42 57bb afd8 80bb
000002c0: 40d3 8a3c d1b8 f7bc c1ad c3bb b97c 923c
000002d0: 4403 a0bc 6e40 f2bb 8fab d93c 06be 703c
000002e0: 287a f33b 8ed8 503b 4512 6cba 8122 1cbc
000002f0: 0113 ff3b e7ff b6bb a990 95bc 3bb9 41bc
00000300: 5792 42ba 5e60 56ba a076 b7bc 16ca 203a
00000310: 0d32 cab8 9db4 4abc 5089 1e3d 4821 9139
00000320: 40dc a63c 864c 183c 4c43 043c a108 b73c
00000330: f5fb 3e39 7017 113d 9a91 343d 5493 5bba
00000340: 24b7 00bd d969 013d d97b 62bc 83de 713c
00000350: 32f9 a33a f608 fe3c 3a30 493d 8d8e cbbb
00000360: bdd4 aabb 5a8a d1bb 012c 90bc 4ee4 373a
00000370: 898d d23c 4544 a93c 34c6 bf3c 4db8 803c
00000380: c395 9fbc 63af c4bc d5a6 8b3a 408c 373c
00000390: 1e5e 633c 5aa2 633c 12f1 7b3b 4fdc b53c
000003a0: 1bfa 27bc 46a4 07bb 1e91 cabc f6f2 3f3b
000003b0: a21d d7bc 4f31 ecbb 4be5 edbc 3038 ecba
000003c0: 17a4 e23b efae d8ba 0dad 09bd 3b6a 7cbb
000003d0: cb0d 9f3c a43c dcbb ba8e e2bb ff2e 0fbc
000003e0: e2d5 063c bcb4 9abc cd7a 27bc ed76 c8ba
000003f0: 4cb2 e8bb 33c0 7c3c af4a 333c f2f5 8e3c

conv1.bias f4 [32]
-0.004096265 -0.0073257918 -0.017391825 0.016425267 -0.012493038 0.013994658 -0.014160431 0.005994708
-0.018875552 0.016123014 -0.0019495921 -0.004058391 0.0181968 0.007258382 0.0069011115 -0.0058573186
0.014228948 -0.011434949 -0.018827016 0.00045956025 -0.009335273 -0.007953115 -0.004430606 -0.0034013805
-0.014403456 -0.0037596454 -0.013975804 -0.00018215216 -0.0005569188 -0.019047149 -0.0021437025 -0.012234704
00000000: f639 86bb 320d f0bb 4d79 8ebc 488e 863c
00000010: 99af 4cbc da49 653c 2701 68bc 416f c43b
00000020: e7a0 9abc 6914 843c 7589 ffba 40fc 84bb
00000030: 7511 953c b9d7 ed3b b822 e23b c0ee bfbb
00000040: 8920 693c a759 3bbc 1d3b 9abc 22f1 f039
00000050: f9f2 18bc c84d 02bc 9e2e 91bb b2e9 5ebb
00000060: 79fc 6bbc 6264 76bb c5fa 64bc 1900 3fb9
00000070: 30fe 11ba c408 9cbc 5c7d 0cbb 1174 48bc

conv2.weight f4 [64, 32, 3, 3]
-0.02157727 0.012285652 -0.06783378 -0.044078935 -0.010192599 -0.030908052 -0.038675223 -0.0236249
-0.065427154 -0.102730446 -0.02042112 -0.012378513 -0.010275872 -0.060536794 -0.06499274 -0.055160515
-0.059976157 -0.019679928 -0.039644703 -0.070291094 -0.05991865 -0.049632713 -0.040146317 -0.07084764
-0.06523132 0.001673857 -0.057787653 -0.082349196 -0.08106942 -0.09349572 -0.10596499 -0.09035821
-0.025155708 -0.03232735 -0.029062698 -0.07057898 0.08900793 0.09650487 0.031448334 0.060330965
0.031029785 0.0076011117 0.034088932 0.06176283 0.10802599 0.12726612 0.118905075 0.046177343
0.10621404 0.077703245 0.08212278 0.065365136 0.11966128 0.1300852 -0.03676245 -0.011910618
-0.07462965 -0.08258199 -0.08324358 -0.042315908 -0.040596742 -0.016351698 -0.07558752 0.02475412
0.016995108 0.10847317 0.04251324 0.0015166231 0.07868458 0.03609699 0.018515872 0.07402734
0.09602968 0.05420671 0.054488767 0.029593237 0.0049219755 0.044725973 0.040260013 0.051363964
0.03494527 -0.060002845 -0.077872045 -0.05523996 -0.07299442 -0.019477677 0.011457197 -0.071424246
-0.0009070525 -0.013132999 0.040149584 0.088028386 0.0857984 0.11091394 0.09892273 0.07605583
0.08423702 0.048679736 0.044835135 0.016288456 0.07763564 0.052351035 0.07717376 0.046025697
0.10874581 0.06394853 0.03371597 0.03335622 -0.021345211 0.010444553 0.002116353 -0.053805113
-0.031775557 0.030770257 -0.05749968 0.02750127 -0.055725697 -0.0056993584 -0.05019826 -0.07424345
-0.017555734 -0.017552746 -0.0029076363 -0.0040411605 -0.07394306 -0.023552347 0.034203302 0.042170946
-0.027232729 0.055911783 0.0701895 0.035637747 0.036175523 0.07733566 -0.02277437 0.023052813
0.054273847 0.08352352 0.07317895 0.07660779 0.061824232 0.07930657 0.03486301 0.09904928
0.01350885 0.015050275 0.021397712 0.029966556 -0.05786657 0.036375202 0.008567926 -0.011573796
0.021214986 0.090798385 0.08608597 0.107024275 0.05644339 0.053891633 0.033644866 0.0506643
0.096126944 0.019248785 0.02746306 0.07341382 0.059117153 0.08279566 0.08254824 0.00023722216
0.09184236 0.007235046 0.047733307 -0.024687886 -0.08349502 -0.07751211 -0.055707548 -0.0458747
-0.07471777 -0.02227835 -0.027038177 -0.080029115 -0.029529635 -0.042072628 -0.07690564 -0.017129483
-0.087290674 -0.070018746 -0.07728426 -0.0062169586 -0.02875383 0.023203803 0.11273107 0.09796104
0.11661325 0.100509614 0.06982951 0.06646588 0.08359564 0.04525673 0.04407642 0.04647479
0.062632516 0.050369285 0.030454582 0.06871393 0.074391164 0.089777194 0.094191015 -0.09107055
-0.06562795 -0.06109875 -0.039125413 -0.017427951 -0.020303788 -0.09854185 -0.018894244 -0.0186483
-0.01972596 -0.116129145 -0.034191377 -0.04611699 -0.07620661 -0.06513581 -0.08404619 -0.06902418
-0.041498806 -0.058513958 -0.051278584 -0.081366174 -0.027409013 -0.09674127 -0.069412544 -0.033784185
-0.010030626 -0.0918456 -0.08033234 -0.00040646017 -0.079485975 -0.052638683 -0.09141843 -0.09380869
-0.027461784 -0.079019114 -0.036607053 0.048022594 0.0028601584 0.066134 0.07659299 0.09406516
0.08377296 0.060357425 0.030905753 0.066607244 0.09653914 0.010451491 0.036616668 0.03356776
00000000: d1c2 b0bc c249 493c 70ec 8abd 1d8c 34bd
00000010: dcfe 26bc e232 fdbc e969 1ebd 0289 c1bc
00000020: acfe 85bd 5764 d2bd 314a a7bc 3fcf 4abc
00000030: 225c 28bc 6ef5 77bd ea1a 85bd feef 61bd
00000040: 8fa9 75bd cd37 a1bc 7c62 22bd c7f4 8fbd
00000050: 426d 75bd ac4b 4bbd 7770 24bd 9118 91bd
00000060: 0098 85bd 5265 db3a bfb2 6cbd b2a6 a8bd
00000070: b907 a6bd af7a bfbd 2c04 d9bd ba0d b9bd
00000080: 5813 cebc af69 04bd e514 eebc b68b 90bd
00000090: ca49 b63d 58a4 c53d f8cf 003d 9a1d 773d
000000a0: 2d32 fe3c bf12 f93b d6a0 0b3d 05fb 7c3d
000000b0: bb3c dd3d 0d52 023e 8184 f33d 7424 3d3d
000000c0: bf86 d93d e122 9f3d fd2f a83d 28de 853d
000000d0: f910 f53d 0e35 053e 3994 16bd c124 43bc
000000e0: 6ed7 98bd bf20 a9bd 9c7b aabd 7253 2dbd
000000f0: c548 26bd fff3 85bc a1cd 9abd 27c9 ca3c
00000100: 5339 8b3c 2e27 de3d 5d22 2e3d 6dc9 c63a
00000110: 6225 a13d 70da 133d 99ae 973c a59b 973d
00000120: 35ab c43d db07 5e3d 9d2f 5f3d 846d f23c
00000130: 8648 a13b 9532 373d afe7 243d 0563 523d
00000140: c522 0f3d 8bc5 75bd 617b 9fbd 4c43 62bd
00000150: 197e 95bd a68f 9fbc f8b6 3b3c e046 92bd
00000160: 43c7 6dba ca2b 57bc e473 243d 3a48 b43d
00000170: 12b7 af3d d926 e33d 0098 ca3d 29c3 9b3d
00000180: 7584 ac3d 6764 473d 0ca5 373d 5e6f 853c
00000190: 6fff 9e3d 0a6e 563d 470d 9e3d 7185 3c3d
000001a0: 20b6 de3d 72f7 823d c219 0a3d 88a0 083d
000001b0: 27dc aebc a11f 2b3c 83b2 0a3b c062 5cbd
000001c0: 1627 02bd e811 fc3c c984 6bbd 584a e13c
000001d0: a140 64bd afc1 babb b19c 4dbd f30c 98bd
000001e0: 0bd1 8fbc c7ca 8fbc 0b8e 3ebb b66b 84bb
000001f0: 766f 97bd daf0 c0bc c318 0c3d 71bb 2c3d
00000200: 2c17 dfbc c103 653d 83bf 8f3d e3f8 113d
00000210: c92c 143d 2962 9e3d 5191 babc 41d9 bc3c
00000220: 414e 5e3d 610e ab3d d8de 953d 8ce4 9c3d
00000230: 683b 7d3d 7c6b a23d 84cc 0e3d 59da ca3d
00000240: 3954 5d3c 6e95 763c 414a af3c 6c7c f53c
00000250: 7f05 6dbd 2afe 143d 7c60 0c3c 05a0 3dbc
00000260: 0dcb ad3c 81f4 b93d d74d b03d 8b2f db3d
00000270: 2f31 673d 79bd 5c3d 33cf 093d 5e85 4f3d
00000280: 34de c43d a1af 9d3c 36fa e03c fc59 963d
00000290: d424 723d c590 a93d 0d0f a93d d7be 7839
000002a0: d917 bc3d f713 ed3b 0084 433d 403e cabc
000002b0: 70ff aabd abbe 9ebd 992d 64bd 1ce7 3bbd
000002c0: a105 99bd 1681 b6bc 2b7f ddbc 4ee6 a3bd
000002d0: 22e8 f1bc 5954 2cbd b480 9dbd 2153 8cbc
000002e0: 74c5 b2bd fd65 8fbd 3647 9ebd a1b7 cbbb
000002f0: 278d ebbc e715 be3c 8cdf e63d cc9f c83d
00000300: edd2 ee3d fcd7 cd3d c602 8f3d 431f 883d
00000310: 3134 ab3d 1f5f 393d 7a89 343d 595c 3e3d
00000320: 7a45 803d 0650 4e3d e37b f93c e4b9 8c3d
00000330: 655a 983d 1bdd b73d 38e7 c03d 3283 babd
00000340: f267 86bd af42 7abd f841 20bd 10c5 8ebc
00000350: 2154 a6bc 4fd0 c9bd 1ac8 9abc 52c4 98bc
00000360: 5698 a1bc 1ed5 edbd 420c 0cbd 2be5 3cbd
00000370: 3612 9cbd ec65 85bd 6920 acbd 8d5c 8dbd
00000380: a7fa 29bd 55ac 6fbd 7e09 52bd 4fa3 a6bd
00000390: de88 e0bc 4920 c6bd 2a28 8ebd 4961 0abd
000003a0: 7f57 24bc 8c19 bcbd 4885 a4bd 291a d5b9
000003b0: 8bc9 a2bd a99b 57bd 9639 bbbd c51e c0bd
000003c0: 89f7 e0bc c6d4 a1bd 47f1 15bd 57b3 443d
000003d0: 7f71 3b3b 4371 873d c9dc 9c3d 3ca5 c03d
000003e0: 2891 ab3d 5939 773d 102e fd3c 6169 883d
000003f0: 50b6 c53d bb3c 2b3c 5cfb 153d 597e 093d

conv2.bias f4 [64]
-0.019332157 -0.020671925 -0.019404462 -0.04026267 -0.033469647 0.00050912396 0.049991477 -0.03363397
0.032354925 0.035263553 0.04933171 0.0055215857 0.006732955 -0.027365927 0.022867138 -0.050472528
-0.003431061 -0.007405806 -0.022007395 -0.010902463 -0.016531182 -0.011936397 0.051673733 -0.0029942263
0.0060405554 0.01677217 0.03586092 0.038871113 0.028888006 0.023738813 0.017285382 0.013408312
0.023588337 0.021580808 -0.019462483 0.0019392505 -0.0056028906 -0.020586602 -0.040612295 -0.0045805112
0.0013346709 0.0040043388 0.020280235 -0.016597457 0.03887593 0.0027743503 -0.0020349722 0.0030245997
-0.018497307 0.024729108 0.0043457136 -0.00032736006 0.0023015856 0.023988746 0.005156602 -0.0045072036
-0.0015407015 0.02021631 -0.016039047 0.027078226 -0.0035371664 -0.03778993 -0.049469266 -0.014988121
00000000: 795e 9ebc 2b58 a9bc 1bf6 9ebc 78ea 24bd
00000010: 7817 09bd bb76 053a ddc3 4c3d c6c3 09bd
00000020: 9986 043d 8470 103d 0c10 4a3d 6bee b43b
00000030: 1fa0 dc3b 822e e0bc dd53 bb3c 48bc 4ebd
00000040: a7db 60bb 67ac f2bb da48 b4bc 3fa0 32bc
00000050: 676c 87bc e190 43bc d6a7 533d c83a 44bb
00000060: daef c53b ca65 893c e6e2 123d 5137 1f3d
00000070: 8aa6 ec3c e677 c23c 139a 8d3c 89ae 5b3c
00000080: 543c c13c 3cca b03c c96f 9fbc 732e fe3a
00000090: 7498 b7bb 3ca5 a8bc 1459 26bd 1d18 96bb
000000a0: 20f0 ae3a d436 833b bc22 a63c 64f7 87bc
000000b0: 5e3c 1f3d e0d1 353b 2b5d 05bb 5d38 463b
000000c0: aa87 97bc b394 ca3c 7d66 8e3b 86a1 abb9
000000d0: 33d6 163b 0c84 c43c b6f8 a83b 2ab1 93bb
000000e0: 5df1 c9ba ad9c a53c 5264 83bc 28d3 dd3c
000000f0: cecf 67bb 9dc9 1abd 49a0 4abd bc90 75bc

linear.weight f4 [1, 64]
-0.2166254 0.25449193 0.2669256 -0.21351224 -0.19009607 -0.19859445 0.25585845 -0.21507476
0.29688784 -0.20533557 -0.1434864 0.25532985 0.2610314 -0.22148505 -0.20518972 -0.2165257
-0.17941898 0.31263724 -0.26725063 0.19817577 -0.21780348 -0.21871926 0.20998175 -0.25380987
-0.18213056 0.22497302 0.20813185 0.26773506 0.21520907 0.24148571 -0.24525592 -0.17680956
-0.18480223 -0.16947195 -0.22857839 -0.20733298 0.27321026 0.22143699 -0.14041525 -0.21990606
0.20527022 0.26510286 0.2605511 -0.25764155 -0.2541558 0.29073566 -0.19276357 0.24088952
0.21852979 -0.16782549 -0.26592636 0.32714385 -0.16341245 0.27060035 0.29785532 0.25376627
0.28404242 0.24529567 -0.24372622 -0.26046914 0.2688543 0.2581256 -0.23205554 -0.249234
00000000: 0dd3 5dbe c44c 823e 79aa 883e f4a2 5abe
00000010: 8ba8 42be 585c 4bbe e1ff 823e 8f3c 5cbe
00000020: af01 983e 7d43 52be 19ee 12be 98ba 823e
00000030: e8a5 853e facc 62be 411d 52be eab8 5dbe
00000040: 9cb9 37be fd11 a03e 13d5 88be 97ee 4a3e
00000050: e007 5fbe f1f7 5fbe 7505 573e 5ef3 81be
00000060: 6f80 3abe 545f 663e 8420 553e 9214 893e
00000070: c45f 5c3e 0848 773e 5e24 7bbe 910d 35be
00000080: cc3c 3dbe 0e8a 2dbe 7410 6abe 194f 54be
00000090: 37e2 8b3e 61c0 623e 04c9 0fbe 0e2f 61be
000000a0: 5b32 523e 90bb 873e f466 853e 98e9 83be
000000b0: b620 82be 4edb 943e d063 45be beab 763e
000000c0: 46c6 5f3e 72da 2bbe 8027 88be 667f a73e
000000d0: 9855 27be 218c 8a3e 7e80 983e a7ed 813e
000000e0: 026e 913e ca2e 7b3e 5e93 79be 365c 85be
000000f0: 45a7 893e 0a29 843e f89f 6dbe 3337 7fbe
