concepts_sequential/saved_probes/hangingPiece_layer_10_probe.pth (torch, 372944 bytes, 5 tensors)

conv1.weight f4 [32, 256, 3, 3]
000000 c0 7a 88 bb c6 c4 27 bc ab 09 62 3c 60 a2 09 bd
       -0.0041650236 -0.010239786 0.01379625 -0.03360212
000010 ee d6 ab bc 55 8e 91 bc 92 ea bb bb 40 68 6e bc
       -0.02097651 -0.017768065 -0.00573475 -0.014551222
000020 25 2d 8a bc 30 76 c9 bb c7 ee 2a bd d6 25 92 bc
       -0.01686723 -0.0061481223 -0.041731622 -0.017840307
000030 bd b2 46 3b cf 84 1c bd 54 d4 83 bc da 15 02 bd
       0.0030318939 -0.038212594 -0.016092457 -0.03175912
000040 58 96 36 bc 77 4c 83 ba a8 79 d9 3b 48 ca 39 3a
       -0.011144243 -0.0010017295 0.006636817 0.0007087332
000050 c1 b0 5c bc b8 fa 12 bc ae ea fb bb a2 90 ac bb
       -0.013469876 -0.008970909 -0.007687888 -0.005266265
000060 b7 27 66 3c 70 d1 18 bc e7 74 d6 3a 0f 6a d6 3a
       0.014047555 -0.009327278 0.0016361744 0.0016358512
000070 49 19 80 3c 2f 4b 2d 3d bd 12 10 3d 82 25 45 3c
       0.015637057 0.04230803 0.03517412 0.012032868
000080 0d 4c 01 3d 31 da f2 3c dd b9 39 bc 93 05 2e 3a
       0.03156667 0.029645057 -0.011335817 0.0006638404
000090 1c bf 8f bc 8e a3 e1 bc dd 8e 9d bc 72 f8 09 bc
       -0.017547183 -0.02754381 -0.019233162 -0.00842105
0000a0 48 1e d5 3c 7a b9 bb bc 6b 92 c6 3c b1 7a 54 3c
       0.026015416 -0.02291559 0.02423974 0.012968705
0000b0 f0 89 9b 3c 2f 00 a8 3c f0 e4 cb 3c d5 7d 84 3b
       0.018986672 0.0205079 0.02488944 0.0040433207
0000c0 50 5e d4 3c bc 21 63 3c c5 25 e2 3b 64 39 e4 3c
       0.025923878 0.013863023 0.006901475 0.027859397
0000d0 43 e6 5a 3d 97 8b d9 3c 82 36 89 bb 0b 84 25 3b
       0.05344225 0.02655582 -0.004187406 0.0025255706
0000e0 df fc 18 ba 7c 25 7b ba ad 3f fb 3a 96 9a dc 38
       -0.00058360206 -0.0009580476 0.0019168757 0.00010519211
0000f0 f5 ed ac 3c fe 49 48 3b 1d 27 04 3c f1 66 05 bd
       0.02110956 0.003056168 0.008065966 -0.032568876
000100 81 99 83 bc f4 28 15 bd 11 30 b6 3b 3d 39 04 3c
       -0.016064407 -0.03641601 0.005559929 0.008070287
000110 35 08 42 bb 8e fd af bc 4e 66 be 3c 93 ec 74 3c
       -0.0029606943 -0.021483209 0.023242142 0.014948982
000120 57 d0 60 bc 48 13 2a 3c 53 e0 4c 3c 36 9f 1a bd
       -0.013721547 0.010380574 0.012504655 -0.03774949
000130 e7 ae 00 bd 3f 9a ba bc 47 88 89 bc ef 4a 9d bc
       -0.0314168 -0.022778628 -0.016788615 -0.01920077
000140 6d 5a 29 bd f0 24 00 3d 43 00 84 3c 0c b1 54 bc
       -0.041346002 0.031285226 0.016113406 -0.012981664
000150 76 43 ed 3c f4 8d ac 3b bf b4 ee bc 99 d0 20 3c
       0.028962832 0.0052659456 -0.02913892 0.009815359
000160 fb 81 a5 bb 4d df 7a ba 48 6c b1 3c 0a 89 f1 bc
       -0.0050508953 -0.00095700176 0.021658078 -0.02948429
000170 ec 30 e7 bc c5 f3 ca 3c c9 65 27 3c f4 17 d3 3b
       -0.02822157 0.024774441 0.010217139 0.0064420644
000180 9f 84 3a bd d2 fd 31 bd 0a f7 9a bc f6 cf 98 bc
       -0.045536634 -0.043454953 -0.018916626 -0.018653851
000190 6a 1e a1 bc c8 35 2c 3c e5 3b 76 bc 54 6b 83 bc
       -0.019667823 0.010510869 -0.015028928 -0.016042389
0001a0 81 b0 1c bd 60 9e d7 bc 65 92 f5 bc fc 86 7b bc
       -0.038254265 -0.026320636 -0.029977033 -0.015352007
0001b0 10 3a ac 3b 51 b8 b0 bb 1a 1f 28 3c 73 22 f0 3c
       0.005255945 -0.005393066 0.010261321 0.029313302
0001c0 a0 f0 af bb 38 e1 1f bc d8 a2 42 3c ea 20 6e bc
       -0.005369261 -0.009758286 0.011879645 -0.0145342145
0001d0 ed a2 6e bc 87 5f 2f 3c aa e7 5c 3c 59 c8 bb 3c
       -0.014565212 0.010703928 0.013482967 0.022922682
0001e0 1a 51 2f 3b e1 04 13 bc ee 65 0c 3d e7 2e 5f bd
       0.002675122 -0.008973331 0.034276895 -0.05448809
0001f0 d9 ef 79 bc 97 49 16 bd 53 3d c7 3c 37 eb d0 3c
       -0.015254938 -0.036691274 0.024321234 0.025502784
000200 23 0b 0c 3d 01 e3 b6 3c 66 58 67 3c 35 0a 9a 3c
       0.03419031 0.02232504 0.014120197 0.018803695
000210 db 18 02 3d 31 11 49 3d 20 d4 1d 3d d4 df 27 bd
       0.031761985 0.04908866 0.038532376 -0.040984944
000220 22 37 07 bd 21 8e 58 bc b3 ed a3 bc 03 af a4 bc
       -0.033011563 -0.01321748 -0.020010805 -0.020102983
000230 a9 fa 95 bc ed 30 c1 3b 07 36 96 3c 2d 8d 1e 3c
       -0.018308 0.005895725 0.01833631 0.009677214
000240 ff a8 3e 3c 9b 4b a9 3c 79 97 b5 3c fc 68 03 3b
       0.0116369715 0.020665934 0.022166954 0.002005159
000250 05 49 48 3c 0b af df 3c 5f 68 35 bb 46 5e 70 3b
       0.01222444 0.027305147 -0.0027680618 0.0036677285
000260 1f 22 1b 3d 09 38 54 3c 68 9b 3e 3b 75 0f 90 bc
       0.037874337 0.012952813 0.0029084329 -0.017585495
000270 13 e2 c4 b9 7b 55 24 bc e2 b0 2b 3a 2d 4d 88 bb
       -0.00037552472 -0.010030146 0.000654949 -0.0041595907
000280 d3 1c c9 bc 2c 32 7b bc 03 78 b6 3c 0c f4 cc 3c
       -0.024549877 -0.015331786 0.022274023 0.025018714
000290 c2 92 4b ba 76 d8 86 3c 45 5a f4 3c e6 9e 3a 3c
       -0.0007765704 0.016460638 0.0298282 0.011390423
0002a0 11 26 86 3c 5d 47 56 ba d3 ba 54 3c 4d 33 0d 3c
       0.016375573 -0.0008174086 0.0129839955 0.008618188
0002b0 47 59 00 bd 8a 1d ae bc d9 26 19 3a 3f 0a ef bb
       -0.03133514 -0.02125432 0.00058422756 -0.0072949226
0002c0 b2 61 ac bb d4 54 04 3d 07 97 4a bd b6 49 35 bd
       -0.0052606696 0.03230746 -0.049460437 -0.04425975
0002d0 83 7e c8 b9 1e b1 97 bc 08 11 34 3c 5d de aa bc
       -0.0003824123 -0.018517073 0.010990389 -0.020857984
0002e0 f8 80 4c bc 38 45 e8 bc e4 ee 0e bd ed 0d a0 bc
       -0.01248192 -0.028353319 -0.034895793 -0.01953789
0002f0 11 d2 3f bd bf 83 f6 bc 39 6d 94 bc ac a1 b0 bc
       -0.046831194 -0.030092118 -0.018118488 -0.021561466
000300 dc 3f 32 bb 69 bf 34 bd 96 9a 8e bd ef f8 ac bc
       -0.0027198708 -0.044127855 -0.06963079 -0.021114795
000310 1e c7 4f bd 9a 0a 3e bd d7 94 4d bb 94 5f 62 bb
       -0.050727002 -0.04639683 -0.0031369233 -0.0034541832
000320 67 05 3f 3d cb a1 70 bc ee c8 7b bc 36 5c 08 3d
       0.04663601 -0.014687012 -0.01536773 0.033291064
000330 57 90 3f bd 5a dc 04 3c 11 6d d1 3c 2b 7a bf bb
       -0.046768513 0.0081091765 0.025564702 -0.005843421
000340 3a 47 0c 3d 02 ab 80 3d 86 b8 78 3c 8f 69 8b 3d
       0.034247614 0.06282617 0.015180713 0.06807243
000350 37 60 1a 3d 99 c1 12 3d a0 b7 92 3d 39 03 86 3d
       0.037689414 0.03582916 0.0716393 0.065435834
000360 4a a1 3e 3b ed 1d 91 bc f2 28 d8 bc 34 6c ff bb
       0.0029087835 -0.017714465 -0.026386712 -0.0077948812
000370 cd 50 07 bc 37 9d a7 bb 7c 14 15 bd f6 46 98 bb
       -0.0082590105 -0.005115177 -0.03639649 -0.004647131
000380 65 7e 27 bd 1a a4 79 3d b3 ed 29 bb 1f 1e 1a 3d
       -0.040892024 0.060947515 -0.0025929033 0.037626382
000390 8a 78 d2 3c 61 e4 d1 bb 46 39 8e 3c ba 9e 99 3c
       0.025692243 -0.0064053987 0.017361294 0.018752445
0003a0 0b b1 de bc 48 3d 84 ba 5d 98 68 bb 5b d3 b8 3c
       -0.02718403 -0.0010089064 -0.0035491206 0.02256172
0003b0 32 0b 9b 3b 65 64 2e bc 72 fe 8a bc 7b 87 ff 3c
       0.004731559 -0.010644053 -0.016967032 0.031192532
0003c0 04 58 a7 bc 08 e1 7a bc d0 2c 84 3c b6 d8 e0 bc
       -0.020427711 -0.015312441 0.01613465 -0.027447086
0003d0 ae c9 96 3c e6 12 7c 3c 63 9f c3 3b 24 86 6e bb
       0.018406715 0.015385365 0.005969928 -0.0036395872
0003e0 71 59 37 3c 25 da 5c bc 0a 73 a4 bc 50 18 72 3c
       0.011190758 -0.013479744 -0.020074386 0.014776304
0003f0 ae 40 fe bb 34 52 44 3a 8f c0 b0 bc 94 15 b1 3c
       -0.0077591753 0.0007489056 -0.021576194 0.021616735

conv1.bias f4 [32]
000000 94 6d 3b 3b 04 0a f7 bb 8a a5 23 3b 5a 7d 7c 3c
       0.002859925 -0.0075390358 0.0024970495 0.0154107455
000010 f2 fb 6b bc e2 5b f9 bb e9 6c 43 3b 94 3c 30 bb
       -0.01440333 -0.0076098302 0.0029819554 -0.0026891576
000020 6c 4f 20 bc 20 93 2c ba a1 89 62 bc ca 07 89 bc
       -0.009784561 -0.00065832026 -0.013826759 -0.016727347
000030 bf 6b 82 3c 9c 4a 89 3c 83 af 84 3c 42 e3 4b bb
       0.015920518 0.01675921 0.016196972 -0.0031110798
000040 a6 59 40 bc ba 33 e8 ba a6 46 8d bb 1a 24 6c 3c
       -0.011740124 -0.0017715611 -0.0043114005 0.014412904
000050 08 77 ac bb 35 c2 a1 bc c6 c3 40 bc 28 e9 3d bc
       -0.005263213 -0.019745925 -0.011765426 -0.011591233
000060 08 10 f2 bb 7b 6a 86 bc ba cc 85 bc d9 15 15 3c
       -0.007387165 -0.016408196 -0.016332973 0.009099447
000070 f5 ab 26 bc 24 77 22 3b 67 e8 a2 bb 27 25 0f bc
       -0.010172834 0.0024790252 -0.004971552 -0.008736885

conv2.weight f4 [64, 32, 3, 3]
000000 d4 7f 21 bd c9 86 e1 bc cb 96 36 3d f3 7e d9 3c
       -0.039428547 -0.02753009 0.0445774 0.026549792
000010 b3 d7 12 3d 18 ed 15 bc f5 cf c0 3c ef c7 18 3d
       0.035850238 -0.009150766 0.023536662 0.037300047
000020 da 84 05 bd 70 6f ae 3c f5 fd 52 ba 7e 1c 05 bd
       -0.0325974 0.021293372 -0.0008048707 -0.032497875
000030 d1 90 dc bc 64 da 2a 3c 66 a9 87 3d d6 d6 2c 3d
       -0.026924523 0.010428045 0.06624107 0.04219707
000040 0b b7 1d 3d 06 66 25 bd 56 4b 6a 3d d1 c7 ef 3c
       0.03850464 -0.0403805 0.057200752 0.029270085
000050 a4 3c 18 3d 63 b1 73 3b 09 8b 8b 3d 19 f9 aa 3d
       0.037167206 0.0037184588 0.06813628 0.08348293
000060 20 c6 95 3d 3b b3 c4 3d 81 09 0a 3d b3 f3 94 bd
       0.0731318 0.09604498 0.03370047 -0.072730444
000070 d6 44 6e bd 82 b8 e4 bc d7 72 46 bc ac 5a c9 3c
       -0.058171116 -0.027920011 -0.012112341 0.024579369
000080 3f 3b 30 bd c6 45 94 bd c3 75 92 bd a1 92 23 3c
       -0.04302525 -0.07239871 -0.071513675 0.0099836895
000090 d5 9b b8 3b 59 0c 1d bd c3 4f 34 3d 58 a2 1a bc
       0.005633811 -0.038341854 0.04402138 -0.00943812
0000a0 ca f3 f6 bc 99 08 00 3d 6b 68 9c 3d 14 65 09 3d
       -0.030145545 0.0312582 0.07637104 0.03354366
0000b0 1a c4 20 3d ee 11 90 3d c9 ef 2a 3d f7 ab bb 3d
       0.039249517 0.0703467 0.041732583 0.09163659
0000c0 84 70 8f 3d 44 2d a0 3d 14 8b 9a 3d d6 c6 6d 3d
       0.070038825 0.07821134 0.07546058 0.058050953
0000d0 b8 ff 0d 3d 2d c5 97 3d cd 28 27 3c d9 49 7e 3d
       0.0346677 0.07410655 0.010202599 0.062082145
0000e0 59 47 d4 3d f4 b8 62 3c 11 c6 ba 3d b0 23 b3 3d
       0.10365171 0.013838042 0.091198094 0.08747041
0000f0 ae 17 e0 3c 43 e3 9e 3d a0 e4 8c 3d 54 95 dd 3d
       0.027355041 0.077581905 0.06879544 0.10819498
000100 22 91 c8 3d c4 e6 8a 3d ea 05 95 3d 3d 8e 19 3d
       0.09793307 0.06782296 0.07276519 0.037489165
000110 17 f2 04 3d 59 e6 6b 3c 46 07 ae 3d 53 92 61 3d
       0.032457437 0.014398181 0.08497481 0.055071186
000120 23 c9 ce bc 7b 54 62 bd ff 7c 3a ba ef b2 3a bd
       -0.025242394 -0.055256348 -0.0007113963 -0.0455808
000130 e9 12 8c bd 50 9c 99 bd ec 90 42 bd 9d a2 85 bc
       -0.06839544 -0.07500517 -0.04750149 -0.016312892
000140 c9 52 cf bc bd 57 a9 bd a1 a9 6a bd b2 4f 54 3c
       -0.02530803 -0.08268688 -0.057290677 0.012958454
000150 d4 b4 bb bd b8 bd b8 3b dd a3 91 bd 8a fa d7 bb
       -0.091653496 0.0056378506 -0.071113326 -0.006591146
000160 a8 5d 85 bd a6 31 9d bd b3 90 69 bb 43 bb 99 bb
       -0.06512004 -0.07675485 -0.0035639226 -0.004691513
000170 14 37 95 3c ba 15 00 3c a2 cb 80 bd 0d e6 05 bc
       0.01821474 0.00781768 -0.0628884 -0.008172524
000180 bb c1 a1 bc a5 73 13 bc 21 d7 9f bd 3d bb b9 3d
       -0.019745698 -0.00899974 -0.078047045 0.09068916
000190 7a d7 e0 3d c3 94 9b 3d b9 78 86 3d 9c fc df 3d
       0.10978599 0.075967334 0.06565995 0.10936853
0001a0 f3 a3 2e 3c 35 eb 05 3d dd 73 72 3d 99 1d be 3d
       0.010659206 0.032695014 0.059192527 0.09282989
0001b0 67 f7 3e 3d 50 b7 42 3d 78 98 e6 3c 38 79 27 3d
       0.04662266 0.0475381 0.028148875 0.040887088
0001c0 50 a4 af bb e3 56 82 3d fe f4 5f 3d 58 69 5d 3d
       -0.0053601637 0.063642286 0.054677002 0.05405554
0001d0 86 fa 7b 3d 57 18 13 3b 12 19 a2 bd ce f3 00 3c
       0.061518215 0.0022444928 -0.07914938 0.007870628
0001e0 c4 d9 dd bc 4a 04 30 bd 62 80 f0 bb 75 05 af bc
       -0.027081378 -0.04297284 -0.007339523 -0.021364907
0001f0 28 08 3c bc 7b c2 15 bb f9 33 be bc 4f 25 a9 bc
       -0.011476554 -0.0022851515 -0.023218142 -0.020647673
000200 b0 94 5a bd ae c9 12 bd 89 a7 5b 3c 7b e6 8c bd
       -0.053364456 -0.035836868 0.013406643 -0.06879898
000210 bd df 5d bd 5c 7c 29 bb 80 08 e0 bc 4f de e3 3d
       -0.05416845 -0.0025861477 -0.027347803 0.111263864
000220 fc 26 e4 3d 71 95 b7 3c 56 95 f9 3d 72 30 10 3d
       0.11140248 0.022410126 0.12186687 0.03520245
000230 d9 c5 93 3d 17 25 ef 3d 2f a7 2a 3d 17 61 45 3d
       0.07215471 0.11676996 0.041663345 0.048188295
000240 b4 17 93 bd 83 73 8f bd 73 94 d2 bd 12 6f 32 bd
       -0.071822554 -0.07004454 -0.10282221 -0.043562956
000250 d5 52 1a bd 16 45 c3 bd cb d0 bb bc 44 00 55 bd
       -0.03767665 -0.095346615 -0.022926709 -0.052002206
000260 f1 49 b4 bd 52 68 9a 3d 08 ee b9 bb 8e 3e 30 3c
       -0.08803166 0.07539429 -0.0056741275 0.010757102
000270 1e df 7e 3c 34 5d b4 3d 38 bf 88 3d 20 f8 e1 bb
       0.015556125 0.088068396 0.06677097 -0.006896034
000280 92 c4 b1 3d cb 31 99 3d 8e 9e 06 bd 7c 8d 1a bd
       0.08680071 0.074802004 -0.032866053 -0.037732586
000290 44 95 a8 bd 82 08 d9 bd 95 38 6d bd 4a c3 e5 bd
       -0.08231595 -0.10597326 -0.05791529 -0.11218889
0002a0 d5 de d7 bd d0 b0 c5 bd c0 88 c5 bd 62 fd a5 bc
       -0.10540549 -0.09652865 -0.096452236 -0.020262424
0002b0 46 26 2b bd 2e b5 23 3b 6e 31 96 bb de 09 80 3c
       -0.041784547 0.0024979818 -0.004583529 0.015629705
0002c0 f2 71 bc 3c 5f f1 76 bd 4a b7 21 bd 03 e8 ba bc
       0.023003552 -0.060288783 -0.03948144 -0.02281571
0002d0 ae 9e 71 3d 63 f0 a1 3d 73 97 b9 3d 22 00 83 bc
       0.05898922 0.07907178 0.0906209 -0.015991274
0002e0 59 de 9e 3d 44 c8 c0 3d 3d 33 d2 3d 6f 66 2e bc
       0.07757253 0.09413198 0.10263679 -0.010644539
0002f0 32 6e be 3d 12 11 19 bd e9 9c 9b bd 4a 9f 8c bd
       0.09298362 -0.037369795 -0.075982876 -0.068663195
000300 58 31 be bd e5 7e a8 bd d8 96 5d bd db aa 43 bd
       -0.09286755 -0.08227328 -0.054098934 -0.047770362
000310 63 d5 80 bd 74 94 b5 bd c7 cc c7 3d ae a8 b3 3b
       -0.062907 -0.08866206 0.09755855 0.0054827547
000320 0f c3 18 3d 09 09 9d 3d b1 00 d1 3d 50 ba 2f 3b
       0.037295397 0.07667739 0.1020521 0.0026813932
000330 3e 54 e6 3c 7e 75 d2 3d 2d c7 88 3c 5d a6 45 bd
       0.028116342 0.10276316 0.016696537 -0.04825436
000340 7b 5b b2 bd dc ba c9 bd 3a 87 82 bc 27 ec 85 bd
       -0.08708855 -0.09850094 -0.015933622 -0.06539183
000350 77 ca c0 bc 81 10 5c bd 07 9b ba bd 57 28 25 bd
       -0.023534043 -0.053726677 -0.091116 -0.040321674
000360 fe 44 bc 3d 4e 01 e3 3d c6 21 d9 3d d1 d8 93 3d
       0.09192847 0.11084233 0.10602145 0.07219089
000370 ea 81 2e 3d 9c 54 bc 3d d8 93 e8 3d 2a 0a cc 3c
       0.042604364 0.091958255 0.11356324 0.02490719
000380 b9 c2 5b 3d 19 79 cf 3c 7d 43 34 3d b5 a0 2b bb
       0.0536525 0.025326299 0.044009674 -0.0026188318
000390 3b 5e f1 3a 7d 15 43 3d 67 0a 19 bd a1 f7 9a bc
       0.0018414924 0.047627915 -0.037363436 -0.018916907
0003a0 8e 1f 51 bc fc 1e 0a 3d 6e 13 88 bb c6 3a 9b 3d
       -0.012763871 0.033720955 -0.004152707 0.075795695
0003b0 e3 4b 64 3d af 22 bc 3d 52 15 43 3c c5 80 9b 3d
       0.055736434 0.09186303 0.011906939 0.0759292
0003c0 53 7a 85 3d 09 85 af 3c a2 c1 8c 3d 6e f6 7f bd
       0.06517472 0.02142574 0.0687287 -0.062490873
0003d0 f3 f3 98 bd 6c 64 b9 bc 41 ad a2 bd 1a 7a d8 bc
       -0.074684046 -0.022630893 -0.07943202 -0.02642541
0003e0 76 3f 79 bd a9 9f e0 bd 96 62 cf bd c5 60 8c bd
       -0.060851537 -0.10967953 -0.10126226 -0.06854395
0003f0 0c a8 db bb ca 37 15 bd 44 cd c6 bd 83 d3 4c bd
       -0.0067033824 -0.036430158 -0.0970712 -0.0500064

conv2.bias f4 [64]
000000 db dd 71 3c 57 5c 1a 3d 9a 7c 0e 3d c1 db d9 3c
       0.014762367 0.03768572 0.034786798 0.026594045
000010 3b 5b 16 bd ac ac 80 bb 1d 81 b2 bb 09 be f3 bc
       -0.036708098 -0.003926834 -0.0054475204 -0.029753702
000020 f6 27 2c bd 53 93 a8 bb e1 2b af bc 15 13 09 bc
       -0.042030297 -0.0051445155 -0.021383228 -0.008366366
000030 67 86 89 3c 5d c2 cf bc 0e 61 f4 3c 42 ca 41 bc
       0.01678772 -0.025361234 0.029831436 -0.011828007
000040 db 03 06 3c 95 b3 35 3b 05 60 c7 bc 75 6c 10 3d
       0.00817963 0.0027725447 -0.024337778 0.035259683
000050 84 65 57 39 d1 e6 65 bc 4d af ec 3b 99 51 78 3c
       0.00020541815 -0.014032082 0.007223046 0.015156173
000060 a3 1d cb bb ce e8 8b bc e6 8a b1 bc 17 a8 12 3c
       -0.0061986013 -0.017078783 -0.021672677 0.008951209
000070 9a ac dd bc 80 2a bd 3c 97 cc a1 bc 59 b2 41 bd
       -0.027059842 0.023091555 -0.019750876 -0.047289226
000080 fa 03 59 bd 05 79 84 bc f1 56 00 bd 08 a9 85 3c
       -0.052982308 -0.016170988 -0.031332914 0.016315952
000090 b6 b5 ec 3c ab c7 a4 bc dd dc 84 bc dd 4d dc bc
       0.02889524 -0.02011474 -0.016218597 -0.026892597
0000a0 fb 3e 20 3d 91 29 04 bd 69 25 63 3d d1 e1 20 bd
       0.039122563 -0.032266203 0.0554556 -0.039277855
0000b0 72 cb 23 bc 2a da 8e 3c 09 7a ed 3c 35 43 fc bc
       -0.009997236 0.017438013 0.028988855 -0.030793766
0000c0 1e 6b fe bc 07 ef 05 bd 0f 2b 34 bc c3 1d 3e 3d
       -0.031056937 -0.032698657 -0.010996594 0.0464151
0000d0 67 2c 78 bd 4a 41 e1 3a c7 36 fa bc 9a 69 f8 bc
       -0.06058922 0.0017185595 -0.030543698 -0.030323792
0000e0 e7 da 6d 3c 9f ab 69 bd 7f 4c a5 bc e8 4f 89 3c
       0.014517522 -0.057048436 -0.020178078 0.016761735
0000f0 3e 7f a0 3c 5d 83 2b 3d 08 c0 86 3c 58 d6 d0 3c
       0.019591924 0.041873325 0.01644899 0.025492832

linear.weight f4 [1, 64]
000000 f6 6b 5a be b4 24 1a be c2 b4 19 be 69 ab 2e be
       -0.21330246 -0.15053064 -0.1501036 -0.17057575
000010 66 06 50 be 56 f9 41 be 9c da 80 3e e0 f5 44 3e
       -0.20314941 -0.1894277 0.25166786 0.19234419
000020 d5 10 0a be 8e 33 4c be 55 43 1d 3e 75 62 77 3e
       -0.13482983 -0.19941542 0.15357716 0.24158652
000030 15 bb 82 3e 1d de 68 be 13 9d 76 be f9 a2 80 3e
       0.25533357 -0.2274098 -0.24083357 0.25124338
000040 53 fa 4f be 22 5d 6a 3e bf 37 4b 3e f9 b8 1f be
       -0.20310335 0.2288709 0.19845484 -0.15597905
000050 63 6c 8a be 76 c5 89 3e 87 be fd bd 07 e9 78 3e
       -0.27035818 0.26908463 -0.12389856 0.24307643
000060 cd 70 83 3e a0 46 63 3e 5e 1a 79 3e bc 3c 49 3e
       0.25671998 0.2219491 0.24326465 0.19652075
000070 41 5a 65 be e1 e2 7b be fb ca 6c 3e b6 4b 77 3e
       -0.2239771 -0.24598266 0.23124306 0.24149975
000080 43 52 6e be 1c 6f 59 be 6f 6a 3c be fb a9 08 3e
       -0.23273568 -0.21233791 -0.18399976 0.13346092
000090 34 d5 75 3e 75 75 18 be 7a 50 2c be 53 07 5b 3e
       0.24007112 -0.14888556 -0.16827574 0.21389513
0000a0 e3 b7 42 be 44 80 81 3e 61 63 43 be df 13 54 3e
       -0.1901546 0.2529317 -0.19080879 0.20710705
0000b0 71 f6 75 3e 8e ea 78 3e 2d 46 b8 3d e7 2c 67 3e
       0.24019791 0.24308226 0.0899776 0.22575723
0000c0 f3 a3 7b 3e 7b fb 63 3e c1 2d 1d be 9a 17 8c 3e
       0.2457426 0.22263901 -0.15349485 0.27361757
0000d0 4d 14 8a 3e ac 4c 7a be 0c 83 64 3e 0a b8 74 3e
       0.26968613 -0.2444331 0.22315615 0.2389833
0000e0 a4 46 75 3e fe d2 83 3e a9 0b 5e 3e f1 f9 72 3e
       0.23952729 0.25746912 0.21684135 0.23728158
0000f0 df d2 1e 3e be 0f 33 be da d8 6d 3e 30 48 53 3e
       0.15510128 -0.17486474 0.23227254 0.20633006
