concepts_sequential/saved_probes/interference_layer_10_probe.pth (torch, 372944 bytes, 5 tensors)

conv1.weight f4 [32, 256, 3, 3]
000000 45 e5 a3 bb 8a b5 0a bc 74 9a 29 bc ee e5 3b 3b
       -0.0050016963 -0.008466134 -0.010351766 0.0028670984
000010 f5 75 21 bd 2c d3 ed ba 11 50 a9 b7 00 fc 75 3c
       -0.039419133 -0.0018144599 -2.0183654e-05 0.015013695
000020 2c 4b 27 3c 82 14 5a bc dc 41 01 3c 66 5d b6 bb
       0.010210793 -0.0133105535 0.007889237 -0.005565333
000030 63 01 7e 3c 52 51 b1 bb 1b 8a 64 3c 60 0b 29 3c
       0.01550326 -0.0054113055 0.013948943 0.010317653
000040 18 6b 0e 3d 78 fc d1 3c 3d 6e b7 bc 89 d8 33 3b
       0.0347701 0.025633082 -0.022391433 0.0027442297
000050 44 19 b6 bb 18 c5 3b bc 98 cf 75 bc fd e9 b9 3c
       -0.005557211 -0.011460565 -0.0150031075 0.022694582
000060 2c c1 df bc 01 42 8f bc 35 d4 87 bb 56 fa 1e 3b
       -0.027313791 -0.017487528 -0.00414517 0.0024258099
000070 ba d2 59 3d 90 bd 6e 3d bb a4 6f 3d cd 28 2e bc
       0.05317948 0.05828625 0.05850671 -0.010629845
000080 dc 33 90 3d 50 95 48 3b 6f a2 d5 bc 60 b9 73 3c
       0.070411414 0.0030606575 -0.026078431 0.01487574
000090 26 5d 23 bc 72 fd 65 3c 0a ed d5 b9 24 72 c8 bc
       -0.009970939 0.014037477 -0.00040803134 -0.024468489
0000a0 84 78 26 bc 05 40 b8 bc d1 b0 e7 bc 2f 38 31 3b
       -0.010160569 -0.022491464 -0.028282555 0.0027041545
0000b0 91 0d f6 bc cb 51 df bb ac dd 25 3d d9 91 23 3c
       -0.030035766 -0.0068151704 0.040494606 0.009983503
0000c0 b6 e6 0e 3d 6d e6 59 3d b8 fb 88 3c d9 f8 52 bc
       0.03488799 0.053198267 0.016721591 -0.012876713
0000d0 65 b3 c0 3c 6f 92 d7 3c fa f6 d0 ba 17 f4 26 3b
       0.023523042 0.026314942 -0.0015942745 0.0025475079
0000e0 c2 83 97 bb 78 3c b3 bc 91 e1 0c 3c b2 1c e2 bc
       -0.004623861 -0.02187942 0.008598701 -0.027601574
0000f0 70 1c 14 bd 09 54 fc bc 9f fe 47 3c 2a 8d 00 bc
       -0.036159933 -0.03080179 0.0122067025 -0.007846156
000100 86 f3 6a 3c d2 24 15 ba 29 c3 99 3c 4e 0f 04 b8
       0.014340287 -0.00056893856 0.018769817 -3.1485506e-05
000110 83 cb 97 bb 35 5b a7 bb 7e ed d3 3c 24 d0 f8 3b
       -0.004632415 -0.0051073083 0.025870081 0.0075931717
000120 c5 54 fb 3c 84 bd f0 bb 12 00 75 bc 7e a1 52 ba
       0.03068007 -0.007346811 -0.01495363 -0.00080349285
000130 dd 65 0b bc b6 8b 8c 3c 11 4c 2f 3c 23 0a 1d 3c
       -0.008508173 0.017156463 0.010699288 0.009584936
000140 a2 08 82 bc 33 2f c6 bc 0d 9b 9a ba 3b f8 79 bc
       -0.015873257 -0.024192428 -0.0011795476 -0.015256937
000150 9c cf 50 3c ec 8d 07 bb 84 97 f6 3c 88 cf 06 bd
       0.01274481 -0.0020683957 0.030101545 -0.03291276
000160 cd 82 72 bc 81 03 08 3b 56 83 b3 3c df 22 0f bc
       -0.014801693 0.0020754042 0.021913212 -0.008736341
000170 df 7f c2 3b 40 ec d2 bb 12 84 2c bd 07 09 12 bd
       0.0059356536 -0.0064368546 -0.04211814 -0.03565314
000180 25 43 15 bb eb 84 c1 bc 8c 0d 9f bc 56 da 3f bc
       -0.0022775617 -0.02362295 -0.01941564 -0.01170977
000190 69 9c b1 bc 75 d4 35 bb 03 50 39 bc f5 8d 67 bc
       -0.021681027 -0.0027745042 -0.01131058 -0.014132966
0001a0 2c f1 5f bc 7b 9b 83 bc 4e 93 fd bc 5e 60 c3 bc
       -0.01366834 -0.01606535 -0.03095403 -0.023849662
0001b0 a6 18 b1 bc 57 f0 45 bc cf a5 0f 3d d1 2e dd 3c
       -0.021618199 -0.012081227 0.035070237 0.026999863
0001c0 08 3e 7e 3c 81 a1 5c 3c be ba 52 3d 76 7b e3 bb
       0.015517719 0.01346624 0.051447622 -0.006942208
0001d0 cf 96 39 3d 61 c9 b9 bc fb 25 56 3a 94 f6 8a 3c
       0.045309838 -0.022679033 0.00081691117 0.01696328
0001e0 3d e8 6c bc f4 27 5d bd 45 b4 c5 3b 95 fa 54 bd
       -0.014459667 -0.05399318 0.0060334527 -0.051996786
0001f0 88 43 85 bd e4 f2 23 bd d0 a8 85 bc 58 b7 d7 bc
       -0.06507021 -0.04002656 -0.016315848 -0.026332542
000200 fc 15 b2 3b 92 a4 75 ba 9d 53 55 3c 6f 6f 02 3c
       0.0054347496 -0.0009370531 0.013020423 0.007961138
000210 0e 23 f5 bc bc 42 fe 3b a3 bb 75 bc 29 b9 77 bc
       -0.029923942 0.00775942 -0.014998349 -0.015119829
000220 f7 93 9b bc 54 a5 6c 3a e1 1f 5a 3b 30 a7 18 3b
       -0.018991454 0.00090273214 0.0033283161 0.002329301
000230 e3 9c 7c bc d0 3d 28 bd e5 dd ac bb 96 4b 64 bd
       -0.015418264 -0.041074574 -0.0052754753 -0.055736147
000240 09 2d 84 3b 39 04 16 3c 5a 9e b9 3c 4a e0 5c 3c
       0.004033689 0.00915628 0.022658516 0.013481209
000250 69 60 6f 3c fa 76 f2 bb eb d0 7f 3b 03 18 78 bb
       0.014610388 -0.007399437 0.0039034437 -0.003785611
000260 29 7c 4c 3c 07 b2 93 bb 7e a6 97 3c 51 7e ab bb
       0.012480774 -0.0045073065 0.018512007 -0.005233564
000270 bd 59 6e 3a 92 94 25 3a ff 49 5a bb 1e 0d 9f bc
       0.00090923515 0.0006316389 -0.0033308265 -0.019415434
000280 af bc 5f 3c f1 a3 f4 3b ec 25 f8 3b 66 db 90 bc
       0.0136558255 0.0074658324 0.00757288 -0.017682742
000290 cc be ed 3b 65 79 b4 3b 55 6b 69 bb 28 91 b9 3c
       0.007255411 0.0055076354 -0.0035616953 0.022652224
0002a0 71 57 ba 3c bf e0 66 3b df b6 3f bb 10 25 58 3b
       0.022746773 0.0035229174 -0.0029253287 0.0032981075
0002b0 25 02 2d 3c 8b 02 1c 3c ca 54 e1 bb 30 db 3a 3b
       0.010559593 0.009522091 -0.0068765627 0.0028511994
0002c0 36 e0 9f 3b 68 71 f9 3b 01 c3 22 3d 1a f3 c4 3b
       0.004879023 0.007612396 0.03973675 0.0060104253
0002d0 a7 7f a9 3b e6 72 51 3c 0b aa 06 3c a8 c3 0e bc
       0.005172688 0.012783742 0.008219252 -0.00871364
0002e0 76 05 46 3c e8 5c 65 3c a2 6a e3 3b 10 80 c1 ba
       0.012086263 0.013999201 0.006940202 -0.0014762897
0002f0 52 02 a5 bb ee f0 a0 bb b5 01 ed bb 95 08 75 ba
       -0.005035677 -0.0049115336 -0.0072328695 -0.0009347287
000300 6c fd c4 3a da 18 a0 3c dc c3 3c bb 2c b8 8f bc
       0.0015029139 0.0195431 -0.0028803265 -0.017543875
000310 2b ec 8d bc d3 a3 91 bc bf 33 73 3c 13 18 e1 3c
       -0.017324528 -0.017778313 0.01484388 0.0274773
000320 42 ab a0 bc 5a 76 35 bc 4b f1 1f 3d 02 21 bc 3c
       -0.019612912 -0.0110755805 0.039048474 0.022964958
000330 17 1f 63 3c 64 06 05 bb dd 26 c6 bc 39 6b 93 bb
       0.013862393 -0.0020297999 -0.024188453 -0.004498866
000340 4b 9d 8c 3c 7d ed f9 3c 99 fd 9d 3c d4 eb 7a 3c
       0.017164847 0.030508751 0.019285964 0.015315015
000350 e9 c7 00 bc cb 24 97 3c 4a 29 12 3d a1 eb bc 3c
       -0.007860162 0.018450161 0.035683908 0.023061575
000360 a1 a3 41 3c 6e 4a 60 bb 08 c8 b5 3c f3 1c cd bb
       0.011818797 -0.003422405 0.022190109 -0.0062595545
000370 f5 c4 42 bc dc 09 94 3c e1 d6 a6 bc fb 01 4a bc
       -0.0118877785 0.018071108 -0.020366134 -0.012329574
000380 f6 c7 a8 bc 4e 5d 0f bb 2b 39 16 3d e4 d4 39 3c
       -0.020603161 -0.0021875682 0.036675613 0.011342261
000390 f0 6c 51 bc 8a 68 67 bb 83 e6 4f bd 98 e7 05 3d
       -0.01278232 -0.0035310113 -0.050756942 0.032691568
0003a0 d6 98 65 3c b6 e6 a3 ba c4 8e 64 3c 39 e5 c9 3b
       0.01401349 -0.001250467 0.013950054 0.0061613587
0003b0 50 cf 39 bb 27 a3 9e bc 02 94 0c bd 59 96 53 3a
       -0.0028352328 -0.019364906 -0.03432084 0.0008071415
0003c0 66 92 20 3c 94 77 21 bc 9d fb 4a 3c dd d9 09 bd
       0.009800529 -0.00985517 0.012389091 -0.033655036
0003d0 a2 0d 9d bc d4 4e 0a 39 87 ab ec bc 19 2f ef 3c
       -0.01917154 0.00013190071 -0.028890384 0.029197263
0003e0 b3 2a 8c bc 75 56 e4 3c 0e 76 5c 3c 63 97 a9 bc
       -0.017110204 0.027873257 0.013455881 -0.02070207
0003f0 52 25 85 bc 60 5e a8 bc 3a 10 3c bc 46 f4 75 bc
       -0.016253147 -0.020552814 -0.011478478 -0.015011853

conv1.bias f4 [32]
000000 cf 25 95 bb c5 32 88 3c ff 9a 83 3b f7 36 a9 bc
       -0.0045516263 0.016625771 0.0040162797 -0.020656092
000010 1a 2e b5 bb 3a b3 98 3c 35 e8 8a bc 99 42 86 ba
       -0.0055291774 0.01864015 -0.016956428 -0.0010243236
000020 1d 49 a1 3c cd 23 2d 3b 6e ea 93 bc 6a 0a 76 3c
       0.019688183 0.0026419044 -0.01805612 0.015017131
000030 c6 e9 a8 39 56 db b9 bc fd ab 4f 3b ad df 99 bc
       0.00032217632 -0.022687595 0.0031688206 -0.018783415
000040 0c 2a 7e 3c ae 35 17 3b ee 2a 37 bc e6 ca ae 3c
       0.015512954 0.0023072767 -0.011179669 0.021336984
000050 e9 7b 08 3c 89 20 b3 3b b4 d7 26 3c ee 1d 49 bc
       0.008330324 0.005466525 0.010183264 -0.012275202
000060 5e 55 73 3c 68 63 b8 bc 33 95 5c 3b 25 1a c1 bc
       0.014851896 -0.022508338 0.0033658266 -0.023572037
000070 20 03 cf bb 90 75 3a bc 97 a4 ce bb d9 60 2d 3a
       -0.006317511 -0.011380568 -0.0063062417 0.00066138577

conv2.weight f4 [64, 32, 3, 3]
000000 3a 7a ad bd 20 ed d3 bc 30 cc 1a bd aa 03 99 3b
       -0.084705785 -0.025869906 -0.037792385 0.0046696262
000010 b8 7a ca bc c3 96 3d 3c a3 77 9f bd 91 bd 80 bd
       -0.02471672 0.011571589 -0.07786491 -0.06286157
000020 a7 09 28 bd e3 eb 4a bb 09 cf fb bc 4d 01 95 3c
       -0.04102483 -0.0030963353 -0.03073837 0.018189097
000030 33 3a 5b bd 23 97 18 3b 06 63 c9 3c 81 0e 1c 3d
       -0.0535223 0.0023283444 0.02458335 0.03809977
000040 c0 d8 7e bc 0a 3c 54 bd fd d1 af 3d 3e 1a 8a 3c
       -0.015554607 -0.05181507 0.08584974 0.016858216
000050 02 eb 44 38 47 51 43 bc f9 df 38 3d dc 38 94 3d
       4.694891e-05 -0.0119212335 0.045135472 0.072374076
000060 9f 15 b4 3d b3 c1 14 ba 64 be 82 3d 92 89 f0 bc
       0.087931864 -0.00056746154 0.063839704 -0.029362474
000070 93 ba 70 bd d7 43 89 ba e0 3f 11 bd 3d e9 96 bd
       -0.05877168 -0.0010472488 -0.035461307 -0.073687054
000080 41 6f 1a bd 9e ab 27 bd 89 3d a5 bd c6 09 73 39
       -0.037703756 -0.04093515 -0.080683775 0.00023177927
000090 0e 29 a5 3d 8f 08 18 3d c4 c8 ca 3c b2 cd 91 bc
       0.08064471 0.037117537 0.024753936 -0.017798278
0000a0 ec e8 6f 3d 72 89 78 3b 43 61 6c 3d fe 66 2f 3d
       0.05857174 0.003792372 0.057709944 0.04282283
0000b0 78 73 d6 3d 4d 20 86 3d bb d2 89 3d 1f ca 92 3d
       0.10471243 0.0654913 0.06729647 0.07167458
0000c0 08 eb db 3d 75 f3 ab 3d c4 6b 8a 3c 09 23 83 3d
       0.10738188 0.08396045 0.01689709 0.06403167
0000d0 fa 2d 63 3c f4 3b d8 3d e4 6d 85 bd 27 56 81 bd
       0.013865942 0.1055831 -0.065151006 -0.063152604
0000e0 33 59 96 bc bf 87 49 bc 05 98 ac bd 91 e2 b9 bd
       -0.01835308 -0.012300431 -0.08427433 -0.09076417
0000f0 be ef 80 bd 96 3c 89 bc 76 6d 99 bb 6b d1 e8 3d
       -0.06295727 -0.016752522 -0.004682238 0.11368068
000100 50 53 03 3d 31 01 be 3d da 94 c1 3d 97 b3 55 3d
       0.032061875 0.09277571 0.09452219 0.052173223
000110 df a0 9d 3d 08 33 ed 3c 86 5e a3 3c 68 e0 4c 3d
       0.07696699 0.028954998 0.019942533 0.050018698
000120 9b 43 b2 3d d2 98 98 3c db 11 1c 3d 31 fd 67 3d
       0.08704301 0.018627558 0.038102966 0.056637947
000130 ee 2e 86 3c 5e 64 db 3d e3 7d ef 3c 7c c1 f9 3d
       0.0163798 0.10712503 0.029234832 0.12195107
000140 83 df 3e 3d fa ff 13 3d 5a 64 21 bc 95 42 9d 3d
       0.046599876 0.03613279 -0.009850586 0.07678715
000150 7d 79 74 bc e0 2a 37 3d 0d d1 cf 3b f5 e9 96 3d
       -0.014921543 0.044718623 0.0063420595 0.073688425
000160 d6 9f 45 3c 9d 51 02 3d b4 c0 f5 3c 10 f9 f7 3b
       0.012062034 0.031816114 0.029999115 0.0075675324
000170 c1 74 9d 3c df c1 94 3d d1 f1 27 3c 2a 96 48 3d
       0.019220712 0.072635405 0.010250525 0.048971333
000180 5d 53 62 bb 30 cc a0 3c 89 b7 8b 3d 10 11 0b bc
       -0.0034534552 0.019628614 0.06822116 -0.008487955
000190 e1 b9 43 bd bd 70 fa 3c 6b bc 4d bc 7b 03 59 bd
       -0.04778469 0.030571336 -0.012557129 -0.052981835
0001a0 84 bd 25 bd 88 e0 ec 3c 15 d3 01 bd 7b 83 e1 3c
       -0.04046394 0.028915659 -0.031695444 0.027528515
0001b0 69 c3 bb 3c ef 7e 8c 3d 47 28 02 3d 58 f5 a2 3d
       0.022920327 0.06860148 0.031776693 0.07956952
0001c0 30 45 c8 bc 0d a5 37 bc af b5 85 3d 1d 36 a6 3b
       -0.024447054 -0.011208785 0.06528794 0.005072369
0001d0 4d 18 6d 3d 3d 2b 31 3d b6 53 91 3d 64 8b 4d 3d
       0.057884503 0.043254126 0.07096045 0.05018176
0001e0 e2 0e 81 3d d8 2c bf 3c 61 9a 39 3d 92 9d bd 3d
       0.06301667 0.023336813 0.045313243 0.0925857
0001f0 ff 5f 4e 3d c8 d3 bd 3a d6 6b d6 3d e9 e9 54 3d
       0.050384518 0.0014482671 0.10469787 0.051980887
000200 cb ec 22 3c 30 24 8b 3d 65 21 d1 3d a5 b8 31 3c
       0.009944151 0.067940116 0.102114476 0.010847245
000210 bf f9 db 3d 1f 61 9f 3d ab e2 de 3c 90 2d ac 3d
       0.10740995 0.07782196 0.027207693 0.08407128
000220 b8 d2 35 3d 35 6a 32 3d 6f 63 7d 3c 3e ab ba 3d
       0.04439041 0.04355832 0.015465601 0.09114693
000230 49 48 5a 3c 46 55 b5 3d 1d a5 a0 3d ac 53 06 3d
       0.013322898 0.08854155 0.07843993 0.03279464
000240 da 3f 19 bd 8f 18 c6 bc 4c 2f 15 bd 10 58 90 bd
       -0.03741441 -0.024181632 -0.03642206 -0.070480466
000250 af a9 79 ba 85 e2 8b bd 7c dd a4 bd b3 72 84 3c
       -0.0009523881 -0.068303145 -0.08050057 0.016167974
000260 57 0f 18 bd 4c fd 45 3c 09 c7 d1 3c ad d2 03 bc
       -0.037124004 0.012084316 0.025607603 -0.0080458345
000270 cd 32 95 3d bf 78 0c 3c 5a d9 ac bc a4 93 04 3d
       0.0728508 0.00857371 -0.021099735 0.032367364
000280 5a b0 a9 3d 72 82 af 3c 65 5e 05 bd 39 9d 9b bc
       0.082855895 0.021424506 -0.032560725 -0.018995868
000290 95 30 37 bd c1 83 5e bd 01 0c bb bd ed fe d7 bd
       -0.044724066 -0.05432487 -0.09133149 -0.1054667
0002a0 52 fa b1 bd a7 0f c8 bd 83 9b 56 bd 4b 45 9e 3d
       -0.08690323 -0.097686104 -0.0523944 0.0772806
0002b0 1c 6e 98 3d 9a 7b df 3d c7 e0 7b 3d 2c b8 26 3d
       0.07442877 0.10912247 0.06149366 0.040702984
0002c0 61 08 1b 3d c9 17 b9 3d f0 70 a6 3c bf 8b 04 3d
       0.037849788 0.0903774 0.020317525 0.032359835
0002d0 90 8d 3a bc d6 44 52 3d 9a f0 95 3d 74 89 9a 3d
       -0.01138629 0.05133518 0.07321282 0.07545748
0002e0 22 e4 6d 3c 76 37 14 3d c6 4e a9 bb cd ca 65 3c
       0.014519723 0.036185704 -0.005166861 0.014025402
0002f0 e2 68 0c 3d 5d cb 69 bd 05 03 a8 bd 5c 5a a9 bc
       0.03427971 -0.057078708 -0.08203701 -0.02067297
000300 d0 27 a8 bd cb 8c 39 3c e7 3d c6 bc 37 03 ed bc
       -0.08210719 0.011325072 -0.02419944 -0.028932197
000310 f9 81 3b bd 13 ab 7a bd 17 df bd 3d ff b4 73 3d
       -0.04577825 -0.061198305 0.09271067 0.059498783
000320 7d e4 a9 3d 24 92 9d 3d 81 15 a1 3d cc 92 89 3d
       0.08295534 0.0769389 0.0786543 0.067174524
000330 bb 41 6a 3d 64 03 78 3d 22 14 27 3d 55 8e 9c bc
       0.05719159 0.06055011 0.040790685 -0.019110838
000340 c3 c4 f3 3c e3 e6 c3 bc 8b eb f3 bc fc a2 91 3c
       0.02975691 -0.023913806 -0.029775402 0.017777912
000350 a4 0a 5c 3c 02 01 1c 3d fb 5f 9d bc e7 08 c8 bc
       0.013430271 0.0380869 -0.019210806 -0.024418307
000360 26 bd c5 3d e3 06 1f bb 1c b1 f1 3c 66 df 24 3d
       0.09655218 -0.002426558 0.029503398 0.04025211
000370 b3 82 7b 3d 47 53 d3 3d 91 8d c4 3c c6 7a dc 3c
       0.06140394 0.10318618 0.023993285 0.026914012
000380 af 8d 99 3c 25 2b 9d 3d 88 86 15 3d 46 8d b5 3c
       0.018744318 0.07674245 0.036505252 0.022162091
000390 91 f0 94 3d f0 1a 93 3d 05 e7 cd b9 74 dc cf 3b
       0.07272447 0.07182872 -0.0003927277 0.0063434187
0003a0 34 35 77 3d be 85 92 3c 32 dd 6b 3d f3 c7 f9 bc
       0.060353473 0.017886039 0.057583995 -0.030490851
0003b0 ed 58 4c 3d f8 54 82 3d d5 fe d4 bc 72 2f 02 bd
       0.049889494 0.06363863 -0.02600042 -0.03178353
0003c0 72 f2 4f 3c 3f ed 03 3d 56 47 8d 3c 7b 42 99 3d
       0.012692081 0.032208677 0.01724593 0.07483383
0003d0 20 87 7d 3d 3c b2 3c 3d 64 20 b8 3d d3 74 11 3d
       0.061896443 0.046068415 0.08990553 0.035511803
0003e0 97 64 81 3d cc 14 b0 3b ed 0b f1 3c 8a 46 ef 3d
       0.06318014 0.005373573 0.029424632 0.11683376
0003f0 9f 77 fb 3c 8a 27 b6 bc f3 49 ac bc 5a 99 63 bd
       0.030696688 -0.02223565 -0.021031355 -0.05556617

conv2.bias f4 [64]
000000 d0 82 83 bd 60 64 79 3c 61 df c8 3c 90 27 2a bc
       -0.06421435 0.015221685 0.024520578 -0.010385409
000010 8b 55 95 bc a2 d3 a4 bb 55 c3 14 bd d6 8a 6b 3d
       -0.018229267 -0.0050301114 -0.036319096 0.05750545
000020 e6 32 42 3d 9a 4e 49 3d c7 19 c5 3c db 7c b4 3b
       0.04741182 0.049147226 0.024060143 0.005508048
000030 b4 57 3d 3c fa 87 37 bd a7 20 4a bc 23 7a f6 bc
       0.011556555 -0.04480741 -0.0123368865 -0.030087536
000040 21 dd d2 bb 56 6d 64 bd 11 3a 81 bc 35 da 39 bd
       -0.006435052 -0.055768333 -0.015774759 -0.045374114
000050 1a 92 69 bc 97 be 00 bd f8 25 31 3c 42 b4 59 3a
       -0.014256025 -0.03143176 0.010812275 0.00083047536
000060 3a 28 56 3d c2 52 66 3b 5b 61 89 bc d2 f8 cd 3c
       0.052284457 0.0035144542 -0.016770056 0.02514306
000070 7f 7a 46 3c 10 64 6d bd 90 13 99 3b 1b d8 21 3d
       0.012114166 -0.057956755 0.0046715215 0.039512735
000080 56 11 cd bc 26 df f9 bc 5e 32 4d 3c 2f 2f 29 3d
       -0.02503268 -0.030501913 0.0125242155 0.041304763
000090 59 7b e3 bc 7a 07 e9 3c 6a 6a 33 bd 65 72 42 3d
       -0.027768778 0.028445948 -0.043802656 0.047472376
0000a0 21 30 5b 3d 8f 63 3a 3d 33 5c 81 bc 3f 81 93 3c
       0.053512696 0.045505103 -0.015791034 0.018005965
0000b0 be 83 28 bd 5c 60 4e bd d4 a6 28 3d 24 77 53 3c
       -0.041141264 -0.050384864 0.041174725 0.012906823
0000c0 57 73 a0 3b 36 65 ed 39 0a d9 80 bc 53 79 09 3c
       0.004896562 0.0004527957 -0.015728492 0.008390742
0000d0 0b 62 7f 3c 98 81 32 3d 2b 90 b9 3c 2c 05 31 bd
       0.01558734 0.04358062 0.022651752 -0.043217823
0000e0 1c 9e 38 bc 23 16 0d bd 7d 82 63 bd eb aa 7d bc
       -0.011268165 -0.03444494 -0.055544365 -0.015482645
0000f0 da b6 d8 bc 72 d3 3b 3d 32 d0 17 3d d2 e4 dc 3c
       -0.026454378 0.045855947 0.037063785 0.026964579

linear.weight f4 [1, 64]
000000 75 a8 4e be 64 2c 53 3e c2 35 5f 3e 96 2a fe bd
       -0.20181449 0.20622402 0.2179785 -0.124104664
000010 4f 9a 85 3e c5 41 1a be 48 d5 3a 3e 6e 55 4b 3e
       0.2609429 -0.15064152 0.18245423 0.19856808
000020 24 cc 36 3e 64 da 85 3e ac 84 65 be 7f d6 63 3e
       0.17851311 0.2614318 -0.22413892 0.22249793
000030 04 2b 00 be a1 f3 53 be 11 20 89 3e 64 0a 8d 3e
       -0.12516409 -0.20698406 0.26782277 0.2754699
000040 90 13 8a 3e c1 a9 ed bd 8d 20 23 3e be 67 82 3e
       0.2696805 -0.116046436 0.15930386 0.25469774
000050 56 4d 34 3e 9d 27 8e 3e fa 40 65 3e 0a 45 0d be
       0.17607626 0.27764598 0.22388068 -0.13795868
000060 24 db 40 3e bd a3 e7 bd 20 80 86 3e fb a5 41 be
       0.18833596 -0.113105275 0.26269627 -0.18910973
000070 25 14 8a 3e 8a 31 13 be 25 0c 85 3e 2f ec fd bd
       0.26968494 -0.14374366 0.25985828 -0.12398564
000080 e6 54 32 3e 90 4d 68 3e 9b ec 58 be 3a ca 57 be
       0.17415199 0.22685838 -0.21184008 -0.21073237
000090 94 78 1b 3e 97 2c 5b be 5e 0d 80 3e eb 2c 3b 3e
       0.15182716 -0.21403728 0.25010198 0.18278854
0000a0 48 16 76 3e c2 77 1a be e2 3f 06 be f0 a7 6c 3e
       0.24031937 -0.15084746 -0.13110307 0.23110938
0000b0 9b 90 8a 3e 33 1b 3c 3e ea a8 e6 bd ff 6d 48 be
       0.2706345 0.1836975 -0.112626866 -0.1957321
0000c0 a4 f8 32 be 6b 3d 45 3e 5e 82 70 3e 12 70 1e 3e
       -0.17477661 0.1926171 0.23487231 0.15472439
0000d0 ce d3 81 3e 13 40 45 3e 7d 60 8a 3e fd 1b 0c be
       0.25356907 0.19262724 0.2702674 -0.13682552
0000e0 b8 28 ed bd 0d 78 59 be 61 40 06 be 05 06 65 be
       -0.11580032 -0.21237202 -0.13110496 -0.22365578
0000f0 7b bd 44 be 90 a1 17 be 77 b9 60 be ce 60 48 be
       -0.19212906 -0.14807725 -0.21945749 -0.19568178
