concepts_sequential/saved_probes/intermezzo_layer_10_probe.pth (torch, 372924 bytes, 5 tensors)

conv1.weight f4 [32, 256, 3, 3]
0	0x3d0adff3	0.03390498
1	0xbb1b1de7	-0.0023668946
2	0x3d137e69	0.036009226
3	0x3c77d608	0.015126713
4	0x3be54ce3	0.006997691
5	0x3baeacf9	0.0053306785
6	0xbc1ed25e	-0.00969371
7	0xbca5d102	-0.020241264
8	0x3b69054e	0.003555614
9	0xbc9659fb	-0.018353453
10	0xbc0e3994	-0.00868072
11	0x3cb78d99	0.022406386
12	0x3bb7299b	0.0055896766
13	0x3c961e54	0.018325008
14	0xbc14d615	-0.009084244
15	0x3b29daa8	0.0025917683
16	0x3ba3f2af	0.0050032954
17	0x3c087dce	0.008330775
18	0xbb6599ad	-0.0035034225
19	0xbc019603	-0.007909301
20	0x3ca902be	0.02063119
21	0x3cb2e211	0.021836312
22	0xbb1d749f	-0.002402581
23	0xbb8b52bf	-0.0042518075
24	0xbbd7a135	-0.0065804967
25	0xbc939ff0	-0.0180206
26	0xbc0c8def	-0.0085787615
27	0x3c9067fd	0.01762771
28	0xbb6aaa3a	-0.003580703
29	0x3b18889b	0.0023274783
30	0x3c32955e	0.01089987
31	0xbbd2157c	-0.0064112525
32	0x3bf524ae	0.007481179
33	0xbc4e370c	-0.012586366
34	0xbbe5acdd	-0.0070091323
35	0xbc612d3a	-0.013743693
36	0xbc4a7aa9	-0.012358346
37	0xbc739dbe	-0.014869152
38	0x3afe4bfb	0.0019401306
39	0xbc669d19	-0.014075541
40	0xbc095fdf	-0.008384674
41	0xbc28b2ae	-0.010296507
42	0x3ca284c5	0.0198387
43	0x3d028bef	0.031871732
44	0x3c4834f1	0.012219653
45	0x3c662f7b	0.014049406
46	0x3be4bca3	0.006980495
47	0xbbf557ac	-0.007487258
48	0x3c760465	0.015015696
49	0xbc3fa50c	-0.011697065
50	0xbc9668b7	-0.018360479
51	0x3c3e5e0d	0.011619103
52	0x3b998d05	0.0046860003
53	0xbc336140	-0.010948479
54	0xbb012b81	-0.0019709768
55	0x3ba057f8	0.004893299
56	0x3ba23215	0.004949818
57	0xbc82d8e0	-0.015972555
58	0x3b2d665c	0.0026458716
59	0x3c90ffff	0.017700193
60	0xbc4f2341	-0.0126426825
61	0xbaafc02d	-0.0013408713
62	0x3d00af33	0.031417083
63	0x3c06784f	0.008207395
64	0xb8b3c294	-8.571628e-05
65	0xbbefff40	-0.0073241293
66	0xb9f2e156	-0.00046325725
67	0xbc83066e	-0.015994277
68	0xb88fe4da	-6.861398e-05
69	0xbc51b8a0	-0.012800366
70	0xbcd7bf1b	-0.026336243
71	0xbcaef961	-0.021359148
72	0xbb00065e	-0.0019535045
73	0x3b55e97d	0.003264039
74	0xbca37cf6	-0.019957047
75	0xba9ade0f	-0.0011815446
76	0x3c25b323	0.01011351
77	0xbbde0709	-0.006775741
78	0x3c5c7286	0.013455039
79	0xbbe65153	-0.0070287376
80	0x3bdd3eeb	0.006751885
81	0x3b804bf1	0.003915303
82	0xbc2dc84f	-0.010606839
83	0x3c339a05	0.010962014
84	0xbca5c0dc	-0.020233564
85	0x3c884fc0	0.01663959
86	0x3c5afd74	0.013366092
87	0x3c7e7860	0.015531629
88	0xbc66dc15	-0.014090558
89	0x3c8553b1	0.016275259
90	0x3aec60cf	0.0018034222
91	0xbc7e2590	-0.015511885
92	0xbb0d8990	-0.0021596886
93	0xbc35128b	-0.011051784
94	0xba5bcbe7	-0.0008384571
95	0xbce9207a	-0.028457869
96	0xbc1fd2ee	-0.009754879
97	0x3c056638	0.008142047
98	0xbd0b3440	-0.033985376
99	0xbc9f090f	-0.0194135
100	0x3b77b7b9	0.0037798716
101	0x3c5a7187	0.013332731
102	0x3c2c2d26	0.010508811
103	0xbc6ea062	-0.014564605
104	0xbc739eed	-0.014869434
105	0xbcb18b72	-0.021672938
106	0xbc7db4ba	-0.015484983
107	0x3c912602	0.017718319
108	0x3caa8ec4	0.02082003
109	0x3b3bbbda	0.0028645904
110	0x3c40bf7f	0.011764406
111	0x3c547f62	0.012969824
112	0x3c1bbf9f	0.009506135
113	0x3beee144	0.0072900373
114	0xbbc4be0c	-0.0060041007
115	0x3ca90f48	0.02063717
116	0x3afeed06	0.0019449301
117	0xbc3d87d7	-0.011568031
118	0xba806360	-0.0009795241
119	0x3c564e17	0.0130801415
120	0x3cc90bf2	0.024541829
121	0x3cb12cfa	0.021627892
122	0xbc23fbef	-0.010008796
123	0x3bbeb018	0.005819332
124	0x3cac92b8	0.021066055
125	0xbc2100a0	-0.009826809
126	0x3bbf8c79	0.005845603
127	0xbc2ee410	-0.0106744915
128	0xbbf28dad	-0.007402143
129	0x3c101d54	0.008796055
130	0xbb2b62b3	-0.0026151359
131	0x3c03795f	0.008024543
132	0xbcc9bdda	-0.024626661
133	0x3bb00839	0.005372074
134	0x3a092c05	0.00052326947
135	0x3c2159be	0.009848056
136	0xbcb2aa5c	-0.02180975
137	0x3b29c2e6	0.0025903522
138	0x3c82e740	0.01597941
139	0xbcbdd8a4	-0.023174591
140	0x3b95bcb0	0.0045696124
141	0x3c2bb5a8	0.010480322
142	0xbcbfbaa2	-0.023404423
143	0xbc2dbe3f	-0.01060444
144	0xbba261f2	-0.0049555236
145	0x3ca0a5a8	0.019610241
146	0xbc45c960	-0.012071937
147	0x3c91f9c6	0.017819297
148	0x3bb0346c	0.005377343
149	0x3ce40869	0.027836042
150	0x3ae961d5	0.0017805645
151	0xb9b97880	-0.0003537573
152	0x3c3aa423	0.011391672
153	0xbc886353	-0.016648924
154	0x3c84a4cc	0.016191863
155	0x3a8ae920	0.0010598041
156	0x3c8af941	0.016964557
157	0x3c00ca27	0.007860697
158	0xb969d7b0	-0.00022300961
159	0x3c8cc6f8	0.01718472
160	0x3b7c7e88	0.0038527567
161	0x3c7f7285	0.015591268
162	0xbbb76936	-0.005597259
163	0x3bfbba3d	0.0076821134
164	0xbc90fa76	-0.017697554
165	0x3ca3b6d4	0.01998464
166	0x3b53b0ae	0.0032301354
167	0xbb0289df	-0.0019918603
168	0xbaa967c2	-0.0012924599
169	0xbc33c34e	-0.010971857
170	0xbb94900a	-0.0045337724
171	0x3c002fc0	0.0078238845
172	0x3c7fe338	0.015618138
173	0xba77decb	-0.0009455501
174	0x3b9d61fd	0.004802941
175	0xb8550122	-5.0784212e-05
176	0xbceeb029	-0.029136734
177	0xbb9a229a	-0.004703832
178	0x3c84795b	0.016171148
179	0xbbf4bc65	-0.0074687474
180	0xbc49f031	-0.0123253325
181	0x3c6c2956	0.014414152
182	0x3c5a4cb0	0.013323948
183	0x3b544088	0.0032387096
184	0xbbe2d3f6	-0.0069222404
185	0xbc7353dc	-0.014851537
186	0xbb4919f8	-0.0030685645
187	0x3b56e9a1	0.0032793062
188	0x3b38660d	0.0028137
189	0xbc826ff1	-0.015922518
190	0xbcac3405	-0.021020899
191	0x3a823d33	0.0009936452
192	0x3c6d9fca	0.014503429
193	0x3c151a3c	0.009100493
194	0x3af3ae77	0.0018591423
195	0x3ad5c2dc	0.0016308683
196	0x3b4d4454	0.0031321244
197	0xbcd3f112	-0.025871787
198	0x3c2aa3cf	0.010415032
199	0xbc813977	-0.015774472
200	0x3c45dfe2	0.012077304
201	0x3c223ede	0.009902684
202	0x3c8021dd	0.015641147
203	0x3b31b502	0.0027115946
204	0x3c87927a	0.016549338
205	0x3c11e860	0.0089055
206	0x3ca92d5e	0.020651516
207	0x3c3d559c	0.011556055
208	0x38ec3a4a	0.00011264214
209	0x3c923c85	0.017851124
210	0x3b864b99	0.0040983674
211	0x3c853b6c	0.016263686
212	0x3d324028	0.043518215
213	0x3bd8a020	0.0066108853
214	0x3c0accf8	0.00847172
215	0x3b0cf30b	0.002150717
216	0x3b217e25	0.0024641838
217	0x3bf78065	0.0075531476
218	0xbcb0bab4	-0.021573402
219	0xbb25011d	-0.0025177666
220	0x3aa7e0e5	0.0012808113
221	0x3c8660bc	0.016403548
222	0x3b182a89	0.0023218712
223	0xbb9ab7a7	-0.0047216
224	0xbc315bbf	-0.010825097
225	0x3c6c8345	0.014435594
226	0xbc58d5ec	-0.013234597
227	0xbcfb8a8f	-0.030705718
228	0x3c26e590	0.010186568
229	0x3b791a31	0.0038009996
230	0x3b979739	0.0046261814
231	0xbbacbdc7	-0.0052716467
232	0x3cface7c	0.030616038
233	0xbc237737	-0.0099771535
234	0xbc7a3fed	-0.01527403
235	0xbc3ee0e5	-0.011650299
236	0xbc95464b	-0.018221995
237	0xbce6f7ce	-0.028194334
238	0xbbd4f744	-0.006499203
239	0xbc4251d5	-0.011860331
240	0xbcba2d83	-0.02272678
241	0x3c5db8ed	0.013532859
242	0x3c8bb68f	0.017054824
243	0xbbb27f83	-0.0054473295
244	0x3c17a150	0.0092547685
245	0xbb69239a	-0.0035574199
246	0x3c76b4e7	0.015057779
247	0xbc0c125b	-0.008549298
248	0xbcec3142	-0.028832082
249	0x3caa8519	0.020815419
250	0x3c922253	0.017838633
251	0xbac06cfa	-0.0014680915
252	0xbccc2f1d	-0.02492481
253	0xbcc1be0f	-0.023650197
254	0xbc9975f4	-0.018733002
255	0x3bfd43ad	0.007729015

conv1.bias f4 [32]
0	0x3c8a911f	0.016914902
1	0x3c09b010	0.008403793
2	0xbc4d9a74	-0.0125490315
3	0x3c2d15ed	0.01056431
4	0x3b6121b0	0.0034352355
5	0x3cb00a34	0.02148924
6	0x3c8abc93	0.016935622
7	0x3a1728f8	0.00057662977
8	0x3c59a1b6	0.013283184
9	0xbc2d5505	-0.010579352
10	0xbc66a285	-0.014076834
11	0xbcafa93c	-0.021443002
12	0x3ba61269	0.0050681126
13	0xbaeee5e3	-0.001822647
14	0x3b5aa2a5	0.0033361104
15	0xbc21b55b	-0.009869899
16	0x3c7fb39c	0.015606787
17	0xbc056aca	-0.008143136
18	0xbc4000bd	-0.011718926
19	0xbc334e10	-0.0109439045
20	0xbb8bc2cb	-0.0042651645
21	0x3c7f4df0	0.015582547
22	0x3c450a61	0.0120264
23	0xbc800410	-0.015626937
24	0xbace64b6	-0.0015746567
25	0x3c975af5	0.018475989
26	0xbcb1f5d0	-0.021723658
27	0x3c5fd523	0.013661656
28	0xbc7f22d5	-0.015572269
29	0x3c7f0a8f	0.015566482
30	0xbb586620	-0.0033019856
31	0xbc3e7755	-0.011625131

conv2.weight f4 [64, 32, 3, 3]
0	0xbaab5994	-0.0013072961
1	0x3a5e517c	0.000848077
2	0x3cf193bc	0.02948939
3	0x3c86fdba	0.016478408
4	0xbd5687df	-0.05237567
5	0x3bf4ce86	0.0074709086
6	0xbbf73366	-0.007543969
7	0x3afaca83	0.001913384
8	0xbd86447a	-0.065560296
9	0x3d850ddf	0.06496786
10	0x3da82b03	0.08211329
11	0x3d3cfb54	0.046138123
12	0x3d282f30	0.041060627
13	0x3dac0e0a	0.08401115
14	0xbca0d770	-0.019633979
15	0x3c0dfc75	0.0086661475
16	0x3d10310b	0.03520302
17	0x3d8952a8	0.067052186
18	0xbb3fb437	-0.0029251704
19	0x3bf4e044	0.0074730236
20	0xbc279d58	-0.010230385
21	0xbb008369	-0.0019609577
22	0xbd34038e	-0.043948703
23	0x3cb04718	0.021518275
24	0x3c03ed05	0.008052115
25	0x3bc1de8c	0.0059164222
26	0x3bbfc6bb	0.005852548
27	0x3cc8a428	0.024492338
28	0xbd56da99	-0.052454565
29	0x3d371d49	0.044705663
30	0x3bd3c663	0.0064628585
31	0xbbc2e9d8	-0.0059482865
32	0x3d00e3ed	0.031467367
33	0x3d019f41	0.031646017
34	0x3d0c1e5c	0.03420864
35	0x3d34f33d	0.044177283
36	0xbcfba0f7	-0.030716402
37	0xbcb34cac	-0.021887146
38	0xbd40c14b	-0.04705934
39	0xbd376848	-0.044777185
40	0x3c2bcda5	0.010486041
41	0xbd939c5e	-0.07207559
42	0xbd59f905	-0.053216
43	0xbb015250	-0.00197329
44	0xbca81d05	-0.02052165
45	0x3c9b13b8	0.018930301
46	0x3cad885c	0.021183185
47	0xbd86a120	-0.06573701
48	0x3cf0fcd0	0.029417425
49	0xbd74c7a2	-0.059760697
50	0xbc94f7a5	-0.018184492
51	0x3ca4c35a	0.020112682
52	0xbd6b2173	-0.057404947
53	0xbd5a6b5d	-0.053325046
54	0xbc8de789	-0.017322319
55	0xbb8eede6	-0.004361856
56	0xbd09c2a3	-0.033632886
57	0x3c7897d4	0.015172917
58	0x3cd166c2	0.025561694
59	0xbd013e03	-0.03155328
60	0x3d4677da	0.048454143
61	0x3c972278	0.018449053
62	0xbc9cb65f	-0.01912993
63	0x3da5fe36	0.081051275
64	0x3a4af4af	0.0007742149
65	0x3c758356	0.014984926
66	0x3c56a653	0.013101178
67	0x3db2c34e	0.08728658
68	0x3d8be714	0.06831184
69	0xbc27c8d2	-0.01024075
70	0x3dad8bf1	0.08473957
71	0x3d90df79	0.07073874
72	0x3d1be7b3	0.038062762
73	0x3d107219	0.035265062
74	0x3c15cf51	0.009143666
75	0xbc452d7d	-0.012034771
76	0x3cd2f7b9	0.025752889
77	0xbc579c59	-0.013159835
78	0x3babc70a	0.005242233
79	0x3c326cf5	0.010890235
80	0x3cb4d3c1	0.022073628
81	0x3d076fd5	0.033065636
82	0x3c07fd4c	0.008300137
83	0x3d66bdaa	0.05633322
84	0x3d4c8831	0.04993457
85	0x3d85e65f	0.065380804
86	0x3d9d676a	0.0768574
87	0x3b1f8ea7	0.0024346502
88	0x3ca31cf8	0.019911274
89	0x3d235273	0.03987355
90	0x3d1ecdca	0.038770474
91	0x3d64bbff	0.05584335
92	0x3d874e34	0.06606713
93	0xbd0d781f	-0.034538385
94	0x3d5e0870	0.054207265
95	0x3d90824a	0.07056101
96	0x3da81908	0.08207899
97	0xbd08ae53	-0.033369374
98	0x3d85e0b9	0.06537003
99	0x3d395ce1	0.04525459
100	0x3b6ecc48	0.003643768
101	0x3cbb173e	0.022838231
102	0xbbf5b6ea	-0.0074986117
103	0x3bfa27c4	0.007634135
104	0x3d29cfe0	0.04145801
105	0x3d86fc20	0.06591058
106	0x3d473a1d	0.048639406
107	0x3cb41dc1	0.021986844
108	0x3dd34329	0.10315544
109	0x3c5cf254	0.01348551
110	0x3d468775	0.048469026
111	0x3db03839	0.086044736
112	0x3de4f96e	0.111803874
113	0x3c98de30	0.018660635
114	0x3d2fe71c	0.042945012
115	0x3deaa981	0.114581116
116	0x3d0bee3f	0.034162756
117	0xbce55f8a	-0.027999658
118	0xbd90c5fe	-0.07069014
119	0xbd935371	-0.071936496
120	0x3b86e6dd	0.0041168765
121	0xbd36f1a4	-0.04466404
122	0xbb94720d	-0.0045301975
123	0xbce1092a	-0.02747019
124	0xbd97ad7c	-0.074061364
125	0xbc52ae88	-0.012858994
126	0x3d8de484	0.069283515
127	0x3db0d641	0.08634616
128	0x3da39e2f	0.079891555
129	0x3d3f3a75	0.04668661
130	0x3c7b0f04	0.015323404
131	0x3d822ee1	0.06356598
132	0x3db91cea	0.09038718
133	0x38b1f5f6	8.4858315e-05
134	0x3cddbbea	0.027067143
135	0xbc06f1db	-0.008236374
136	0x3bea6b3b	0.007153896
137	0xbcfcec78	-0.030874476
138	0xbcb572b5	-0.022149423
139	0x3cbcc590	0.023043424
140	0xbd5190a1	-0.05116332
141	0xbd310d53	-0.043225598
142	0xbd0fc107	-0.035096195
143	0x3cd1901b	0.02558141
144	0xbd37e928	-0.04490009
145	0x3cf91a8f	0.030408172
146	0x3c4d5dd5	0.012534578
147	0x3d596da4	0.053083077
148	0xbd02ab00	-0.03190136
149	0x3d009410	0.031391203
150	0x3cbbdadb	0.022931507
151	0xbcd0bbb7	-0.025480134
152	0x3c981485	0.018564472
153	0x3cc36a82	0.023854498
154	0x3b4fa216	0.0031682304
155	0x3d79466a	0.060858168
156	0x3c45c26e	0.012070281
157	0x3d6500d5	0.055908997
158	0x3cddb4ca	0.027063746
159	0x3b39e950	0.0028367825
160	0x3b3ca170	0.0028782748
161	0x3d257656	0.040396057
162	0xbcc30d00	-0.02380991
163	0xbd426562	-0.047459967
164	0xbdbe4057	-0.092896156
165	0xbd7b3a7a	-0.061335064
166	0x39aa303d	0.00032460867
167	0xbdac67db	-0.08418246
168	0xbdb149da	-0.08656664
169	0xbdaccf72	-0.084380046
170	0xbb331519	-0.0027325808
171	0xbd9e1ee2	-0.07720734
172	0xbd90d807	-0.07072454
173	0x3b2224a7	0.0024741085
174	0xbc296feb	-0.010341625
175	0xbd9d7211	-0.07687772
176	0xbda0fffe	-0.07861327
177	0xbca8e213	-0.020615613
178	0xbd4d060c	-0.050054595
179	0x3bb72ca5	0.005590039
180	0x3d80dc6a	0.06292041
181	0x3d8d8e3e	0.06911896
182	0x3dd71352	0.10501732
183	0x3dab44b8	0.083627164
184	0x3d5a43be	0.05328726
185	0x3da17c03	0.078849815
186	0x3cccd287	0.025002731
187	0x3cd3fbca	0.025876898
188	0x3deb5afd	0.11491964
189	0x3c84a9aa	0.016194183
190	0xbd57421e	-0.05255329
191	0xbd895b3b	-0.06706854
192	0x3b70260f	0.0036643778
193	0xbca15635	-0.019694427
194	0xbd331dd9	-0.043729637
195	0xbbbb9006	-0.005723956
196	0xbcf1ae61	-0.029502096
197	0xbcdd991c	-0.027050547
198	0x3d06237c	0.032748684
199	0x3c8b19d2	0.016980086
200	0x3c60866b	0.013703923
201	0xbd7c27e5	-0.061561484
202	0x3cd215a9	0.025645094
203	0xbbb4c9ab	-0.0055172048
204	0x3c3c80d4	0.011505324
205	0xbd9fe4a5	-0.07807282
206	0xbd9bb640	-0.07603121
207	0x3d19e979	0.037576173
208	0x3d39ace4	0.045330897
209	0x3d3ba3d9	0.045810554
210	0x3b5101bb	0.00318919
211	0x3c8a3d41	0.016874911
212	0x3d452c31	0.048137847
213	0xbc5562d7	-0.013024054
214	0x3c2398c7	0.009985155
215	0x3c5923b1	0.013253138
216	0xbc4b6d66	-0.012416219
217	0xbd3a81b4	-0.04553385
218	0xbc92afe6	-0.01790614
219	0xbda8847b	-0.08228394
220	0xbd9791f2	-0.07400884
221	0xbc89a9f2	-0.016804669
222	0xbd97c5b6	-0.07410757
223	0xbd7396ef	-0.059470113
224	0xbdc2206d	-0.09478841
225	0x3d5c6c8e	0.053814463
226	0x3dad5ea2	0.084653154
227	0x3cfdb7de	0.030971464
228	0x3dc2f259	0.095188804
229	0x3d3f75af	0.04674309
230	0x3d96cefb	0.07363697
231	0x3d7ff4ad	0.0624892
232	0x3d58eb20	0.052958608
233	0x3cad6fd1	0.021171482
234	0x3c144b76	0.009051194
235	0x3bef6bd0	0.0073065534
236	0xba8bc5a8	-0.0010663765
237	0x3d05f721	0.032706384
238	0xb9bffca4	-0.0003661859
239	0x3cbae9c7	0.022816552
240	0x3d95edc0	0.07320738
241	0x3d369482	0.04457522
242	0x3dd76117	0.10516565
243	0x3ce20a30	0.027592748
244	0x3d0a340d	0.033741046
245	0x3de41ed0	0.111386895
246	0x3ca66c88	0.020315424
247	0x3de48a8f	0.111592405
248	0x3c7f7139	0.015590959
249	0x3d4efadb	0.050532203
250	0x3df78bc5	0.12087206
251	0x3d1bf87c	0.03807877
252	0x3d228b85	0.039683837
253	0x3c200fe1	0.009769411
254	0x3c9b5b12	0.018964324
255	0x3d6b1fee	0.057403497

conv2.bias f4 [64]
0	0x3d257ca0	0.040402055
1	0x3ca92ffb	0.020652762
2	0xbd3aff52	-0.04565365
3	0xbd6cc4ad	-0.057804752
4	0x3d39d105	0.045365352
5	0x3d17b09c	0.037033662
6	0xbce313b2	-0.027719352
7	0xbd39dfe1	-0.045379523
8	0xbcb87c77	-0.022520287
9	0xbbd5ab93	-0.0065206974
10	0x3cf43769	0.029811578
11	0x3bc3e53d	0.005978255
12	0xbc127ec1	-0.008941353
13	0x3d05ebbb	0.032695513
14	0xbcd1836d	-0.025575364
15	0x3d16ab9c	0.036784753
16	0xbd3b72a6	-0.045763634
17	0x3c8136d3	0.015773213
18	0x3cfd44d2	0.030916605
19	0x3d722b2a	0.059123196
20	0x3cb99988	0.022656217
21	0x3cdf79fa	0.027279843
22	0x3d396281	0.045259956
23	0x3cd8657a	0.026415575
24	0xbc375ba1	-0.01119128
25	0x3d6e3347	0.05815437
26	0x3d2b5f99	0.041839216
27	0xbd6a797f	-0.057244774
28	0x3d133794	0.035941675
29	0x3d07a8fe	0.033120148
30	0x3d30017a	0.04297016
31	0x3d2c9d40	0.042142153
32	0x3d06d769	0.032920275
33	0x3d1aa56e	0.037755422
34	0x3ab3ea60	0.0013726465
35	0xbc025221	-0.007954151
36	0x3d1ea6f7	0.03873345
37	0x3cce9e9e	0.025222119
38	0xbd560501	-0.052250866
39	0x3c8e4280	0.017365694
40	0x3cce7608	0.025202766
41	0xbc8db571	-0.017298432
42	0x3c7e5db8	0.015525274
43	0x3d1542a2	0.0364405
44	0xbd0617e7	-0.03273764
45	0xbd4f5fa0	-0.050628304
46	0xbd1ff573	-0.039052438
47	0xbb93ecc5	-0.004514309
48	0xbd1ce1c5	-0.038301248
49	0xbd518b54	-0.051158264
50	0xbc9cb296	-0.019128125
51	0x3c37095c	0.011171665
52	0x3c56d9b8	0.013113432
53	0x3d38a7a6	0.045081757
54	0xbd5fcf60	-0.054641128
55	0xbc6ef70e	-0.01458527
56	0xbd042e7b	-0.03227089
57	0xbc9ef044	-0.019401677
58	0xbd16d584	-0.036824718
59	0x3b99d538	0.004694607
60	0x3c3e4739	0.0116136605
61	0x3ca25dd6	0.019820135
62	0xbd49bf8d	-0.049254943
63	0x3ca31d6a	0.019911487

linear.weight f4 [1, 64]
0	0xbe05f7d8	-0.13082826
1	0xbe2701e0	-0.16309309
2	0xbdd19c48	-0.102348864
3	0xbe46a922	-0.19400457
4	0x3db5143e	0.088417515
5	0x3e1e897b	0.15482132
6	0x3e072e6f	0.13201307
7	0xbe127877	-0.14303766
8	0x3dfd8532	0.123789206
9	0xbe0f5da0	-0.14000559
10	0xbe015364	-0.12629467
11	0x3e21fb40	0.158185
12	0x3e34d5ba	0.17659655
13	0x3d9c4dc5	0.07632021
14	0x3dd72fa9	0.10507137
15	0x3e2bf361	0.1679206
16	0xbe4165ab	-0.1888644
17	0xbdde4fe9	-0.108550854
18	0xbe144c97	-0.14482342
19	0x3e079ad7	0.1324266
20	0xbe2170ec	-0.15765733
21	0x3e3e51d9	0.1858591
22	0x3e2169db	0.15763037
23	0xbe20fa29	-0.15720429
24	0xbda569e0	-0.08076835
25	0x3e20095c	0.1562857
26	0xbda58475	-0.08081905
27	0xbe2f62f3	-0.1712759
28	0x3db7a953	0.08967843
29	0xbe34547b	-0.17610352
30	0xbe204bc8	-0.15653908
31	0xbe14367c	-0.14473909
32	0x3e25b6fa	0.16183081
33	0xbdb49af1	-0.08818615
34	0xbe18c728	-0.14919722
35	0x3dd72439	0.10504956
36	0x3dd363f2	0.103217974
37	0xbe2a4980	-0.166296
38	0xbe0f5a62	-0.13999322
39	0x3e3dd484	0.185381
40	0x3e440c27	0.19145261
41	0xbe15b294	-0.14618903
42	0x3dd0c4ab	0.101937614
43	0x3e188b4d	0.14896889
44	0x3e2f1fbb	0.17101948
45	0xbe27ce2e	-0.16387245
46	0xbe0ef7cf	-0.13961719
47	0x3e1c2c94	0.1525138
48	0xbe2eb3f4	-0.17060834
49	0x3e129e56	0.14318213
50	0xbe55dce7	-0.20885049
51	0x3e1a3c5b	0.15062086
52	0xbe490095	-0.19629128
53	0xbda02556	-0.07819621
54	0xbe487197	-0.19574581
55	0xbe0f3b4f	-0.13987468
56	0x3e29e679	0.16591825
57	0xbe2b383e	-0.16720673
58	0xbe18f4b1	-0.14937092
59	0xbdcb124c	-0.09915599
60	0xbdf269ca	-0.11836584
61	0x3e0c370a	0.1369287
62	0xbd95a71b	-0.073072635
63	0x3e413a2b	0.18869846
