concepts_sequential/saved_probes/kingsideAttack_layer_10_probe.pth (torch, 372964 bytes, 5 tensors)

conv1.weight f4 [32, 256, 3, 3]
00000000: a21a 683c f255 843c e029 9abb cecb 183c
00000010: be20 f6bc 366b 563c b96a abbc 19da 12bc
00000020: 906a 053d c5b4 6b3b da1c fb3c bca6 343c
00000030: 8d97 9c3c fa90 43bb 7846 273c e2fe 3ebb
00000040: 03e7 793b 5a1e 24bb 7e46 35bc 80d2 0d3c
00000050: dc56 22bc 9b1a 02bc 0e61 b1ba 4f30 9c3c
00000060: b26e 88bc a71d 413b 9644 1d3b af70 adbc
00000070: cc2e 6d3c a9f5 abba ccac c23a f24b 88ba
00000080: 4cbe b93c dffb 1ebd 8005 da3c 9e11 e63c
00000090: 9d0a ab3b a41c 8c3c 011c 71bc 441b 0c3d
000000a0: c79b 0a3d 71aa 45bc d589 4e3d ed94 223d
000000b0: abcd b4bc 4fac b63a 9a27 c33c e262 51bc
000000c0: b37d 6e3c 7e12 143d e021 38bd fbf3 c03b
000000d0: 84a3 3d3d c515 703c a5f7 9e3c 7fb0 2ebb
000000e0: b3a8 0bbc 8ea8 49bc cda2 873b 6d79 d9bc
000000f0: d482 c2bb 9f93 a0bc 4224 423b b8b2 13bc
00000100: 87b9 f339 4415 47bc 6202 5b3c 387e 78bc
00000110: d04c 89bc cb18 96bc 81b7 b83c 24e4 1e3c
00000120: 7583 e93c 22c5 e4bb 8f58 83bc a5ba 22bb
00000130: de60 d9bb ed82 7a3c 6a36 763c 06af d73c
00000140: 570c dbbb 87a5 15bb 6df4 543c 3408 3fbc
00000150: 602d c73c da54 28bc 22a5 9b3b bb60 53bc
00000160: f34b dcbb 7edc 453b 8fb4 e53b 0fb4 e3bc
00000170: 7ed8 883c 3388 c33c edbd 06bd 86f9 e5bb
00000180: bedb a23c cbc0 13bd 68b2 2b3c 71e7 dcbc
00000190: 34d5 4dbc ef2c d7b9 ef0f 71bc af5f b4bc
000001a0: 366c a6bb aa4d edbc e329 24bc e826 bdbb
000001b0: a713 b2bc 1665 9ebc e81e c83b 4374 bd3a
000001c0: 95e8 6e3c ff72 97bc c947 5fbc 4036 593c
000001d0: 451d da3c 1f0e aeba 8483 a4bc 14e2 623c
000001e0: 4d64 043c de8e 0bbd cf92 15bb 4b8e 0ebc
000001f0: f429 6abd b0ed 3abd 1920 0e3c 9267 eebb
00000200: 2aa7 9b3c 4465 5b3b 60ec a73c 6796 003c
00000210: b775 5bbc 9b5f a03c 9757 97ba bac3 b0bc
00000220: cbdf 8fbc d9f7 adbc 8869 ed3b 5a32 383c
00000230: eade 4b3c 4538 d1bb ed9e 0f3d d6e0 e9bb
00000240: e1da 99b7 1e6d ce3b e464 b53b e067 933c
00000250: 0ea2 e43c 8444 2ebc 4e4c b83c b443 663c
00000260: 6589 723c 45f2 bcbb abb1 bb3c 6ff7 8abc
00000270: f414 273c 1179 56bc ae73 003a 7ccc 6dbc
00000280: c912 e9bb 2a54 643a 7156 8a3b c117 6fbc
00000290: 907f 943c 2632 05bc 20c5 86bc 25a7 9b3c
000002a0: a180 adbb 4fcf d4bc 0feb 67bc a6c0 f0bb
000002b0: 236d 803c 7e03 613c 4092 febc f6ab 79bc
000002c0: cd38 40bb 3b1a 1abc 728d f03c 0048 4e3b
000002d0: 3f17 fb3b 6eac 243c ce68 243c 7b6b acbb
000002e0: b456 a93b 43df 3e3c 5270 1a3c 0e4f 26bc
000002f0: c253 28bc e022 dd3b f1c1 aa3b 7694 6fbb
00000300: 3794 613c 8536 9b3c 301f 71bb 83a7 583b
00000310: 1087 1dba 9677 38bc 3119 643b b1bc d33c
00000320: 9247 89bb c5fc 543c a9a8 103d b298 0c3d
00000330: c420 b23c 78a4 b8ba 2f29 803b 8ed5 e3bc
00000340: cd2f 0b3c cfd1 993c dc3d 1e3c 9a38 263d
00000350: aa8c 9d3c 3e3f feb8 18a7 233d c5f9 d63d
00000360: 58fa c3bb 8980 1abc 170f c6ba b5b3 b5bb
00000370: fb04 913a 89cf b33c 8bc0 8abb 9866 783c
00000380: 03ff cabc 9ed8 04bc 9611 b23c 7d1d 36bc
00000390: 4759 11bd 814a 29bd 7bd2 87bc e725 833b
000003a0: 37d5 42bc 28a3 6c3c 461b 173c 3e52 0b3c
000003b0: 3f44 c3ba 43b0 c4bc 6383 b3bc 478b 7dbc
000003c0: c613 02bc a7cd a2bc 6a7c 1abc 0e8d 01bc
000003d0: a449 d5b9 1d62 0fbd c9c3 acbc 126d b3bb
000003e0: 18db cbbc cadf 6b3c 394b 8ebc b499 00bd
000003f0: a752 96bb 5bd1 af3a 7f99 18bc c7d8 60bc
0.014166506 0.016154263 -0.004704699 0.009325935 -0.03004491 0.0130870845 -0.020924913 -0.008963131
0.03257233 0.0035965901 0.030653406 0.011026081 0.019115234 -0.0029841051 0.010209672 -0.0029143621
0.0038132078 -0.0025042505 -0.01106417 0.008656144 -0.009908404 -0.007940914 -0.0013532953 0.019066004
-0.016654346 0.0029467137 0.002399718 -0.021171896 0.014476489 -0.0013119477 0.0014852523 -0.001039861
0.022673748 -0.03881442 0.02661395 0.028084572 0.005219771 0.0171035 -0.014716149 0.03420569
0.033839967 -0.012064562 0.050424416 0.039692808 -0.022070726 0.001393685 0.023822594 -0.012779923
0.014556336 0.036150448 -0.04495418 0.0058884597 0.04629852 0.014653628 0.019405195 -0.0026655493
-0.008524108 -0.012308253 0.0041392804 -0.026547158 -0.005936006 -0.019601641 0.0029623662 -0.009014778
0.000464868 -0.012151066 0.013367267 -0.015166812 -0.01676026 -0.01832237 0.022548439 0.009697948
0.028505066 -0.006981508 -0.016033439 -0.0024830487 -0.006633862 0.015290004 0.015027622 0.026328575
-0.0066848206 -0.0022834258 0.012997729 -0.011659671 0.024313629 -0.010274136 0.00474991 -0.01290148
-0.006722921 0.0030191238 0.0070100497 -0.02779582 0.016704794 0.023868656 -0.03289597 -0.007018271
0.019880172 -0.036072534 0.010479547 -0.026965829 -0.012563039 -0.00041041474 -0.0147132715 -0.022018282
-0.0050788177 -0.028967697 -0.010019752 -0.0057724603 -0.021737887 -0.01933531 0.0061072 0.0014454204
0.014581819 -0.018487452 -0.013627955 0.013257563 0.026625285 -0.0013279355 -0.020082243 0.013847847
0.008080554 -0.034071796 -0.00228231 -0.0087009175 -0.057168916 -0.045636833 0.008674645 -0.00727553
0.019000608 0.0033477107 0.020498455 0.007848359 -0.013394765 0.019576838 -0.001154649 -0.021577705
-0.017562767 -0.021236347 0.0072452463 0.0112424735 0.012443284 -0.0063848817 0.035063673 -0.0071373982
-1.8340945e-05 0.006299629 0.0055357087 0.017993867 0.027909305 -0.010636453 0.022497322 0.014054228
0.014803265 -0.0057661855 0.022911867 -0.016963689 0.010197867 -0.013090388 0.000490005 -0.014514085
-0.007112835 0.0008710051 0.0042217304 -0.014593066 0.018127233 -0.008129632 -0.016451418 0.0190006
-0.005294875 -0.025977759 -0.014155163 -0.0073471842 0.01567704 0.013733743 -0.031075597 -0.015238753
-0.002933073 -0.009405668 0.029364321 0.003147602 0.0076626833 0.010050876 0.010034753 -0.005261836
0.0051678065 0.011649909 0.009426193 -0.010150684 -0.010273876 0.006748542 0.005211108 -0.0036556995
0.013768247 0.018946895 -0.003679227 0.003305883 -0.00060092006 -0.01125898 0.0034805054 0.025846811
-0.00418944 0.012999718 0.035317097 0.03432531 0.02174414 -0.0014087101 0.0039111595 -0.027811792
0.008495283 0.018776802 0.009658303 0.040581323 0.019232113 -0.000121234436 0.039954275 0.104968585
-0.005980771 -0.009430059 -0.0015110698 -0.0055451044 0.0011064106 0.021949546 -0.0042343787 0.015161179
-0.024779802 -0.008108286 0.021736901 -0.011115429 -0.035485532 -0.041330818 -0.016579857 0.004002321
-0.011891655 0.014443196 0.009222811 0.008503495 -0.0014897658 -0.02400983 -0.021913236 -0.015475101
-0.007939285 -0.019873453 -0.009429077 -0.007907165 -0.00040681392 -0.035005677 -0.021089451 -0.0054756487
-0.024884745 0.014396617 -0.017369853 -0.031396583 -0.0045874896 0.0013413833 -0.00931394 -0.013723559

conv1.bias f4 [32]
00000000: 3ef4 d1bb 5031 553c e7c8 293c 5ce1 b3bc
00000010: 5b0e 6d3a d0bb 813c ca0a a7bc c602 353b
00000020: be0b c13c ad1c c13b f05a 7cbc b41f 163c
00000030: 44c4 c43b d88d a2bc 390b db3a d62d 8dbc
00000040: 6487 553c ca81 0e3c 1214 63bc bec1 bb3c
00000050: b88e 453c 5dd6 8a3b f70f 3e3c 3f62 6cbc
00000060: b036 9b3c 3558 aabc 2b34 9fba 1a52 bfbc
00000070: b582 0fbc 5cb4 82bc 5bbe 17bc 2e45 393b
-0.0064072898 0.013012245 0.01036284 -0.021958046 0.00090429717 0.015836626 -0.020390887 0.0027620061
0.02356517 0.005893311 -0.015402541 0.009162832 0.006004842 -0.019843027 0.0016711719 -0.01723377
0.013032768 0.008697936 -0.013859766 0.022919532 0.012057953 0.00423698 0.011600486 -0.014427721
0.018946975 -0.020794014 -0.0012146285 -0.023354579 -0.00875919 -0.015955143 -0.009261693 0.0028269994

conv2.weight f4 [64, 32, 3, 3]
00000000: e793 b2bd 7703 10bd 2e59 7abd 9524 01bc
00000010: 344b 43bd e239 a1bc 1d09 c8bd ecbf a0bd
00000020: 6c3c 87bd 124b 65bc 42bc 3dbd d9dc 36bc
00000030: cd43 92bd 8d27 6fbc f256 0abc 8511 353c
00000040: 9a50 21bd ce7f aebd 37df d83d 507b 2f3d
00000050: 7f17 1b3d ab4a 0e3b a136 823d 5b2a d93d
00000060: 6674 e93d 2f6c 003d d62e d93d c281 1cbd
00000070: 1cb6 8cbd 7279 b33a 69a3 61bd 243c b2bd
00000080: 61d2 42bd d48c 81bd fdcd abbd 995c 413b
00000090: b65d f03d 2eb6 8d3d c22a 943d 4b7d 493b
000000a0: 9299 9a3d ba21 013d d5d4 b53d efc3 973d
000000b0: f02e 0e3e 3b9a 81bb 0c4f e1bb f328 53bc
000000c0: 8074 083d c6c6 2b3c d228 8fbd 3001 4ebc
000000d0: be81 67bd 4132 e03c aa7b 35bd e03f 6bbd
000000e0: fd73 8bbc b5e7 2c3c ba5a a3bd 0cda c2bd
000000f0: 929f 46bd 8c30 06bc ab93 9d3a a337 be3d
00000100: 489c fbbb 3d57 933d 7aed 9f3d 0173 923c
00000110: b912 6a3d 0b59 133c 0de8 5ebc 9cd2 f43c
00000120: df52 8a3d 54bd 8eba d790 0b3d 2d6d fc3c
00000130: 2478 0fbc ec4a cd3d e393 e43b ba6a e03d
00000140: d08e 403d 1c07 923d 3ae9 9f3b 5d93 d93d
00000150: fd90 af3c 7742 553d 3481 013d 7fed f63d
00000160: a0ba f63c 39dc 803d f035 e23c bc40 b3bb
00000170: 6668 8f3c 1c12 993d 48c8 55ba 7340 503d
00000180: 732b bc3a 8843 563c d3ca 9b3d b95b 4bbd
00000190: f74b aabd 70a4 bbbb bb16 87bd ae7a bdbd
000001a0: 85f7 adbd 769d 05bd fe48 99bd cd96 f1bb
000001b0: 729b 453b 5143 443d c286 6c3c e4bd 833d
000001c0: 421d 36bd e141 cebc 3adf 5d3d 5410 00bc
000001d0: 6901 5c3d 37c8 8d3d 0c27 bd3d 5c2b a33d
000001e0: f9f0 b63d a800 3a3d a744 913d 6375 063e
000001f0: 04cf a03d 5b6b f23c 8cf3 f23c 7ca3 11bd
00000200: b58c c1bd f671 25bc d253 b03c 0175 bcbd
00000210: 7481 e53c b3c4 0bbc 053c 94bd 4750 e33d
00000220: 403d a33d a887 c23d ba90 573d ef26 013e
00000230: a17e 943d 9f0d 0d3e e1c6 053e f4e9 c83d
00000240: 72d6 4ebd 4432 ddbc 849d 1abd 1eef c6bd
00000250: 69fd 7ebc 6c24 a6bd fbfa dbbd 3f67 633c
00000260: c439 15bd 0c68 24bc 35e8 b3ba 7ccb 0abd
00000270: 0454 783d 879f afbb bd5d fabc c029 f53c
00000280: 2738 a03d 6f64 5f3c a938 10bc 7942 08bc
00000290: 9bb0 2fbd 3aec 2ebd f8ee c5bd 8a04 f5bd
000002a0: d269 96bd cc91 bfbd 6a77 4bbd b84f dc3c
000002b0: 8532 e73c 6db5 983d 5163 6d3c 097f a8ba
000002c0: 8bdf 083c 947a 673d 64b4 2bbc ab9c 583c
000002d0: 50f8 aabc e7ca 283d 1ad4 5b3d d275 983d
000002e0: 4d3a 913b 9bdd c93c 3a04 5bbc fc3c a6bb
000002f0: a33b 783c 85a9 29bd d6e9 9dbd eac3 f4bc
00000300: 43bd 9fbd 9ac5 ed3b 2984 26bd 7262 d1bc
00000310: 3d76 28bd 45f2 82bd 61de d43d 67aa 923d
00000320: a426 e03d 41fe ac3d 1aaf ab3d 3fe0 af3d
00000330: 9204 9d3d b387 a83d c4c3 973d 40d0 85bc
00000340: bc9c 1a3d 7a63 c0bc d298 12bd 2b0d b43c
00000350: bd22 673c 66cd ab3c 4346 b9bc 039d dbbc
00000360: b7be e73d bd1d bb3b 0835 413d b675 4e3d
00000370: 700a 763d 67bb f23d fe5e 153d 7909 fd3c
00000380: c4c8 223d e662 913d b5a4 2e3c 30ff e2bc
00000390: 8b7e 463d 9c9f 883c a861 9cbd c3d0 0abd
000003a0: b744 5bbc a7d3 8dbd f8a2 d93c 9f80 81bd
000003b0: 8424 373c b370 883c aa06 94bd f290 a1bd
000003c0: 827b 0abd db0b 3fbc 0e1f cfbc ac02 8dbc
000003d0: 5f91 2bbd 4017 94bd 0b58 2cbb e5fa 89bd
000003e0: aa29 6abd c8ae ccbd ba29 b3bd f654 92bb
000003f0: 9ad6 eb3c 7ebe cbbc 79fc 82bc 42a5 9abd
-0.087196164 -0.035159554 -0.061120205 -0.007882257 -0.04767914 -0.019680921 -0.09767363 -0.07849106
-0.066033214 -0.013994949 -0.046322115 -0.011161053 -0.07141838 -0.014596832 -0.008443581 0.01105154
-0.03938351 -0.085204706 0.1058945 0.04284221 0.037864204 0.0021711986 0.06358076 0.10603782
0.11399154 0.031353172 0.10604636 -0.038209684 -0.06870672 0.001369281 -0.05508748 -0.08702877
-0.047563914 -0.06325689 -0.083888985 0.0029504655 0.11736624 0.06919514 0.07234718 0.0030744846
0.075488225 0.031526305 0.08878485 0.07410418 0.13885093 -0.0039551533 -0.006875878 -0.012888181
0.033314228 0.010484403 -0.06990208 -0.012573525 -0.056520216 0.027367713 -0.04430739 -0.057433963
-0.017023081 0.01055329 -0.07976289 -0.095142454 -0.04849202 -0.008190285 0.0012022158 0.092879556
-0.0076785423 0.07194374 0.07808967 0.017877104 0.05714676 0.0089933975 -0.01360513 0.029885583
0.06754088 -0.0010890164 0.034073677 0.030813778 -0.008756671 0.10024056 0.0069756373 0.109578565
0.047011197 0.07130262 0.0048800977 0.106238104 0.02143144 0.05206534 0.03161736 0.120570175
0.030118287 0.06292004 0.02761361 -0.0054703634 0.017505836 0.07474157 -0.00081551494 0.050842714
0.0014356211 0.013077624 0.07607045 -0.04964802 -0.083152704 -0.0057263896 -0.06596132 -0.09251915
-0.08494476 -0.03262087 -0.07484625 -0.007372713 0.0030152467 0.04791576 0.014436426 0.06432703
-0.044461496 -0.025177898 0.054167964 -0.007816393 0.053712282 0.069229536 0.09235963 0.079672545
0.08932681 0.045410782 0.070931725 0.13130717 0.07851985 0.029592207 0.029657148 -0.0355563
-0.09450666 -0.010097971 0.021524344 -0.09202004 0.02801583 -0.0085307835 -0.0723801 0.11099296
0.07970667 0.094985306 0.052628256 0.12612508 0.07250715 0.13774727 0.13064148 0.09810248
-0.05049748 -0.027001508 -0.037747875 -0.09713577 -0.015563347 -0.08112416 -0.1074123 0.013879596
-0.036432043 -0.010034572 -0.0013725819 -0.033885464 0.060627 -0.0053595933 -0.030562276 0.029927135
0.0782321 0.013634785 -0.008802571 -0.00831663 -0.042893033 -0.042705752 -0.0966472 -0.119637564
-0.073444024 -0.093539804 -0.04967443 0.026893482 0.028222332 0.07456479 0.014489011 -0.0012855242
0.008354078 0.056513384 -0.01048002 0.013220946 -0.020870358 0.041209128 0.053669073 0.074443474
0.004431999 0.024641803 -0.013367707 -0.005073188 0.015150937 -0.041421432 -0.07710616 -0.029878575
-0.07799771 0.007256222 -0.04065338 -0.025559638 -0.041128386 -0.063938655 0.10393978 0.07161408
0.1094487 0.084469326 0.08383007 0.085876934 0.07666887 0.082290076 0.07410386 -0.016334653
0.03774713 -0.023484934 -0.035790272 0.021978935 0.014107403 0.020971965 -0.022616511 -0.026808267
0.11315673 0.005710332 0.047169715 0.050405227 0.060068548 0.118521504 0.036467545 0.030888306
0.039742246 0.070989415 0.010659386 -0.027709574 0.048460525 0.01667767 -0.07635814 -0.033890497
-0.013383082 -0.06925135 0.026566967 -0.06323361 0.01117814 0.016655302 -0.072278336 -0.07888974
-0.033809192 -0.011660541 -0.025283363 -0.017213188 -0.041886684 -0.07230997 -0.0026297595 -0.067373075
-0.05716864 -0.099942744 -0.08748193 -0.0044656945 0.028788853 -0.024871107 -0.015989529 -0.07551052

conv2.bias f4 [64]
00000000: e1a5 62bd 444b c63b 2a1a aa3a 64fd 2bbc
00000010: 7427 e3bc 13c1 83bb 52ad 6cbd f0ac 263d
00000020: ce64 193d 448c 0e3d 92fe 093d f4e7 65bc
00000030: ace8 393c edd7 22bd 3872 ddbc 0b25 60bd
00000040: df5a 92bc 5566 5fbd 4dd8 fabc 7307 65bd
00000050: cf2d ddbc 3d42 4bbd 8997 1dbc 4fa8 b83b
00000060: 2d4a 283d 16e0 f0bb a452 00bd a542 0d3d
00000070: d9dd 58b7 3d5d 4fbd 0e16 92bb 3be2 3b3d
00000080: cdab 26bd 1275 53bd 3555 463c 203a 403d
00000090: 9881 41bd 863a 2b3d f1a2 55bd 6523 1c3d
000000a0: 5e83 103d f8ef 533d 35d0 66bc 5a61 f23a
000000b0: cb41 81bd ba14 74bd ff28 433d b55a 9c3c
000000c0: 4504 ad3c 9c94 cabc 6ac9 e1bc 35f0 7fb9
000000d0: 899d 3f3c 5352 d43c 1211 aa3b a3c3 24bd
000000e0: ad52 84bc df76 f0bc 123e 66bd 1b0d 22bc
000000f0: e05a d3bc c832 503d f9cc 4e3d c735 1d3d
-0.055333976 0.006051453 0.0012977768 -0.010497425 -0.027728774 -0.004020819 -0.05778248 0.04069227
0.03744965 0.034801736 0.033690043 -0.014032353 0.011346977 -0.039756704 -0.027032003 -0.054722827
-0.017865596 -0.05454095 -0.030620718 -0.055915307 -0.026999382 -0.049623717 -0.009618648 0.0056352983
0.041086365 -0.007350932 -0.031328812 0.034487385 -1.2926256e-05 -0.05062603 -0.0044581955 0.045870047
-0.040691186 -0.05162532 0.012105276 0.046930432 -0.04724273 0.04180386 -0.052157346 0.038119692
0.03528153 0.051742524 -0.014087726 0.0018492148 -0.06311377 -0.05959008 0.04764652 0.019086221
0.0211202 -0.024729066 -0.027561862 -0.00024408179 0.011695274 0.025918161 0.005190023 -0.040225636
-0.016152704 -0.029353557 -0.05621154 -0.00989082 -0.025800169 0.05082968 0.050488446 0.038381364

linear.weight f4 [1, 64]
00000000: 06fd 91be 8fa0 213e 276f 083e 3b6c 37be
00000010: 0dcb 413e ec33 61be a93e f73d d005 093e
00000020: fcad ca3d ed52 433e c48e 94be e1bb 2c3e
00000030: 90bb 2abe 3ac2 87be 33eb 413e feb5 513e
00000040: ef6a 4a3e 2fb6 2cbe 71b9 ab3d 4a09 4d3e
00000050: e7c3 d23d e759 593e 8239 143e 153b 44be
00000060: 19c4 f63d a974 97bd 00a4 463e 6f75 84be
00000070: cbfd 4a3e 5a2b 43be dafe 423e 970c 2dbe
00000080: dd29 ad3d c470 1f3e 1196 86be f374 8ebe
00000090: 2e5f 903d 3d02 95be 54ee 3a3e e6dd df3d
000000a0: f272 223e 7e90 55be 22d2 36be 1012 263e
000000b0: 2e47 523e 4754 e63d 78e2 37be 4a3e 83be
000000c0: 53da 76be 9949 e93d fcea 293e 5a74 bd3d
000000d0: f781 533e 1c54 ec3d 8e24 5a3e e2ec 43be
000000e0: 3635 15be ecc9 91be ffbc 39be 492d 99be
000000f0: 61b0 f8bd e5e6 4bbe dced 92be c6b5 85be
-0.28513354 0.15783904 0.13323651 -0.1791238 0.18925114 -0.21992463 0.12072498 0.13381124
0.09896466 0.19074602 -0.29015172 0.16868545 -0.16673112 -0.2651537 0.18937378 0.20479581
0.19767354 -0.16866373 0.083849795 0.20023075 0.10291272 0.21225701 0.14475062 -0.19163163
0.120491214 -0.07395298 0.19398499 -0.25870845 0.19823377 -0.19059506 0.1904253 -0.16899334
0.084552504 0.1557036 -0.26286367 -0.278236 0.07049404 -0.2910327 0.18254977 0.10930996
0.1586416 -0.208559 -0.17853597 0.16217828 0.20534965 0.112465434 -0.17957485 -0.2563346
-0.24106722 0.11390991 0.16593546 0.09250708 0.20655046 0.1153948 0.21303007 -0.19133332
-0.1457108 -0.28474367 -0.18138503 -0.29917362 -0.121430166 -0.19912298 -0.28697097 -0.26115245
