concepts_sequential/saved_probes/mate_layer_10_probe.pth (torch, 372800 bytes, 5 tensors)

conv1.weight f4 [32, 256, 3, 3]
0	0x3d12344f	0.035694417
1	0x3d4d856c	0.05017607
2	0x39e2b5be	0.00043241488
3	0x3cae45b5	0.021273473
4	0x3c323df7	0.010879031
5	0xbbc9292d	-0.0061389417
6	0x3ab212c5	0.0013585916
7	0x3d21841a	0.039432622
8	0x3ce8a9f8	0.02840136
9	0xbc6f4992	-0.014604943
10	0x39e027d0	0.00042754272
11	0xbca0d685	-0.01963354
12	0x3c019172	0.007908212
13	0xbcc091f0	-0.023507088
14	0xbd026057	-0.031830158
15	0xbc1d3631	-0.00959544
16	0xbbd4e93b	-0.00649753
17	0xbccab2ae	-0.024743404
18	0xbca2b867	-0.01986332
19	0xbb9b3e14	-0.004737625
20	0xbcb2f78f	-0.02184656
21	0x3bc58e00	0.0060288906
22	0x3b3516d7	0.0027632022
23	0xba997f57	-0.0011710924
24	0xbc054757	-0.0081346845
25	0xbc8a9f79	-0.016921746
26	0xbca1aa02	-0.019734386
27	0x3d293ba6	0.04131665
28	0x3cddb41c	0.027063422
29	0x3d2a667e	0.04160165
30	0xbced8069	-0.028991895
31	0xbd38e6e4	-0.04514207
32	0xbd0484e7	-0.032353308
33	0xbc411ffa	-0.011787409
34	0xbd1d3452	-0.038379975
35	0xbc92bea2	-0.017913166
36	0xbc363636	-0.011121323
37	0xbbab0fbd	-0.005220382
38	0x3b25d1f5	0.0025302146
39	0xbd2852eb	-0.0410947
40	0xbce386d2	-0.027774248
41	0xbd2225ba	-0.03958676
42	0xbd2a9a95	-0.041651327
43	0xbd1cc8e4	-0.03827752
44	0xbcb19bb6	-0.021680694
45	0xbcc1f62d	-0.023676956
46	0x3c4e6e64	0.012599561
47	0xbcadaa2b	-0.021199306
48	0x3d1ac6c8	0.03778723
49	0x3d44180b	0.04787449
50	0x3c833439	0.016016113
51	0xbb73d0bd	-0.0037203275
52	0x3d529766	0.051413916
53	0x3d9294ae	0.07157265
54	0xbb657f9e	-0.0035018693
55	0xbb9a83df	-0.0047154273
56	0xbc1f76e8	-0.009732939
57	0xbc6a47da	-0.014299357
58	0xbbc697db	-0.006060583
59	0xbd236348	-0.039889604
60	0xbc3f8695	-0.011689802
61	0xbd3d076c	-0.046149656
62	0xbd26e431	-0.040744964
63	0xbc1cff8b	-0.009582411
64	0xbb43e816	-0.0029892973
65	0x3bbeb576	0.0058199717
66	0x3c94edb9	0.018179761
67	0xbc29a329	-0.010353842
68	0xbac45c2a	-0.001498108
69	0xbc94ae96	-0.018149655
70	0x3c4488a8	0.011995472
71	0x3c26c5e7	0.0101790195
72	0x3d3a549a	0.04549084
73	0xbc43e2af	-0.011955901
74	0xbcc209b0	-0.02368626
75	0xbca23011	-0.01979831
76	0xbc9ea96a	-0.019367892
77	0xbc3c3173	-0.011486399
78	0xbc8b2917	-0.016987367
79	0xbca45dfd	-0.020064348
80	0xbd4bb6b5	-0.04973479
81	0xbccd7af8	-0.02508305
82	0xbc1807cf	-0.009279205
83	0xbc440ad6	-0.011965474
84	0xbc49761f	-0.012296229
85	0xbc713df6	-0.014724245
86	0x3cb941e4	0.022614427
87	0xbc3b37b2	-0.011426853
88	0x3b6f575d	0.0036520578
89	0x3d039f19	0.03213415
90	0x3cd5b8f8	0.026089177
91	0xbc6cbe95	-0.014449735
92	0x3ba46c6d	0.005017808
93	0xba62b350	-0.00086479355
94	0xbd117dd5	-0.035520393
95	0xbd67b58e	-0.05656963
96	0x3d058ec7	0.032606866
97	0xbc04da16	-0.008108636
98	0xbc450a1c	-0.012026336
99	0xbcf0cc9b	-0.029394438
100	0xbc063454	-0.008191187
101	0x3b825d08	0.0039783753
102	0xbbd4180c	-0.006472593
103	0xbd07d22e	-0.033159427
104	0xbbaf50e3	-0.0053502186
105	0xbcfefbe4	-0.03112597
106	0xbca1fa4a	-0.019772667
107	0xb9f36fcf	-0.00046431876
108	0xbd0c174a	-0.034201898
109	0xbd5c6923	-0.053811204
110	0x3b30867c	0.0026935628
111	0xbd19b346	-0.037524484
112	0xbcdb66e0	-0.026782453
113	0xbce8f4cd	-0.028437043
114	0xbd51f95f	-0.05126321
115	0xbc910706	-0.017703544
116	0x3ca974e1	0.020685615
117	0x3bf3afc1	0.007436723
118	0x3c813a70	0.015774935
119	0x3cfa1280	0.0305264
120	0x3c4e5090	0.01259245
121	0x3d07bbe6	0.03313818
122	0x3d066b5f	0.03281724
123	0xbd81fa4e	-0.0634657
124	0xbcacbf21	-0.021087231
125	0xbd97313c	-0.073824376
126	0xbc064994	-0.008196253
127	0x3b9079e8	0.0044090636
128	0x3cc91880	0.024547815
129	0xbba1ef91	-0.0049418886
130	0x3caa420b	0.020783445
131	0x3bd37d1f	0.0064541246
132	0xbc942a9f	-0.01808673
133	0x3d3724ad	0.04471271
134	0x3cb29811	0.021801027
135	0x3c41e785	0.011834984
136	0xbc2cb0bf	-0.010540186
137	0xba8c9244	-0.0010724743
138	0x3af4ecbe	0.0018686277
139	0x3c0c4b9d	0.0085629495
140	0x3cd3b2d7	0.025842113
141	0xbd59f3df	-0.05321109
142	0xbcb96ca5	-0.022634814
143	0xbd48614b	-0.04892091
144	0xbc6bdd08	-0.01439596
145	0xbae60371	-0.0017548633
146	0x3c20b6e3	0.009809229
147	0x3c21173d	0.009832201
148	0x3cec28a5	0.028827975
149	0xbc7ad18a	-0.015308747
150	0x3d00192d	0.03127401
151	0x3cbf4aed	0.023351157
152	0x3c8dea27	0.017323567
153	0xbc916e66	-0.017752837
154	0x3ca5111f	0.020149766
155	0xbba7bc6c	-0.005118897
156	0x3b43426e	0.0029794234
157	0x3c91a9fc	0.01778125
158	0x3bc5bc13	0.006034383
159	0xbce193d5	-0.027536312
160	0x3ca03385	0.019555816
161	0x3ba85a3e	0.005137711
162	0xbb7e4ed1	-0.0038804302
163	0xbcbe8c45	-0.023260245
164	0xbb93dbe2	-0.004512296
165	0xbbe0b73d	-0.006857781
166	0xbca710d6	-0.02039377
167	0xbc1b7ecd	-0.009490681
168	0xbb183ec2	-0.0023230766
169	0xbce4e671	-0.027941914
170	0xbd0ab360	-0.03386247
171	0x3b9d9ef7	0.00481021
172	0xb9de33e0	-0.0004238179
173	0x3be08698	0.0068519823
174	0xbce64f98	-0.028114125
175	0xbccc341c	-0.024927191
176	0x3c2a0a6b	0.01037846
177	0xbbac879f	-0.0052651907
178	0xbbdec2ba	-0.0067981156
179	0x3bea268e	0.0071457094
180	0x3a7677db	0.0009402015
181	0x3c088d56	0.008334478
182	0xb9949448	-0.00028339238
183	0xbc560f5d	-0.013065186
184	0xb8826f2c	-6.2195904e-05
185	0xbb8d9e02	-0.0043218145
186	0xbb03528e	-0.002003822
187	0xbca8991f	-0.020580826
188	0xbcd81d21	-0.026381077
189	0x3ba31428	0.004976768
190	0xbb959863	-0.004565285
191	0xbbbae743	-0.005703838
192	0xbb462539	-0.0030234589
193	0x3bafde56	0.0053670807
194	0xbcfe2a9b	-0.031026175
195	0xbc827314	-0.015924014
196	0xbbf0897a	-0.0073406072
197	0xbc401892	-0.011724608
198	0x3d39c7ac	0.045356438
199	0x3d1e0a11	0.03858382
200	0x3bcba1b8	0.0062143467
201	0xbbe4fb0e	-0.006987936
202	0x3c998087	0.018738044
203	0x3d5fbdaa	0.054624237
204	0xbcf0a763	-0.029376691
205	0x3ba8b87f	0.005148947
206	0x3d477c5e	0.04870259
207	0xbc643ab1	-0.013930009
208	0x3d4e2757	0.050330486
209	0x3d36e33f	0.044650313
210	0x3d339e9f	0.043852445
211	0x3af8df2b	0.0018987408
212	0x3c341c61	0.010993094
213	0xbcbbc975	-0.02292321
214	0xbc8f7d0d	-0.017515684
215	0x3c828db0	0.015936702
216	0x3cc0a82c	0.02351769
217	0x3d4eca12	0.050485678
218	0x3d545c74	0.051845983
219	0xbc6ca870	-0.0144444555
220	0x3c9a8570	0.018862456
221	0x3d8ca3c5	0.06867174
222	0xbd09bab5	-0.033625323
223	0xbcd6d5f5	-0.02622507
224	0xbc25d547	-0.01012165
225	0xb9ad8482	-0.00033095857
226	0x3c5e0e02	0.013553144
227	0x39dde25a	0.0004232105
228	0xbd336a2c	-0.043802425
229	0xbd76f33b	-0.060290556
230	0xbd509958	-0.05092749
231	0xbb4fb6b4	-0.0031694593
232	0xbcc53800	-0.024074554
233	0xbc997fec	-0.018737756
234	0xbbd40bf2	-0.0064711506
235	0xbbad2e5e	-0.0052850684
236	0xbbaa954d	-0.0052057863
237	0xbbbd97a6	-0.0057859
238	0xbd00421d	-0.03131305
239	0xbce3b969	-0.027798371
240	0x3d3c29a1	0.045938138
241	0x3d11c7d1	0.03559095
242	0x3c9cfd61	0.01916379
243	0x3c118eb3	0.00888412
244	0xbc797321	-0.015225203
245	0xbd35a119	-0.044343088
246	0xbb9ab0c3	-0.0047207787
247	0x3c5ed431	0.013600395
248	0xbbd21a16	-0.006411801
249	0xbcb9764e	-0.02263942
250	0xbcd839bc	-0.026394717
251	0xbc710259	-0.014710032
252	0xbcccebf2	-0.025014851
253	0xbcd22023	-0.02565009
254	0xbcb8c866	-0.022556495
255	0xbd1657e7	-0.036704924

conv1.bias f4 [32]
0	0xbc0b0129	-0.008484163
1	0x3c31ec74	0.0108595975
2	0x3b7349e5	0.0037122902
3	0xbcc7c5ba	-0.024386276
4	0xb95f5607	-0.00021298985
5	0x3c9ed6d8	0.019389555
6	0xbcbf5c1c	-0.02335935
7	0x3bc38752	0.005967059
8	0x3cbf2e65	0.023337552
9	0x3c6c6967	0.014429427
10	0xbcacd9c1	-0.021099927
11	0x3c29947b	0.010350342
12	0x3bf9bd63	0.0076214536
13	0xbc6c930c	-0.014439356
14	0x3a0ad077	0.0005295346
15	0xbc49c966	-0.012316084
16	0x3c5862c6	0.013207143
17	0x3c39af21	0.011333258
18	0xbbb8b02c	-0.0056362357
19	0x3cd30530	0.02575931
20	0x3c991728	0.0186878
21	0x3b1e4167	0.002414787
22	0x3c6669e5	0.014063333
23	0xbcad12ab	-0.021127066
24	0x3ca38de6	0.019965123
25	0xbcc41007	-0.023933424
26	0xbb0a386f	-0.0021090766
27	0xbcc419ca	-0.023938078
28	0xbc27e4ed	-0.010247451
29	0xbbcb7cfb	-0.006209967
30	0xbc37b1b8	-0.011211805
31	0x3b835c5c	0.004008813

conv2.weight f4 [64, 32, 3, 3]
0	0xbe143041	-0.14471532
1	0xbdbf30ef	-0.09335505
2	0xbde2d61c	-0.11075994
3	0xbd7e8a82	-0.06214381
4	0xbdcdb77c	-0.100447625
5	0xbd82303c	-0.06356856
6	0xbe134b1b	-0.14384119
7	0xbe03423b	-0.12818234
8	0xbde37553	-0.11106362
9	0xbbd468df	-0.006482228
10	0xbd1ef13c	-0.038804278
11	0x3c7e024b	0.015503476
12	0xbd8d23ac	-0.068915695
13	0xbc40073a	-0.011720473
14	0x3c523c28	0.012831725
15	0x3cd637cb	0.026149651
16	0xbcfa93e6	-0.030588102
17	0xbd8b3efe	-0.06799124
18	0x3d805c14	0.062675625
19	0x39eca6cc	0.000451377
20	0xbcab0fd8	-0.020881578
21	0xbd391d98	-0.04519424
22	0x3cca33de	0.024682935
23	0x3d463f36	0.048400126
24	0x3d4f39bf	0.05059218
25	0xbcd5541a	-0.02604108
26	0x3d0f0e61	0.034925822
27	0xbb863aae	-0.0040963506
28	0xbd184cff	-0.037182804
29	0x3d03e400	0.03219986
30	0xbca27740	-0.019832253
31	0xbd7d7059	-0.06187472
32	0xbca3097e	-0.019901987
33	0xbce2d3e5	-0.02768893
34	0xbd8e06a7	-0.069348626
35	0x3c74dcfc	0.014945265
36	0x3d6e125f	0.05812299
37	0x3c42f9f5	0.011900415
38	0xbacb47a2	-0.0015509019
39	0xbd45449b	-0.04816113
40	0x3cff1e01	0.031142237
41	0xbcd361e8	-0.025803521
42	0x3ce3ebd5	0.027822414
43	0x3c56bf56	0.0131071415
44	0x3d956cf7	0.07296174
45	0x3cd39eef	0.025832621
46	0x3ce17120	0.027519763
47	0x3cee3c23	0.02908141
48	0x3d94c33d	0.07263801
49	0x3d43675b	0.04770599
50	0xbcdd3f74	-0.027007796
51	0x3cc7a0a4	0.024368592
52	0xbcd81912	-0.026379142
53	0x3d816ce1	0.06319595
54	0xbd113d2c	-0.03545873
55	0xbd3aabb4	-0.045573905
56	0x3c0c1a22	0.008551152
57	0x3cae002f	0.021240322
58	0xbd901216	-0.070346996
59	0xbd9b0d43	-0.07570889
60	0xbcc559f7	-0.02409075
61	0x3c3bfe15	0.011474152
62	0x3cc9cb0e	0.024632957
63	0x3d9509c3	0.072772525
64	0xbc129021	-0.008945496
65	0x3d731685	0.05934765
66	0x3d5d4a7d	0.054026116
67	0x3c6d92d8	0.014500342
68	0x3d37a71c	0.044837102
69	0xbcd20234	-0.025635816
70	0xbcea8e9a	-0.02863245
71	0x3c1a3870	0.00941287
72	0x3d2aa4d1	0.041661087
73	0xbcb9896a	-0.022648532
74	0x3b950650	0.0045478716
75	0x3bf13245	0.007360729
76	0xbce99e2b	-0.028517803
77	0x3d9496d3	0.0725533
78	0xbcdcabe5	-0.026937434
79	0x3d9b02bb	0.0756888
80	0x3bc8994f	0.0061217914
81	0x3d1d3f2e	0.03839033
82	0xbc1ef9ab	-0.00970308
83	0x3d9d2927	0.07673865
84	0xbc41ad9f	-0.01182118
85	0x3d3cc1ac	0.046083137
86	0x3bf63f2d	0.0075148554
87	0x3d9f1c0d	0.07769022
88	0x3c7c559d	0.015401271
89	0x3d0f6629	0.035009537
90	0x3c8a9cc9	0.016920464
91	0xbbe8808c	-0.007095402
92	0x3bbaa0f7	0.005695458
93	0x3d7e5618	0.062093824
94	0xbb000062	-0.0019531478
95	0x3d0f2747	0.034949567
96	0xbc9351ff	-0.017983435
97	0x3bfaf18e	0.00765819
98	0x3d5440be	0.051819555
99	0xbbde350d	-0.0067812265
100	0xbd4089f3	-0.04700656
101	0x3d354482	0.044254787
102	0xbca23fd5	-0.019805828
103	0xbd718407	-0.0589638
104	0xbd19eef3	-0.037581395
105	0x3cd71d5b	0.026259115
106	0xbd0842a4	-0.03326668
107	0x3cfec5e1	0.031100215
108	0x3c03f1a6	0.008053219
109	0x3d67a8cb	0.056557458
110	0x3c94e758	0.01817672
111	0x3d8e9792	0.069625035
112	0xbd190515	-0.037358362
113	0xbcbd675f	-0.02312058
114	0x3d66b682	0.056326397
115	0xbb44af3a	-0.003001167
116	0x3d4f544a	0.050617494
117	0x3caad916	0.020855468
118	0x3d32105a	0.043472625
119	0x3ca36b55	0.01994864
120	0x3d2fe3b1	0.042941753
121	0xbb589418	-0.0033047255
122	0x3c54d62a	0.012990514
123	0x3d97e1d4	0.0741612
124	0x3ccf944d	0.02533927
125	0xbce710db	-0.02820628
126	0x3d4d99c8	0.050195485
127	0xbc0a93b1	-0.008458064
128	0xbd7b2a7d	-0.061319817
129	0x3c20d1c3	0.009815636
130	0x3d2c35fb	0.042043667
131	0xbd80273c	-0.06257483
132	0x3d30c0aa	0.04315249
133	0x3c118b93	0.008883375
134	0xbd542091	-0.05178887
135	0x3dddd2ee	0.10831247
136	0x3d903788	0.07041842
137	0x3d991128	0.074739754
138	0x3d288b76	0.041148625
139	0x3df08b1d	0.11745284
140	0x3d2a82f5	0.041628797
141	0x3deaceef	0.11465251
142	0x3ddd3ce2	0.10802628
143	0x3d871278	0.065953195
144	0xbd9b5868	-0.075852215
145	0xbd788ea5	-0.06068291
146	0xbda49eda	-0.08038111
147	0xbddf3517	-0.10898798
148	0xbd2a1449	-0.04152325
149	0xbde41e8b	-0.11138638
150	0xbe0136a4	-0.126185
151	0xbc864c27	-0.016393734
152	0xbd99621d	-0.07489417
153	0xbc8ad41d	-0.016946847
154	0x3b7c6e35	0.0038517837
155	0xbcf43609	-0.029810922
156	0x3d5303d4	0.051517323
157	0xbc17217e	-0.009224294
158	0xbd1d1413	-0.038349222
159	0x3c01ba05	0.007917886
160	0x3d82944b	0.06375941
161	0xba2a6d9c	-0.00065013184
162	0x3dbba8ea	0.09163077
163	0x3dd71202	0.105014816
164	0x3dd209a1	0.10255743
165	0x3d5f417a	0.054505803
166	0x3c16a717	0.009195111
167	0x3ca5222f	0.020157902
168	0x3d297975	0.041375596
169	0x3cb66efa	0.022269715
170	0x3dbc69fd	0.09199903
171	0x3d1c445c	0.03815113
172	0x3d1587db	0.036506515
173	0x3d9a714b	0.0754114
174	0x3ce99768	0.028514579
175	0x3c18bfa9	0.009323039
176	0x3c35eeb4	0.011104275
177	0x3d807ea6	0.06274156
178	0xbbd1366e	-0.0063846624
179	0x3c0353f4	0.008015621
180	0xbd39cc21	-0.045360688
181	0x3cb715ce	0.022349264
182	0x3d293177	0.04130694
183	0x3d3e0cdf	0.046398994
184	0xbc561a80	-0.0130678415
185	0x3b8cac95	0.0042930343
186	0xbd19cd60	-0.037549376
187	0xbc83ce93	-0.016089713
188	0x3b1497cd	0.0022673488
189	0xbdaf2b56	-0.085531875
190	0xbde2570f	-0.11051761
191	0xbd35c040	-0.044372797
192	0xbdea2a6b	-0.11433872
193	0xbcaa4dfe	-0.020789143
194	0xbd5f7a23	-0.054559838
195	0xbd574bd0	-0.052562535
196	0xbd94150c	-0.07230577
197	0xbdb82203	-0.08990862
198	0x3d9df3dc	0.07712528
199	0x3d37ccb7	0.044872966
200	0x3d9580a3	0.07299926
201	0x3d7ec3d7	0.062198486
202	0x3d894fdd	0.06704686
203	0x3d75a43b	0.059971076
204	0x3d277d48	0.040890962
205	0x3d55807e	0.052124493
206	0x3d151e4d	0.03640585
207	0xbdc49743	-0.095991634
208	0xbd0a6504	-0.033787742
209	0xbdae06f7	-0.08497422
210	0xbddffa01	-0.10936356
211	0xbd348eec	-0.044081613
212	0xbd3fc88c	-0.046822116
213	0xbd198cd8	-0.037487835
214	0xbd9d905a	-0.076935485
215	0xbda5b397	-0.08090895
216	0x3dbb6aa0	0.091511965
217	0xbc01d532	-0.007924365
218	0x3cd088b8	0.025455818
219	0x3cff8333	0.03119049
220	0x3d6c0da7	0.057630207
221	0x3dd1889c	0.10231134
222	0x3c503df0	0.01271008
223	0x3cbe044d	0.02319541
224	0x3c9ea4bc	0.01936566
225	0x3c8b53a1	0.01700765
226	0xbc9e4502	-0.019320015
227	0xbd2eae31	-0.04264659
228	0x3c52c3b0	0.012864038
229	0x3c6d6f7e	0.014491914
230	0xbd854416	-0.06507127
231	0xbd6db52a	-0.0580341
232	0xba772be5	-0.0009428843
233	0xbd4883fc	-0.048953995
234	0x3d06ff1c	0.032958135
235	0xbd79a35d	-0.06094681
236	0x3c2b625e	0.010460464
237	0x3d1b0431	0.037845794
238	0xbd77e4c9	-0.06052092
239	0xbd9e7b8f	-0.07738411
240	0xbca0d5c0	-0.019633174
241	0xbb5efc1b	-0.0034024778
242	0xbcf57521	-0.029963078
243	0x3c393729	0.011304655
244	0xbc6888f2	-0.014192807
245	0xbd22e05d	-0.03976475
246	0x3ca945c0	0.020663142
247	0xbd3ea4a7	-0.046543743
248	0xbcf3a690	-0.02974251
249	0xbd918192	-0.07104792
250	0xbd7ab51d	-0.06120788
251	0x3caa00fd	0.020752424
252	0x3d22485d	0.039619792
253	0xbc59bd21	-0.013289721
254	0xbbfe1a40	-0.007754594
255	0xbd635381	-0.055499557

conv2.bias f4 [64]
0	0xbd3f7a11	-0.04674727
1	0x3b1485fa	0.0022662864
2	0xba672426	-0.0008817337
3	0x3ae24f85	0.001726613
4	0xbcec236f	-0.02882549
5	0x3b230e83	0.0024880476
6	0xbd6f4c7b	-0.058422547
7	0x3d12546c	0.035725042
8	0x3d06bc09	0.032894168
9	0x3d02e965	0.031960864
10	0x3d1f092d	0.03882711
11	0xbc7a79b3	-0.015287804
12	0x3c968178	0.018372282
13	0xbd139c16	-0.036037527
14	0xbcde8872	-0.027164672
15	0xbd712788	-0.05887559
16	0xbc999273	-0.01874659
17	0xbd334b33	-0.043772887
18	0xbcfe7d99	-0.031065749
19	0xbd62933b	-0.05531619
20	0xbd0ede11	-0.034879748
21	0xbd4f7bdd	-0.050655235
22	0xbc7be333	-0.015373993
23	0x3c89ca40	0.016820073
24	0x3d0bfba9	0.03417555
25	0x3ca2dcd0	0.019880682
26	0xbd1864a5	-0.037205357
27	0x3d2176a5	0.03941979
28	0x3a1fc7f3	0.00060951634
29	0xbd28607d	-0.041107643
30	0xbbca9528	-0.0061823316
31	0x3d5542dd	0.05206572
32	0xbd3a8cfe	-0.045544617
33	0xbd458a2a	-0.048227467
34	0x3c596c3c	0.013270434
35	0x3d70eb9a	0.058818437
36	0xbd55e858	-0.052223533
37	0x3d4332aa	0.04765574
38	0xbd5f2232	-0.05447597
39	0x3d01b244	0.031664148
40	0x3d0d3d5b	0.03448234
41	0x3d662451	0.056186978
42	0xbb908cae	-0.0044113016
43	0x3a6db93c	0.00090684346
44	0xbd76c9c6	-0.06025102
45	0xbd7e2f1d	-0.06205665
46	0x3d6c01fd	0.057619084
47	0x3ccb3183	0.024803882
48	0x3cbc7651	0.023005636
49	0xbc9d53cb	-0.019204995
50	0xbd0c9dc4	-0.034330145
51	0xbc383703	-0.011243585
52	0x39cf0305	0.00039484366
53	0x3c9e66d2	0.019336138
54	0x3b4a8e22	0.0030907472
55	0xbd0b96f8	-0.034079522
56	0xbc28463a	-0.01027065
57	0xbcb7d5a3	-0.022440737
58	0xbd2b223d	-0.0417807
59	0xbb5d7ce3	-0.0033796362
60	0xbc93b454	-0.018030323
61	0x3d6bb4c2	0.05754543
62	0x3d5aeb0f	0.053446826
63	0x3d48f914	0.049065664

linear.weight f4 [1, 64]
0	0xbe4ba97e	-0.19888875
1	0x3e1c5c10	0.15269494
2	0x3e002848	0.12515366
3	0xbdd27364	-0.10275915
4	0x3e41c8b8	0.18924224
5	0xbe072be5	-0.13200338
6	0x3def6515	0.11689202
7	0x3de23e03	0.11046984
8	0x3dd54ce8	0.10415059
9	0x3e3cf691	0.18453433
10	0xbe501c0d	-0.203232
11	0x3e1478ac	0.14499158
12	0xbd9770b6	-0.07394545
13	0xbe2efabd	-0.17087837
14	0x3e3b1b30	0.1827209
15	0x3e44116c	0.19147271
16	0x3e3ec619	0.18630256
17	0xbdcd1510	-0.10013783
18	0x3dad25d1	0.084544785
19	0x3e3d4b5b	0.18485777
20	0x3de7341b	0.11289235
21	0x3e3d12f8	0.18464267
22	0x3df87fcf	0.121337526
23	0xbdddb1ae	-0.10824905
24	0x3dfc2b95	0.12313
25	0xbdacb7e9	-0.084335156
26	0x3e347b6a	0.17625204
27	0xbe2f948a	-0.17146507
28	0x3e3ab08b	0.18231408
29	0xbdf1b46e	-0.11801992
30	0x3e2a48d1	0.1662934
31	0xbdd49586	-0.10380082
32	0x3dcc9a9f	0.09990429
33	0x3e2445fd	0.16042323
34	0xbe395e70	-0.18102431
35	0xbe44fb2a	-0.19236436
36	0x3da5afbb	0.080901586
37	0xbe4adb7f	-0.19810294
38	0x3e289868	0.16464388
39	0x3dbfa7f1	0.09358204
40	0x3e11d721	0.14242221
41	0xbe01517f	-0.12628745
42	0xbdaeb4bb	-0.08530565
43	0x3e1bfb4d	0.15232582
44	0x3e3c014d	0.18359871
45	0x3dde30fd	0.108491875
46	0xbda6639f	-0.0812447
47	0xbe265bd1	-0.16245963
48	0xbe180467	-0.1484543
49	0x3deb98f0	0.1150378
50	0x3e21c01a	0.15795937
51	0x3daf8d27	0.085718445
52	0x3e42a2e0	0.19007444
53	0x3ddc9a37	0.10771602
54	0x3e3c16cc	0.18368071
55	0xbdf2f2cf	-0.11862718
56	0x3dd744b3	0.1051115
57	0xbe3d62d1	-0.18494727
58	0xbdd2aa23	-0.10286357
59	0xbe58bead	-0.21166487
60	0xbe322726	-0.17397746
61	0xbdedcab8	-0.11610931
62	0xbe507c83	-0.20359997
63	0xbe3db31f	-0.1852536
