concepts_sequential/saved_probes/pin_layer_10_probe.pth (torch, 372790 bytes, 5 tensors)

conv1.weight f4 [32, 256, 3, 3]
00000000: e8ce b73b 59f6 913b 448c 5abc 40c3 743c
00000010: b44d fcba f9cb a0bb 6e92 793c bafe bb3c
00000020: 7c08 bd3c 8156 c0bc eb7a 4a3c 43b4 9e39
00000030: 3d28 7f3c 43aa 5e3b 627d 163c d673 7d3b
00000040: 84ea e43c 7871 013c 5634 293c 9c68 9c3c
00000050: 9a4c 2c3b fdf1 933c f424 0e3a 6002 b53c
00000060: 1617 c2bb 3120 25bc 5a86 07bc 20a7 5abc
00000070: eaf4 32bc f241 8cbc 26d9 133d d6de 0f3c
00000080: 92cb e83c bdbb d83c 0b65 b4bc f6dc d7bc
00000090: fac6 c03b 1a3f 733c 8343 5cbc ed52 733c
000000a0: 7749 dfbb 5e9f 8fbc dfd7 123c 1aac c13b
000000b0: f488 833c 2367 1bbc 9014 413c 1485 9d3c
000000c0: 5b5c 8d3c f96c cdbb 2a4d 993b 9af7 c93c
000000d0: be5b 0b3c ef33 143d 95be b339 e2c2 86bc
000000e0: e4da 51bc b45c c6bc 263f 80bc 6f0e d3bc
000000f0: db46 9fbc 22cd c3bc 9148 9b3c dae2 5c3a
00000100: 8e74 1d3c a8f6 34bb f94e 053c 36ed c0bc
00000110: db0c 94bc ba84 cebc 12cf 1c3c 35c1 0ab8
00000120: c2fe 9d3c 9433 cebc 5cac 0abd efbe 26bc
00000130: d8e3 3cbc 1c35 0a3c b70b b43c 5849 f73c
00000140: f937 093c c451 a136 7992 a63c 4e96 213c
00000150: a75a 893c 3b82 0939 89b0 953c 532e c0bc
00000160: c085 64bc a2fc 7e3b 6641 5a3b 669d b3bc
00000170: 6cec cbbb 9ae3 093c 9f6d 80bc b63a f5bc
00000180: f545 0b3d d3f7 e0bb b011 5cbc 5494 a7bc
00000190: db2a 28bc 3045 5b3b ed2d 56bb fa5d 46bc
000001a0: 9730 9b3b 8aed afbc 5b20 a8bc 6c60 82bc
000001b0: 5892 423b a0c0 003d c82c 783d 5ef4 123d
000001c0: 0de2 103d a389 013d 6ada 723c d6ef 0e3a
000001d0: 9b8a fe3b 6d9e 89bc 5e15 12bd 5ec3 24bd
000001e0: 4ad9 69bc 3985 47bd cc13 35bd 27d5 3dbd
000001f0: b4d5 96bd a850 aabd 2998 14bc b4ed 0bbc
00000200: b007 d93c e997 cf3b ae43 c73c d4b4 ee3c
00000210: 1246 54bc b988 0f3d 0d65 ee3c 78bf 173c
00000220: eaee 20bc eaf5 24bc 47c7 4a3c 8567 40bc
00000230: cb0b c63a bfe4 53bc b21d 31bb 0497 96bc
00000240: db0e 073c 55ab df3c 4717 fb3c 5e29 cb3c
00000250: d77a 243d 55e5 4ebb ba48 053d bdb7 8d3b
00000260: bb24 a53a c400 27bb 906e ad3c 2bee 64bb
00000270: afd6 993c 826d c33b 8b63 db3a b3d0 b4bc
00000280: 2ad6 bd3b e1e1 61bc eb55 35bc 165b 14bd
00000290: fed5 17bc dba0 5dbc 990f b6bc 5977 803b
000002a0: bc69 863b 3869 4cbc fe34 50bc 0f75 e23b
000002b0: d691 083d 4c7b a93c 15c3 bfbc 1338 5bbc
000002c0: c5ff 09bc a902 04bd acd9 6cbc 2e64 fcbc
000002d0: ca8c b6b9 b97e b03b 41ad 20bb ec64 87bc
000002e0: dac8 0d3b 347e 0b3b 30c3 abba 275e 40bc
000002f0: 08bc 78bc f64c 10bc ddbe e6bb defa 11bc
00000300: 5055 113c abbf 193c 9a4b 983b 1e83 2c3b
00000310: f5ba 2d3c 5b1a 833c a8e2 543c 3906 ef3c
00000320: 985a a53b 74ef 593c e4d2 883d ba3b 823d
00000330: ca82 823d 2a92 1e3d 74d5 e73c ed8b d3bc
00000340: 8b46 ffba 5edf e3bb 6572 cf3c 1fe3 133d
00000350: a4de 93bb a4c7 183c 0009 c33c f051 453d
00000360: 9de5 c6bb 2ec9 b6bb e15e 3a3c 3bb3 293b
00000370: 2985 13bc 2102 f83c 1454 823c 1099 ba3c
00000380: 2db5 323c 130a 353c deaf a93c 0bae 9cbb
00000390: 66d2 e6bc 6541 c2bc 38b1 8ebc a701 36bb
000003a0: c3bb 303a b411 99bb 1aab 3d3c 6f65 f23b
000003b0: 57f1 e53b 7453 e63b b2c4 963b 99ca 89bc
000003c0: 83cf aa3c bfc5 08bc f4ea 14bc e2ca b0bc
000003d0: 5295 4c3c 185e a33c a230 9bbc 8cfa 293c
000003e0: b26f d3bc 9609 97bc 2b1f 5dbd 1b1e 59bd
000003f0: 95f9 aebb ecd0 123b aa57 5d3b f7e0 febc
0.005609382 0.0044544158 -0.013339106 0.014939129 -0.0019249232 -0.004907128 0.015232665 0.022948612
0.023075335 -0.023478748 0.0123584075 0.00030270414 0.015573558 0.0033975996 0.009185167 0.003867378
0.027943857 0.007900588 0.010327419 0.01909285 0.0026290775 0.018059725 0.00054223766 0.022095859
-0.005923162 -0.010078476 -0.008271778 -0.01334551 -0.01092265 -0.017121289 0.03609576 0.008781156
0.028417382 0.026456708 -0.022020837 -0.02635048 0.005883095 0.014846588 -0.01344383 0.014851314
-0.0068141776 -0.017532047 0.0089626005 0.0059104087 0.016056515 -0.009485039 0.011784688 0.019228496
0.017255953 -0.006269094 0.004678388 0.024654198 0.00850576 0.03618234 0.00034283535 -0.01645035
-0.012808535 -0.024214126 -0.015655112 -0.025763718 -0.019442966 -0.023901526 0.0189555 0.00084261375
0.009610308 -0.002761284 0.008136504 -0.023550611 -0.018072536 -0.025209773 0.009570854 -3.3081702e-05
0.019286517 -0.025171079 -0.03385578 -0.010177358 -0.011528932 0.008435514 0.021978242 0.03018634
0.008375161 4.8076927e-06 0.020333515 0.009862496 0.01676686 0.00013113853 0.018272655 -0.02345959
-0.013947904 0.0038907905 0.003330314 -0.02192564 -0.006223252 0.008416081 -0.015677271 -0.029935222
0.034002263 -0.0068654804 -0.013431951 -0.02045647 -0.010264124 0.0033457987 -0.0032681182 -0.012107367
0.004736017 -0.021475572 -0.02052324 -0.015915118 0.0029689278 0.0314337 0.06058958 0.035877578
0.03537183 0.0316254 0.014822582 0.00054526085 0.007767988 -0.016799176 -0.03566491 -0.04022538
-0.014272997 -0.048711035 -0.044208333 -0.046345856 -0.073649794 -0.08316165 -0.009069481 -0.00854056
0.026492923 0.006335248 0.024324264 0.02913896 -0.012956159 0.0350425 0.02910092 0.009261958
-0.009822587 -0.010068396 0.012376613 -0.011743431 0.0015109716 -0.012932955 -0.0027025756 -0.018382557
0.008243288 0.027303377 0.030650748 0.024799999 0.04015621 -0.0031569798 0.03254006 0.004324882
0.0012599448 -0.0025482634 0.021170884 -0.0034931998 0.018779127 0.005963982 0.001673804 -0.022072172
0.0057933526 -0.013786764 -0.011067848 -0.03621968 -0.009267328 -0.01352712 -0.022224234 0.0039204773
0.00410196 -0.012476258 -0.012707947 0.006910927 0.033342205 0.020688675 -0.023408452 -0.013380068
-0.008422797 -0.0322291 -0.014456194 -0.030809488 -0.0003481864 0.0053862003 -0.002451733 -0.016527615
0.002163461 0.002128494 -0.0013104435 -0.011741198 -0.015181549 -0.008807411 -0.0070417956 -0.008909909
0.008870438 0.009384076 0.0046476843 0.002632327 0.010603656 0.016003778 0.012993492 0.029177772
0.0050462 0.013301719 0.06680849 0.06359048 0.06372602 0.03871361 0.028300025 -0.025823558
-0.001947598 -0.0069541177 0.025323102 0.03610527 -0.004512625 0.009324942 0.023808002 0.048173845
-0.0060698525 -0.0055781817 0.01137516 0.0025894183 -0.009003916 0.030274453 0.015909232 0.022778064
0.0109074535 0.011049765 0.020713743 -0.0047814897 -0.028176498 -0.023712823 -0.017418489 -0.002777198
0.0006741846 -0.0046713 0.011576438 0.0073973457 0.0070172953 0.0070289914 0.0046010846 -0.016820239
0.020850902 -0.008347928 -0.00908922 -0.021581117 0.012486773 0.019942328 -0.018944088 0.010374676
-0.025810096 -0.018437188 -0.053984802 -0.053007226 -0.005339811 0.002240236 0.0033774176 -0.031113131

conv1.bias f4 [32]
00000000: 4e73 b0bb fcec 7f3c 4359 df3b 6876 a6bc
00000010: ff75 c0bb e57c 913c 3a14 94bc c146 383a
00000020: aeed 9e3c 3ae7 f83b fed1 85bc 2870 5d3c
00000030: d2b3 423b 300f a9bc 2ec9 703b ab7f 94bc
00000040: 2088 883c 3988 a23b b74f 61bc bb9f aa3c
00000050: 4ec8 313c 116a 933b 46a7 233c 8ecd 52bc
00000060: e5b1 603c a639 b0bc 0ad2 813a 9ec2 a8bc
00000070: 76dc f4bb 319e 32bc ef46 f8bb f5ff e6ba
-0.005384839 0.015620466 0.0068160607 -0.020320132 -0.005873441 0.01775975 -0.018076051 0.0007029586
0.019400444 0.0075959237 -0.016335484 0.01351551 0.0029709232 -0.020637125 0.0036741006 -0.018127283
0.016666472 0.0049600867 -0.013751916 0.020828119 0.010850979 0.004498728 0.009988612 -0.012866391
0.013714288 -0.021511864 0.0009904515 -0.020600613 -0.00747257 -0.010901974 -0.0075768153 -0.0017623889

conv2.weight f4 [64, 32, 3, 3]
00000000: 720d e1bd 74d3 2ebd 9fec 3bbd 7b1c f5bb
00000010: c638 02bd a754 813c 1698 adbd b48a 79bd
00000020: d14b 2bbd c956 63bc 8327 36bd d268 9d3b
00000030: 001b 8cbd 3253 f9bb 1c50 373c 5aaa d03c
00000040: e6e3 e2bc 4016 92bd 03da ad3d 5974 403c
00000050: 9014 6ebb 94a4 87bc 4e7f 303d 8f16 913d
00000060: 87d4 b43d de65 27ba d9f0 843d a146 b5bc
00000070: 46dc 62bd 18f9 143c 9360 03bd 72ac 8ebd
00000080: a457 dbbc a245 07bd dbcb 8ebd 3064 803c
00000090: 2b0c 7c3d 78bb 703c d1de eeba bbc7 1dbd
000000a0: 553d 183d 4bc9 a6bc 96ee 203d 8730 bb3c
000000b0: 69a2 a33d 6f2d c7bb 3bb1 76bb 1d26 fbbb
000000c0: df09 283d 9cea 8e3c f898 80bd e008 c4bb
000000d0: 1f55 65bd 8285 ea3c 83fe 12bd 36f6 3cbd
000000e0: 6758 c73b 782a b73c 39a1 88bd 49c3 94bd
000000f0: 1606 bfbc a891 843c 57ba dc3c 0a3a 973d
00000100: 7f67 2abc 8eda 673d 9054 693d bcb9 4f3c
00000110: e1be 2c3d 2ce8 9fbc 3740 debc ddd9 b13b
00000120: 3211 5c3d a46f 6bbc 0a7e ba3b 4c06 b13c
00000130: ff64 9fbc 7274 9d3d e1c1 46bc 39d7 ae3d
00000140: 5cc4 223c cbb6 493c d40b 1fbd ed57 363d
00000150: 6eb2 20bd 0c37 8b3c d699 e4bc bd1d 463d
00000160: 3ed9 9abc a0d5 a7bb 9e82 dd3c f0de e33b
00000170: 1817 803c 92dc a43d 575d 933c ff7c 583d
00000180: a0d9 1b3b b68b e93c 7e1d 8b3d f3c7 81bc
00000190: cb6c 7bbd fb18 b83c 5137 cfbc 5cd1 82bd
000001a0: bffa 58bd 8911 bd3c 7c79 1abd e45f 793c
000001b0: 4fb9 803c 9d3d 803d 1dc0 bb3c 05fb 993d
000001c0: 2af7 08bd e69e b8bc 29da 803d 7e49 7138
000001d0: 8cbc 493d 4768 0e3d 7234 6d3d 81fa 043d
000001e0: 57ec 813d ef44 9a3c 2a78 103d 03f6 c23d
000001f0: 7c17 473d 8928 fcbb 5ad6 233d ea19 7cbc
00000200: 9b28 8dbd 045f db3a dd1c 113d 1fa9 99bd
00000210: 06b0 0f3d 7d42 0a3b 2caf 85bd 4b14 b13d
00000220: b064 4f3d 1245 583d 5edc b53c 04f5 ca3d
00000230: 57b6 a03c ca64 ca3d b96a ba3d 311f 383d
00000240: a9a1 5abc f71c 94bb f936 70bc 936c 85bd
00000250: 157c 413b 43d7 8abd f89f a0bd df50 b53c
00000260: 0f2a 0abd 4787 24bb 67b1 9d3c 86ab 71bc
00000270: c8e0 783d 80a1 5ab9 0707 dbbc f2f2 c23c
00000280: 5943 9d3d 7933 5b3c c6e9 f3bc 2a20 37bc
00000290: 8c63 02bd 3851 64bd b76b b3bd 2196 d2bd
000002a0: 2917 aabd b27d bcbd 4af7 45bd a2bb 493d
000002b0: d05d 393d b08e ab3d 4933 173d 4fbf 743c
000002c0: 50a3 813c 0d13 973d c891 3239 217d 603c
000002d0: f6a6 0dbd df7e 0c3d 7a15 5a3d 1493 663d
000002e0: 0327 97bb 7271 7f3c 720a e5bc ed56 d1bb
000002f0: 5ea8 073c 0848 6fbd 73ba 9cbd cb95 6dbc
00000300: 42ab a8bd 430b a73c 4a94 85bc ba14 d6bc
00000310: 7a09 24bd 549b 88bd 0cc6 aa3d 9e94 453d
00000320: deea 913d fdbc 8b3d 35f0 8d3d b062 683d
00000330: 7c0c 433d 468f 563d 661d 083d 68b0 c6bc
00000340: e16d e83c 1b02 c2bc dc67 0dbd a50b 8c3c
00000350: f99a 743c 5563 0f3d e047 9bbc 5d37 cdbc
00000360: 2674 0e3e e3cb 143d 7a42 863d fd45 ac3d
00000370: 0e56 d43d 8ec8 113e 31b1 833d cd04 843d
00000380: e496 673d f850 0c3d 2db2 e0ba 9626 c1bc
00000390: 1e29 043d 3202 103d a575 38bd 20ae 04bd
000003a0: cea8 ce3c b980 c8bc 5ede 063d bb83 62bd
000003b0: 402d 833c 3147 343d 4c25 3bbd 91e0 80bd
000003c0: c7c8 d9bb 8a4e 3a3c 5949 97bc 6359 ccbc
000003d0: ade6 40bd be0e 9cbd 8957 56bc a386 89bd
000003e0: cf9e 79bd 83cb d2bd 0c2f c1bd 92d9 bcbc
000003f0: 07cf 053d feb5 9cbc ec4b 96bc c157 6dbd
-0.109888926 -0.042682126 -0.045879956 -0.007480202 -0.031792425 0.015787436 -0.08476274 -0.060923293
-0.04182035 -0.013875672 -0.044471275 0.0048037553 -0.06841087 -0.0076087946 0.011188533 0.025471855
-0.027696561 -0.0713315 0.08488848 0.011746489 -0.0036328174 -0.01655797 0.043090157 0.07084381
0.08829599 -0.0006385724 0.064912505 -0.022128405 -0.05538585 0.009092592 -0.032074522 -0.06966485
-0.026775189 -0.03302539 -0.06972476 0.015672773 0.06153504 0.0146931335 -0.0018224363 -0.038520556
0.037167866 -0.020359656 0.039290033 0.022850288 0.07989962 -0.006078414 -0.0037642259 -0.0076644556
0.04102504 0.017445855 -0.062791765 -0.0059825033 -0.05598938 0.028628115 -0.035887253 -0.046133243
0.0060835364 0.022359118 -0.06671376 -0.0726381 -0.023318332 0.016182736 0.026944323 0.07384117
-0.010400652 0.056604914 0.05696541 0.01267856 0.042174224 -0.019519888 -0.02713023 0.0054275827
0.053727336 -0.014369879 0.0056912946 0.021609448 -0.019457338 0.07688226 -0.012131185 0.08537144
0.009934511 0.012311648 -0.03882964 0.044517446 -0.039232664 0.016994022 -0.027905386 0.048368204
-0.018902417 -0.0051219016 0.027039822 0.0069540665 0.015636012 0.08049883 0.017988844 0.05285358
0.0023780838 0.028509002 0.067927346 -0.015842414 -0.06138305 0.02247285 -0.025294932 -0.063875884
-0.052973505 0.02307965 -0.037713513 0.015220616 0.015713362 0.06261752 0.022918755 0.07518581
-0.03343884 -0.022536706 0.06291611 5.7527322e-05 0.049252078 0.034767415 0.057911344 0.03246546
0.063439064 0.018831698 0.035270847 0.09519579 0.04860638 -0.007695262 0.039999343 -0.015387038
-0.068925105 0.0016736691 0.035427917 -0.075029604 0.03507998 0.002109676 -0.06527552 0.08646449
0.050633132 0.052800246 0.022199806 0.09910014 0.019618196 0.09882505 0.09102387 0.04495162
-0.013344207 -0.0045200544 -0.014661544 -0.065148495 0.0029523422 -0.06779339 -0.078430116 0.022133289
-0.033731516 -0.0025105046 0.019249631 -0.014750367 0.060761243 -0.00020850264 -0.02673675 0.023797486
0.07678861 0.013378971 -0.029774558 -0.011177102 -0.031833217 -0.05574152 -0.08760779 -0.10282541
-0.08305199 -0.09203662 -0.048331536 0.049251206 0.045255482 0.08376825 0.036914144 0.01493819
0.015824944 0.073766805 0.0001702971 0.013701708 -0.034583054 0.03430068 0.053243138 0.05629261
-0.004612805 0.015591012 -0.027959082 -0.006388536 0.008279888 -0.058418304 -0.0765275 -0.014501045
-0.0823579 0.020391112 -0.016306061 -0.02613293 -0.0400481 -0.066702515 0.08338556 0.048237436
0.071248755 0.06823156 0.069305815 0.05673474 0.047619328 0.05238273 0.03323116 -0.024254039
0.028372707 -0.023682645 -0.034522876 0.017095396 0.0149295265 0.03500684 -0.018955171 -0.025050813
0.13911495 0.036327254 0.06555648 0.08411787 0.10367976 0.14236662 0.06430281 0.06446228
0.056540385 0.034256905 -0.0017142944 -0.02357797 0.032265775 0.035158344 -0.04503407 -0.03239262
0.025226977 -0.024475442 0.03292691 -0.05530141 0.016012788 0.044013206 -0.045689866 -0.06292833
-0.006646249 0.011371264 -0.018467592 -0.024944967 -0.04709499 -0.07619999 -0.013082393 -0.06715133
-0.060942467 -0.10292723 -0.094328016 -0.023052964 0.03266814 -0.01912975 -0.01834675 -0.057945017

conv2.bias f4 [64]
00000000: 4d91 65bd 5a4b 163c 3ad0 e53b ce4e be39
00000010: 69f0 b6bc 383f ab3b 08d6 48bd ec55 313d
00000020: 1ca3 343d 5f6d 133d 2fcb 043d 1576 2abc
00000030: d53d b23c 532d 15bd 96f6 dbbc 525f 45bd
00000040: 9a27 57bc f90f 32bd 0912 f4bc 748e 3ebd
00000050: b96b abbc 685e 3abd d5c0 153a 4066 8a3c
00000060: 9772 083d 33f4 783c 8a68 c4bc 56b3 e83c
00000070: 43d6 8d3b eea4 47bd be8f 81bb 3a02 513d
00000080: a1dc 02bd 4dff 24bd debe 5a3c df96 4b3d
00000090: 35a1 1cbd fe05 223d 8367 46bd 2161 2a3d
000000a0: 17d8 243d 0c1f 573d 7850 b0bb 4b55 2b3c
000000b0: 889b 5cbd 6687 5ebd 6964 583d 614e b43c
000000c0: c122 ae3c cd4b 4cbc 3e7f c2bc 546d 3d3b
000000d0: 4518 2a39 679f fd3c c52b 033c f23f 04bd
000000e0: c366 80bb 9a52 cdbc 5dec 4ebd 8476 39bc
000000f0: dbb3 73bc 868e 553d afc3 4c3d 592e 1c3d
-0.056046773 0.009173239 0.007013348 0.00036298338 -0.022331433 0.005226042 -0.04903224 0.043294832
0.044100866 0.035992976 0.032420333 -0.0104041295 0.021758 -0.036420178 -0.02685098 -0.048186608
-0.013132 -0.043472264 -0.029793756 -0.046522573 -0.02092539 -0.04550019 0.0005712633 0.01689446
0.033312406 0.01519494 -0.02397563 0.028405827 0.0043285205 -0.048741274 -0.003953903 0.051027514
-0.03194869 -0.040282536 0.01335117 0.04970443 -0.038239677 0.039556496 -0.04843856 0.041596536
0.04024514 0.052519843 -0.0053806864 0.010457347 -0.053859264 -0.054328345 0.052830134 0.02201003
0.021256806 -0.012469244 -0.023742314 0.0028904276 0.00016221504 0.030959798 0.008006041 -0.032287546
-0.0039185 -0.025063802 -0.050518382 -0.01131976 -0.014874424 0.052137874 0.049991306 0.038130138

linear.weight f4 [1, 64]
00000000: f908 3dbe 2637 153e 3bfa 0c3e 9a4a c1bd
00000010: 95e7 3f3e 6d33 00be 424f 053e ad65 fe3d
00000020: 37f3 d43d e006 4f3e a0de 38be 832e 243e
00000030: 6861 a5bd a473 24be 8670 3a3e f55f 493e
00000040: b63b 3e3e 3e8e afbd 71dc a93d f8ac 433e
00000050: b955 d83d 1b33 573e 2615 183e 082a d2bd
00000060: 9e42 023e 65f3 e23d 18f1 423e 74c8 16be
00000070: 4bf6 4d3e 08f8 d2bd 57c8 393e 72d4 adbd
00000080: 4e2d c93d aa66 263e d8e6 2fbe 3bce 37be
00000090: dadc 923d 176b 33be d8d9 393e 6853 ec3d
000000a0: 5a8b 1f3e 75f3 e3bd 9875 cabd 5605 213e
000000b0: 72e1 503e 3c9a de3d a62d abbd 7233 24be
000000c0: 0803 10be 76f4 f93d c892 2d3e ea68 ad3d
000000d0: e569 3a3e fb1b ee3d 5e17 4e3e bed0 dabd
000000e0: 0faf b2bd aa7c 2cbe aa0f c3bd 9a94 40be
000000f0: 422b 0bbe 857c eabd 746a 41be 21ae 2ebe
-0.18460454 0.14571819 0.1376733 -0.09438057 0.18740685 -0.12519617 0.13018516 0.12421737
0.10397952 0.20217466 -0.18053675 0.16033368 -0.080752194 -0.16059738 0.18206987 0.19665511
0.18577465 -0.085720524 0.08293999 0.19108951 0.10563225 0.21015589 0.14851817 -0.10261923
0.12720725 0.1108158 0.19037282 -0.14724904 0.20113485 -0.103012145 0.1814283 -0.08487786
0.09823094 0.162501 -0.17177904 -0.17949764 0.0717103 -0.1752132 0.18149507 0.11539346
0.15580502 -0.1113042 -0.098857105 0.15724692 0.203985 0.108692616 -0.08358316 -0.1603525
-0.14063656 0.1220483 0.16950524 0.084672764 0.18204458 0.116264306 0.20126101 -0.10684346
-0.08724796 -0.1684443 -0.09524472 -0.18806687 -0.1359072 -0.114495315 -0.18888265 -0.17058612
