concepts_sequential/saved_probes/queensideAttack_layer_10_probe.pth (torch, 372974 bytes, 5 tensors)

conv1.weight f4 [32, 256, 3, 3]
0.022267113 0.03787514 0.021451265 -0.017852847 0.014320941 -0.012578239 -0.030526478 -0.0039883056
-0.0063291346 0.0018385614 -0.0042801797 0.013124253 -0.021274641 0.020661397 0.019536488 -0.02249626
0.0032545626 0.0056603905 0.011963195 -0.011997012 0.004016865 -0.012499137 0.0023500544 0.010555796
-0.0015235428 0.009020028 0.0033058221 0.01896912 0.027570592 0.0003483996 -0.02651128 0.015734468
0.023234615 -0.008278236 0.01468876 0.015224241 -0.0077822204 0.00094955903 0.024538774 -0.006765915
0.009177055 0.023354229 -0.03261779 0.017247723 0.016401699 -0.006951182 -0.01981663 0.01014297
-0.0050301966 -0.0021795926 -0.0026552468 -0.0077707875 -0.041375093 -0.04457833 -0.011646676 0.0149314925
0.04651313 -0.0093617765 0.009294086 0.03922179 -0.04502428 -0.016622799 0.008498662 0.011906846
0.01845644 0.013542057 0.007769767 -0.005032185 0.011129227 0.012877287 0.0022661635 -0.0121421525
0.010468529 0.012368738 -0.009669805 -0.02869875 -0.0048184306 0.0030142255 -0.015096613 0.008892632
0.0043854793 0.0030692765 -0.007218688 -0.008892247 0.009005014 0.017206611 -0.00020699219 0.018065302
0.029627154 0.007927541 0.02717068 0.011547991 -0.015911447 0.014130699 -0.019216446 -0.0034705016
0.018261768 -0.011146991 0.0017830118 -0.0055841566 -0.019229576 -0.02162627 0.006550631 -0.00834899
-0.019206852 0.0040930375 -0.016886052 0.005450249 0.0151213845 -0.010265841 0.0077398685 -0.025662726
0.00023992504 -0.002768024 -0.0011113768 -0.0061203577 -0.012375256 -0.014849122 -0.022939548 -0.020880247
0.022125138 -0.0011693543 -0.009161516 -0.0090830065 -0.011472579 -0.010992059 0.026039107 0.03216428
0.03204887 0.000558183 -0.0064333747 0.016790671 0.009217443 -0.005901625 0.005154666 -0.030200148
0.0110981725 -0.019459575 -0.0029309127 -0.004961347 0.019274121 -0.005948056 0.0036730876 -0.011898557
0.0053032995 -0.00903896 0.0033443624 -0.03320432 -0.001182784 0.00611354 -0.031641833 -0.008420275
-0.013550179 -0.017220963 0.009010956 0.008074549 -0.01783901 -0.013801961 -0.013265099 -0.023932306
0.0043864227 -0.0020268147 0.032831077 0.019003939 -0.016925387 -0.0035471814 0.017971514 -0.012565386
-0.011762709 0.009316082 0.002496702 -0.020390997 -0.010663726 -0.043706644 0.010229272 0.010717527
-0.041683614 0.004844189 0.022924712 -0.00095947686 0.02387798 0.01048618 -0.016092664 0.009401392
0.0062628314 0.016448712 0.026453193 -0.011428206 0.03286797 -0.007689974 0.009368168 0.035661735
-0.029864725 -0.013709206 0.023025228 -0.033331703 -0.005684115 0.03654195 -0.011718551 -0.010438643
-0.03567307 -0.005696389 -0.008898233 -0.018838279 0.004362612 -0.018366426 -0.010180289 -0.002443069
-0.022217674 -0.021627013 -0.026733693 -0.033469535 -0.032407388 -0.012694018 -0.026080785 -0.0331559
-0.024096865 -0.012258634 0.03235431 -0.026632255 0.0019176836 0.0138065815 -0.008110616 -0.00015762236
0.010850575 0.014031414 0.00074392965 -0.011464229 0.019133952 0.017491316 -0.011961051 0.023085527
0.014270502 -0.0025867203 0.02204456 -0.020317385 -0.035241183 -0.025388282 -0.009484957 -0.008742271
-0.041496266 -0.006411296 0.024245441 -0.009062329 0.013483137 0.023481784 -0.012261935 -0.005453774
0.017936097 0.0077759377 0.0010448013 -0.013528138 0.0029428431 -0.007734571 0.0026459133 -0.010322851
00000000: 8569 b63c f622 1b3d 90ba af3c 2240 92bc
00000010: 61a2 6a3c f514 4ebc aa12 fabc 55b0 82bb
00000020: a164 cfbb e2fb f03a c040 8cbb 1b07 573c
00000030: 2848 aebc 1742 a93c fc0a a03c 144a b8bc
00000040: 804a 553b cc7a b93b 4701 443c 1e8f 44bc
00000050: e89f 833b 2ec9 4cbc 5f03 1a3b 38f2 2c3c
00000060: 9db1 c7ba bdc8 133c 7ea6 583b 2165 9b3c
00000070: b9db e13c 67a9 b639 2f2e d9bc 92e5 803c
00000080: 8556 be3c 70a1 07bc 20a9 703c 186f 793c
00000090: ff01 ffbb d4eb 783a 8a05 c93c 9cb4 ddbb
000000a0: 5c5b 163c 5e51 bf3c 3b9a 05bd 194b 8d3c
000000b0: db5c 863c bec6 e3bb 7c56 a2bc b32e 263c
000000c0: 59d4 a4bb 7fd7 0ebb a603 2ebb 17a2 febb
000000d0: ee78 29bd c497 36bd b3d1 3ebc 38a3 743c
000000e0: 8d84 3e3d 2362 19bc 3946 183c 07a7 203d
000000f0: 616b 38bd 892c 88bc f93d 0b3c ef14 433c
00000100: f631 973c 81df 5d3c 8899 fe3b 07e5 a4bb
00000110: 5c57 363c 42fb 523c ea83 143b e1ef 46bc
00000120: 3184 2b3c 3fa6 4a3c 1a6e 1ebc a419 ebbc
00000130: ede3 9dbb 508a 453b c957 77bc 67b2 113c
00000140: 11b4 8f3b ea25 493b be8a ecbb cab0 11bc
00000150: c489 133c e1f4 8c3c 0b0c 59b9 affd 933c
00000160: a5b4 f23c 84e2 013c 0c95 de3c c933 3d3c
00000170: b958 82bc 7384 673c cf6b 9dbc 5b71 63bb
00000180: b499 953c dea1 36bc f3b3 e93a 4dfb b6bb
00000190: 5887 9dbc 9329 b1bc ada6 d63b 34ca 08bc
000001a0: b057 9dbc e31e 863b 9e54 8abc 0198 b23b
000001b0: afbf 773c 0f32 28bc b99e fd3b a33a d2bc
000001c0: 6394 7b39 bd67 35bb 9eab 91ba 488d c8bb
000001d0: 96c1 4abc bb49 73bc b8eb bbbc 0d0d abbc
000001e0: c73f b53c 0545 99ba 2f1a 16bc e4d0 14bc
000001f0: 7cf7 3bbc 0918 34bc f74f d53c b1be 033d
00000200: ad45 033d 0753 123a 0fcf d2bb 978c 893c
00000210: c204 173c 6b62 c1bb 79e8 a83b 4d66 f7bc
00000220: 1cd5 353c b069 9fbc 8e14 40bb cc92 a2bb
00000230: c3e4 9d3c e9e7 c2bb 2fb8 703b 2af2 42bc
00000240: 4dc7 ad3b 2518 14bc 172d 5b3b 4101 08bd
00000250: a507 9bba 1754 c83b de9a 01bd 31f5 09bc
00000260: 9201 5ebc fa12 8dbc b0a2 133c 1d4b 043c
00000270: 1e23 92bc 9f21 62bc dc55 59bc af0d c4bc
00000280: fbbb 8f3b 4fd4 04bb e179 063d 26ae 9b3c
00000290: 1ca7 8abc d477 68bb ff38 933c 0cdf 4dbc
000002a0: 61b8 40bc 7ba2 183c b59f 233b 050b a7bc
000002b0: e9b6 2ebc bd05 33bd ad98 273c 9198 2f3c
000002c0: 70bc 2abd 01bc 9e3b 9bcc bb3c 6785 7bba
000002d0: c19b c33c 3ace 2b3c c3d4 83bc 4c08 1a3c
000002e0: 7038 cd3b 73bf 863c 5eb4 d83c 5f3d 3bbc
000002f0: 91a0 063d 2dfc fbbb f27c 193c 0a12 123d
00000300: dea6 f4bc 949c 60bc 679f bc3c d386 08bd
00000310: d041 babb 03ad 153d 2aff 3fbc d806 2bbc
00000320: ed1d 12bd c6a8 babb e5c9 11bc bc52 9abc
00000330: 3ef4 8e3b 3075 96bc 3acb 26bc e51b 20bb
00000340: d701 b6bc 222b b1bc 9e00 dbbc 5a17 09bd
00000350: 9cbd 04bd 92fa 4fbc 5fa7 d5bc 7bce 07bd
00000360: ca66 c5bc 70d8 48bc f485 043d e32b dabc
00000370: c95a fb3a 0035 623c 64e2 04bc 6e47 25b9
00000380: 9cc6 313c 04e4 653c 4604 433a 76d4 3bbc
00000390: cebe 9c3c f349 8f3c 49f8 43bc dc1d bd3c
000003a0: d3ce 693c f785 29bb cb96 b43c a570 a6bc
000003b0: 0f59 10bd 16fb cfbc cb66 1bbc be3b 0fbc
000003c0: fdf7 29bd d915 d2bb 609e c63c 2a7a 14bc
000003d0: 60e8 5c3c df5c c03c 48e6 48bc 92b5 b2bb
000003e0: b9ee 923c 4bcd fe3b b7f1 883a 20a5 5dbc
000003f0: b7dc 403b 4972 fdbb 0f67 2d3b 2d21 29bc

conv1.bias f4 [32]
0.0004733925 -0.021487758 0.004898835 -0.017157374 -0.0102885775 0.010123569 -0.013470931 -0.002542825
0.008954266 0.0054221544 0.02877316 0.011822889 0.016378552 -0.0055180127 0.008797248 -0.004772547
-0.02002028 -0.004976239 -0.021771 0.0095524 -0.017030383 0.013911805 -0.0122326445 -0.00069223164
-0.016678747 0.01202698 0.009597101 0.021211462 -0.0018150666 -0.010659252 -0.004837381 0.027488206
00000000: aa31 f839 1807 b0bc 6886 a03b 9f8d 8cbc
00000010: 6c91 28bc 53dd 253c 2eb5 5cbc 86a5 26bb
00000020: eab4 123c 54ac b13b b1b5 eb3c cab4 413c
00000030: 502c 863c 72d0 b4bb 5522 103c 0763 9cbb
00000040: 9201 a4bc b80f a3bb 1959 b2bc ab81 1c3c
00000050: 4d83 8bbc 57ee 633c 6e6b 48bc e176 35ba
00000060: dea1 88bc cf0c 453c 293d 1d3c a9c3 ad3c
00000070: 87e7 edba 25a4 2ebc e582 9ebb f22e e13c

conv2.weight f4 [64, 32, 3, 3]
0.013367289 0.050486628 0.031386662 -0.03083224 -0.014259738 0.072384834 0.029680112 0.0070386627
0.073511474 -0.008198558 -0.021768473 0.025830984 0.07536621 0.011484717 0.089247026 -0.0053561865
0.0303458 0.08915327 -0.0127600515 -0.028488992 -0.018815616 0.08231014 -0.020468032 0.0550739
-0.020554319 -0.0039642258 0.016001621 0.00078589754 0.022387074 0.019245721 0.004542003 -0.005458739
-0.01975337 0.07675435 0.021044295 0.00868952 -0.037535504 0.05136761 -0.01758429 0.047492642
-0.033745497 0.02954195 -0.04578993 0.04846241 0.010479273 -0.026045902 0.04556362 0.021194452
0.004573705 -0.029059844 0.035515066 -0.045705207 -0.061199453 -0.004998572 0.0048377584 0.004163479
0.025460567 0.03033105 -0.00087257946 0.035872597 0.00770042 0.041831817 0.038020045 -0.047078386
-0.0034145957 -0.016616317 0.023643047 0.053681966 -0.028376082 -0.00556265 0.020867057 0.010074625
0.023129756 0.036769245 0.01397363 -0.0007222372 0.08567573 0.108042106 0.10224723 0.036764067
0.0495442 0.014173875 0.0033155032 0.057867542 0.0063643726 -0.035804465 -0.014048024 -0.005259251
-0.0016712319 -0.023656728 -0.06490155 0.021695761 -0.032018088 -0.027942656 -0.027557012 -0.02730554
-0.06162567 -0.04853706 0.02878047 0.04317033 0.04112706 0.0012759302 0.055408195 0.054313265
-0.015804602 0.026775965 -0.013113084 -0.037233215 -0.019623574 0.005420589 0.06962453 0.07237848
0.055692617 -0.020424077 0.051555187 0.014110304 0.02421306 -0.04720336 0.024047183 0.035452917
0.01391795 0.046122003 -0.022269405 -0.055847257 -0.0436261 -0.010146218 0.034302972 0.056120675
0.00010275637 -0.022079239 -0.037242457 0.060521472 0.007627877 -0.042791337 0.03808821 -0.04532196
-0.05438394 0.0067118807 0.036410473 0.0017383441 0.004948247 -0.046890922 -0.061343066 -0.0152536435
-0.004445276 0.0052771885 0.00027850078 -0.011857592 -0.04162852 -0.0071494733 -0.021472566 0.025527736
0.0668984 -0.027433442 0.047821496 0.042842656 -0.019088194 0.02637156 0.015378212 0.06993006
0.052802812 0.019504936 0.050202314 0.009729288 0.010963316 -0.0047095367 0.05907429 0.033041414
0.06447893 0.024041263 0.094163515 0.062138855 0.021680323 0.02746849 0.07965892 0.09646459
0.09294055 0.04136819 0.047126003 0.122494355 -0.037545346 0.060741983 -0.015657362 0.055125237
-0.007074876 -0.019431617 0.04080569 0.032397356 0.059972703 0.016909689 -0.050042465 0.011169394
-0.018562093 -0.0027787343 -0.06777341 0.0008727731 0.030273173 -0.002197303 0.020756098 0.06453083
-0.036139194 -0.0141454935 0.010650082 0.047098387 0.041710347 0.041967127 0.023538701 0.048310563
0.0048489817 0.07469021 0.06481259 0.06528187 0.06798422 0.07759088 -0.01750055 0.080696344
0.051080015 0.031768907 0.07857904 0.078917824 0.08136266 0.101293504 0.048456844 0.048950423
0.026102101 -0.005038202 0.045951374 -0.031401556 -0.010745304 0.03645842 0.023380052 0.058294017
0.054518443 -0.032337856 0.028625896 -0.05601486 -0.012893118 0.01213461 -0.059861403 -0.052246306
-0.04946529 -0.038069636 -0.070756935 0.01952308 0.036207553 -0.035080507 0.060615968 0.03844033
-0.008965482 0.061491154 -0.009590697 -0.0016014996 -0.011998697 0.060234442 0.042795494 -0.029971741
00000000: 7902 5b3c 11cb 4e3d 4d8f 003d e593 fcbc
00000010: ada1 69bc 803e 943d b523 f33c 95a4 e63b
00000020: 2f8d 963d 3f53 06bc cc53 b2bc 809b d33c
00000030: 9959 9a3d 652a 3c3c 25c7 b63d f382 afbb
00000040: c197 f83c fd95 b63d 890f 51bc bf61 e9bc
00000050: 3523 9abc 3892 a83d 93ac a7bc 2b95 613d
00000060: 8861 a8bc 56e6 81bb d515 833c b104 4e3a
00000070: 1965 b73c 34a9 9d3c 15d5 943b 39df b2bb
00000080: d2d1 a1bc 6231 9d3d 1665 ac3c 7d5e 0e3c
00000090: d4be 19bd d866 523d ee0c 90bc a587 423d
000000a0: b838 0abd f601 f23c 398e 3bbd 8580 463d
000000b0: 42b1 2b3c 375e d5bc eba0 3a3d fd9f ad3c
000000c0: 05df 953b e90e eebc 3f78 113d 6235 3bbd
000000d0: 47ac 7abd 10cb a3bb 0f86 9e3b cb6d 883b
000000e0: ae92 d03c d278 f83c d1bd 64ba 25ef 123d
000000f0: ce53 fc3b d757 2b3d e8ba 1b3d 44d5 40bd
00000100: 69c7 5fbb f11e 88bc 10af c13c 9fe1 5b3d
00000110: f574 e8bc e446 b6bb 64f1 aa3c 0a10 253c
00000120: 9d7a bd3c 599b 163d a7f1 643c 8554 3dba
00000130: c276 af3d 2e45 dd3d ff66 d13d eb95 163d
00000140: dcee 4a3d 8a39 683c ea48 593b 8406 6d3d
00000150: 3a8c d03b b4a7 12bd af29 66bc cc55 acbb
00000160: 3d0d dbba c1cb c1bc 1beb 84bd 4fbb b13c
00000170: 6625 03bd ffe7 e4bc 3ebf e1bc deaf dfbc
00000180: 336b 7cbd ccce 46bd 05c5 eb3c 5fd3 303d
00000190: d974 283d 1d3d a73a b4f3 623d 9677 5e3d
000001a0: a778 81bc 4559 db3c 43d8 56bc db81 18bd
000001b0: 9ec1 a0bc 329f b13b 4e97 8e3d 2b3b 943d
000001c0: f11d 643d 6550 a7bc 882b 533d e82e 673c
000001d0: 785a c63c 4f58 41bd 99fe c43c 1437 113d
000001e0: 1d08 643c 6dea 3c3d 546e b6bc 18c0 64bd
000001f0: 48b1 32bd 533c 26bc 4681 0c3d cbde 653d
00000200: e87e d738 85df b4bc 8c8b 18bd 5de5 773d
00000210: 45f3 f93b f845 2fbd 6202 1c3d 85a3 39bd
00000220: b2c1 5ebd 56ef db3b 2623 153d 26d9 e33a
00000230: e824 a23b b210 40bd de42 7bbd 6bea 79bc
00000240: aea9 91bb 44ec ac3b be03 9239 5846 42bc
00000250: ab82 2abd 2146 eabb 3ce7 afbc 8b1f d13c
00000260: 0702 893d 19bc e0bc 79e0 433d c87b 2f3d
00000270: d85e 9cbc 2b09 d83c e5f4 7b3c 7e37 8f3d
00000280: c347 583d d1c8 9f3c f1a0 4d3d 9767 1f3c
00000290: 7b9f 333c 7552 9abb e2f7 713d 6f56 073d
000002a0: 870d 843d 2ff2 c43c cdd8 c03d 5085 7e3d
000002b0: ef9a b13c 9905 e13c 3724 a33d 3a8f c53d
000002c0: 9d57 be3d b171 293d 3207 413d 52de fa3d
000002d0: 26c9 19bd 96cc 783d de43 80bc 00cb 613d
000002e0: 5dd4 e7bb 0e2f 9fbc de23 273d 17b3 043d
000002f0: f0a5 753d 3086 8a3c 54f9 4cbd d5ff 363c
00000300: 880f 98bc 6d1b 36bb c9cc 8abd d0ca 643a
00000310: 72ff f73c a100 10bb b108 aa3c bd28 843d
00000320: b106 14bd 80c2 67bc ae7d 2e3c 3dea 403d
00000330: 78d8 2a3d b9e5 2b3d 3cd4 c03c 4ce1 453d
00000340: 35e4 9e3b 2ef7 983d 77bc 843d 80b2 853d
00000350: 503b 8b3d f8e7 9e3d 505d 8fbc 2044 a53d
00000360: 4739 513d 1d20 023d 0cee a03d ab9f a13d
00000370: 77a1 a63d f872 cf3d af7a 463d 3d80 483d
00000380: 13d4 d53c 8017 a5bb 8237 3c3d eb9e 00bd
00000390: 120d 30bc 6d55 153d 8687 bf3c b5c5 6e3d
000003a0: bb4e 5f3d b374 04bd db80 ea3c d66f 65bd
000003b0: a83d 53bc 3ed0 463c 3b31 75bd 3900 56bd
000003c0: 1e9c 4abd e8ee 1bbd 03e9 90bd deee 9f3c
000003d0: 5f4e 143d 94b0 0fbd 7348 783d 9c73 1d3d
000003e0: f5e3 12bc 26de 7b3d 4c22 1dbc 69e9 d1ba
000003f0: 2f96 44bc 64b8 763d 544a 2f3d 4c87 f5bc

conv2.bias f4 [64]
-0.008765912 -0.018588021 -0.040571235 0.008135008 0.057801668 0.035162304 0.028460981 -0.068316616
0.029374633 0.015240478 0.03780957 -0.041050073 0.03310064 -0.017340131 0.040683545 0.040827926
0.0036717574 -0.007718568 0.009751422 0.06210591 0.050866585 -0.021184962 0.023808923 0.03981553
-0.014621782 0.0037771377 -0.04793876 0.026710382 -0.067352615 -0.005728429 -0.006744395 -0.057161544
-0.037611254 -0.014881332 -0.02218677 0.009326016 -0.04997927 -0.034390036 0.03137503 -0.039697047
0.003453552 0.012996842 -0.01752098 0.023938458 0.00025986065 0.02132052 -0.07178773 0.0013701189
-0.054935813 -0.020197151 0.049122937 -0.041488845 -0.050850015 -0.060619947 0.03337224 -0.06925492
0.0353776 0.03400997 -0.035725508 0.005525465 -0.006195525 -0.0023651728 0.013032182 0.03501754
00000000: e69e 0fbc e845 98bc 062e 26bd b248 053c
00000010: 71c1 6c3d 5906 103d 0127 e93c 95e9 8bbd
00000020: 12a3 f03c 33b3 793c 35de 1a3d 1f24 28bd
00000030: 8994 073d e40c 8ebc caa3 263d 2f3b 273d
00000040: dea1 703b 0bec fcbb 6ec4 1f3c c462 7e3d
00000050: 7b59 503d 168c adbc ee0a c33c 9c15 233d
00000060: 3390 6fbc db89 773b 6f5b 44bd bbcf da3c
00000070: 2bf0 89bd 8cb5 bbbb 1600 ddbb 3922 6abd
00000080: 420e 1abd d5d0 73bc 07c1 b5bc 25cc 183c
00000090: 10b7 4cbd 91dc 0cbd 1a83 003d 5f99 22bd
000000a0: fd54 623b b5f0 543c 2988 8fbc 961a c43c
000000b0: e83d 8839 5fa8 ae3c 7205 93bd 9095 b33a
000000c0: 6004 61bd 7f74 a5bc 2235 493d 35f0 29bd
000000d0: 1b48 50bd 9f4c 78bd 54b1 083d 86d5 8dbd
000000e0: 1ae8 103d 0a4e 0b3d e954 12bd f60e b53b
000000f0: d503 cbbb 0401 1bbb ef84 553c 8d6e 0f3d

linear.weight f4 [1, 64]
0.08926476 0.040335655 -0.13781457 -0.1663023 -0.18598792 -0.21016511 -0.20804349 0.056807846
0.13878143 -0.1998763 0.10803632 0.13732411 0.17311446 -0.104051605 -0.10860893 -0.17096137
0.10192462 -0.22419955 -0.13065827 -0.16371246 -0.16769017 -0.16709143 -0.19559161 -0.14686656
0.15743594 0.052783526 0.06304715 0.0828268 0.11130405 0.12316751 0.11158092 0.114263386
0.09148149 0.059954226 0.11096501 0.105835535 -0.17942509 0.047795087 -0.10509037 -0.21194267
-0.18714324 -0.12441744 -0.14592117 -0.15605065 0.07251295 -0.15264449 0.1348756 -0.14237994
0.061016917 0.056227878 -0.18153894 0.08347511 0.063194625 -0.07406324 0.04506883 0.10354495
0.050810546 -0.12592493 -0.14185363 0.073165946 -0.16051613 0.12068473 -0.19716746 -0.22507106
00000000: 71d0 b63d 0037 253d 431f 0dbe 264b 2abe
00000010: 9e73 3ebe 8635 57be 5a09 55be 58af 683d
00000020: b81c 0e3e 5fac 4cbe 2542 dd3d b19e 0c3e
00000030: eb44 313e 0219 d5bd 5c6e debd 7f10 2fbe
00000040: dbbd d03d 9194 65be 48cb 05be 3da4 27be
00000050: f9b6 2bbe 041a 2bbe 2b49 48be 3064 16be
00000060: e336 213e 8a33 583d dd1e 813d 19a1 a93d
00000070: 61f3 e33d 3f3f fc3d 8a84 e43d ec02 ea3d
00000080: a65a bb3d 9092 753d a041 e33d 4dc0 d83d
00000090: 36bb 37be c8c4 433d 9f39 d7bd 8007 59be
000000a0: 7aa2 3fbe 92ce febd 5c6c 15be becb 1fbe
000000b0: ab81 943d d64e 1cbe d41c 0a3e 0ccc 11be
000000c0: e0ec 793d 344f 663d 58e5 39be 00f5 aa3d
000000d0: 2f6c 813d 78ae 97bd 189a 383d 600f d43d
000000e0: b81e 503d 77f2 00be 1442 11be 07d8 953d
000000f0: 575e 24be 8e29 f73d 44e6 49be 0779 66be
