concepts_sequential/saved_probes/quietMove_layer_10_probe.pth (torch, 372914 bytes, 5 tensors)

conv1.weight f4 [32, 256, 3, 3]
000000 bd 8b 3e 3c 16 6f 64 3c 78 74 f5 3c 1a 86 9c 3c
       0.011629996 0.013942501 0.029962763 0.019106913
000010 a4 cb 03 3c 2d 2b 80 3c 65 39 97 bc e5 c8 97 bc
       0.008044157 0.015645588 -0.018459985 -0.018528411
000020 76 20 f9 bb 7e 14 46 3b 23 39 62 3c 0e 88 20 3c
       -0.0076027466 0.0030224617 0.013807568 0.009798063
000030 e3 e7 01 3c ca fc 8e bb a4 ac 50 3c 9b e4 91 3c
       0.007928821 -0.004363631 0.012736473 0.017809203
000040 a1 d2 6b 3c b0 b4 7e 3b 84 89 9f 3c 32 dc 12 3c
       0.01439348 0.0038865022 0.019474752 0.0089636315
000050 a2 5b 32 bc 43 f8 d9 bc 73 ea 30 bc e7 d0 70 bb
       -0.010886105 -0.026607638 -0.010798085 -0.003674561
000060 a0 3d cf bb d1 bf 12 3c e2 30 c4 bb e8 b4 14 bd
       -0.006324485 0.008956865 -0.0059872726 -0.03630534
000070 28 fc cd bc ca 60 11 bc 25 09 85 bc 83 12 b5 bc
       -0.025144652 -0.008873174 -0.016239712 -0.022103554
000080 ed 87 da bb 9b 78 4d 3b fe 0b 25 bb e0 50 1b 3c
       -0.0066690356 0.0031352404 -0.002518415 0.009479731
000090 b6 4c f4 3c a8 65 aa 3b f9 bd b6 bb 73 a4 c8 3b
       0.029821735 0.0052001067 -0.0055768457 0.0061231195
0000a0 1e 4b 37 bc f4 59 5d 3b b0 7a 8d bb 41 6d 32 bd
       -0.011187343 0.003377554 -0.004317604 -0.043561224
0000b0 b5 39 ca 3a 66 03 8a bc ea 5e fe bc b0 2a cb bb
       0.0015428575 -0.016847324 -0.031051118 -0.006200157
0000c0 12 5c 53 3c 3a 70 d8 3c e6 06 a2 3c e9 31 c3 3c
       0.012900369 0.026420701 0.01977868 0.02382751
0000d0 8f ac 19 bc 36 65 51 3c 46 bc db 3c c4 24 e4 bc
       -0.00937952 0.012780478 0.026823174 -0.027849562
0000e0 4b b0 95 bb d6 35 da bb 71 29 17 bc 26 b0 c2 bb
       -0.004568135 -0.00665925 -0.009226189 -0.0059414087
0000f0 da 76 a3 bb f4 f1 34 bc 16 75 a4 bc bb be a7 bb
       -0.0049885334 -0.011044014 -0.020075362 -0.0051191724
000100 f6 eb ef bb e2 0b c4 ba 37 ff e6 3b 4e b8 5a bc
       -0.00732183 -0.0014957155 0.007049467 -0.013349606
000110 a2 a8 99 3a 8c 8a 3a bc 9e 36 42 bc aa 99 7e 3b
       0.001172323 -0.011385571 -0.011853842 0.0038848915
000120 5d b3 12 3d b9 62 ee 3c c6 64 98 3c bd 51 3b 3c
       0.035815585 0.029099809 0.01860274 0.011433062
000130 81 de 29 3b cd 7a de 3c a4 5c 9b 3c 39 4f 1b 3c
       0.0025919976 0.027158165 0.018965073 0.009479337
000140 70 81 ad 3c a6 22 70 bc 26 ee 9d 3c 68 21 11 bd
       0.021179885 -0.014656698 0.019278597 -0.03543225
000150 fa c8 8e 3c 73 e0 39 ba af ec 10 3c b3 85 10 3d
       0.017429817 -0.00070906355 0.008845492 0.035283756
000160 8e b4 03 3d 01 2d 6a bc 20 1a 25 3b 15 cb f0 bc
       0.032154612 -0.014292956 0.0025192574 -0.029393712
000170 12 df 7d bc 1d 06 a9 bc 78 6d bf ba af ab 04 3b
       -0.015495079 -0.020632798 -0.0014604768 0.0020243933
000180 a1 78 5b bc 07 a7 28 39 6b c3 e9 bb 1f c3 31 bc
       -0.013395459 0.00016083951 -0.0071338913 -0.010849743
000190 59 e1 93 3c c9 0e 65 3b 0c e4 cb bb 65 d3 39 bc
       0.01805179 0.003495144 -0.0062222537 -0.011341904
0001a0 46 e4 9d bc 1b 39 a0 bc 8c 75 a8 bb f9 53 14 bc
       -0.019273888 -0.01955848 -0.005140966 -0.009053224
0001b0 96 a1 2b 3c a3 56 7c 3c 78 3d 63 3c a1 a4 81 bc
       0.010475537 0.015401515 0.013869636 -0.015825571
0001c0 97 32 07 3d 0b 4e e8 3c 31 bc 77 bc c9 12 06 3d
       0.03300723 0.028357526 -0.015120552 0.03273276
0001d0 49 a7 06 3d 8d e4 f0 bb ac 96 7d bc 32 86 21 bc
       0.03287438 -0.007351464 -0.0154778175 -0.009858655
0001e0 cf fd 80 3c bc 31 94 3c 7f 12 b3 bc cc d6 60 3b
       0.015746025 0.018090121 -0.021859406 0.0034307716
0001f0 e7 29 3c bb 69 37 46 bc 32 c2 9f 3b fb 8c 8e 3b
       -0.00287115 -0.012098172 0.004875445 0.0043503023
000200 d8 ad 93 bc 8a 8b 85 bb 88 0b 51 bb c5 16 1b 3c
       -0.018027231 -0.0040754722 -0.0031897742 0.009465878
000210 e9 b2 93 3c 29 2b 34 bc 9c 81 96 3c c5 1f fc 3a
       0.018029647 -0.010996618 0.01837235 0.0019235542
000220 d6 d1 57 3b 43 7f 54 3c 80 20 14 bc 01 5b 2f 3b
       0.0032931468 0.012969795 -0.009040952 0.0026757123
000230 40 6a 75 3c ba 8e cb bc f5 90 9d 3c 8b 57 a2 3c
       0.014978945 -0.02484833 0.01923416 0.019817134
000240 55 00 1a 3c 01 8b 62 3c 7e 0b ab bc cb f3 ef 3b
       0.009399493 0.013827086 -0.020879503 0.0073227636
000250 b4 84 16 3c aa 4c dd 3b d1 d2 55 b9 c4 1d 88 bb
       0.009186912 0.006753524 -0.00020391798 -0.004153939
000260 44 06 7b 3c 13 7d d3 3c 14 07 6b 3b 1c 30 9c 3b
       0.015321318 0.025816476 0.0035862373 0.0047664773
000270 39 ba 29 bc d9 e2 47 bb 24 59 b7 39 6a 7e a0 3c
       -0.01035934 -0.0030500202 0.00034970895 0.019591529
000280 a0 34 63 3c 7b 88 6c bb ba 6f 43 3c be 2d 01 bc
       0.013867527 -0.003609209 0.011928493 -0.007884441
000290 8f 27 ae 3c a1 03 84 bb 0e 0d b9 3b 39 88 0e 3c
       0.021259097 -0.004028753 0.005647308 0.00869947
0002a0 45 ef cd 3b 33 15 f6 3b a2 8f 1f 3c 95 8c 8a 38
       0.0062846267 0.0075098514 0.009738835 6.606538e-05
0002b0 2a 1f f3 bb ab be 1d bc ec 7f 11 b9 96 4b 91 3c
       -0.0074194865 -0.009627978 -0.00013875932 0.017736237
0002c0 b4 1e f8 3a d1 67 8d 3b a7 9f c5 3b b9 fe 27 bc
       0.0018930049 0.0043153544 0.006030995 -0.010253602
0002d0 a2 e6 95 3c c7 88 93 bc 00 b4 71 bc da 21 d2 3b
       0.01829845 -0.018009556 -0.014752388 0.006412727
0002e0 ab 43 cf 3a 43 0c c6 bb 1e 9e a1 3b 04 3c 67 3c
       0.0015813013 -0.006043942 0.004932179 0.01411343
0002f0 5b 04 b2 3c b0 96 84 bb 6f 7d 34 b9 40 04 96 3c
       0.021730592 -0.0040462837 -0.00017212865 0.018312573
000300 d9 56 6d bc 7a cc 80 bc 0d a5 30 3c 21 bf 5e 3c
       -0.014486038 -0.015722502 0.010781539 0.013595373
000310 a6 a1 dc bb f0 c7 99 bc fe ed e5 bb 02 47 7d bc
       -0.006733137 -0.018772095 -0.0070168963 -0.015458824
000320 cc 1d 5f bb 89 bb 76 bc 74 9c b8 bc 30 5d 81 bc
       -0.003404486 -0.01505936 -0.02253554 -0.015791506
000330 55 24 58 bc 7f 09 a1 b9 f4 c0 d0 bc 2c 61 f0 bb
       -0.013192256 -0.00030715388 -0.025482632 -0.0073358025
000340 ee 91 76 bc b9 be e3 bc 72 72 9f 3b e1 cb a1 bc
       -0.015049441 -0.027800905 0.004865938 -0.019750537
000350 99 c4 e5 bc 51 62 83 bc a9 af 2e bd 9d 28 98 bc
       -0.028047847 -0.016038092 -0.04264799 -0.018574053
000360 23 93 81 bc 5c bf 8a 3c 0e da 76 3c 68 b2 83 3c
       -0.01581723 0.01693695 0.015066637 0.016076282
000370 6e 76 08 bc 07 18 6b 3c d7 b2 69 bc eb bf 9e bc
       -0.008329017 0.01434899 -0.01426383 -0.019378623
000380 63 a0 92 3c b9 07 28 3b d7 c1 3a 3b 0b 0c a3 bc
       0.017898744 0.0025639369 0.0028496885 -0.019903203
000390 46 f7 f5 bb 53 2a a8 39 44 32 03 bd 47 f2 b1 bc
       -0.007506284 0.0003207499 -0.03203036 -0.021721972
0003a0 4b fa 78 ba bc 3a 06 3c a7 1d 23 3c 8e 01 9a bc
       -0.0009497746 0.008192714 0.0099558 -0.01879957
0003b0 48 00 0a 3a 8e 6d e0 bc 97 56 7b bb 8c b3 fc 3c
       0.0005264324 -0.02739599 -0.0038351172 0.030847333
0003c0 56 56 33 3d c3 67 f6 3c f5 c3 d6 3c a5 30 f5 3c
       0.04378351 0.030078774 0.026216486 0.029930422
0003d0 a4 7f 93 3c b5 8d 78 3c 54 73 0b 3c 04 9e 03 3d
       0.0180052 0.015170504 0.008511383 0.032133117
0003e0 3a 03 3d 3c 21 22 1a 3c 38 16 9e 3c a0 6d a8 3c
       0.011536414 0.009407551 0.019297704 0.020560086
0003f0 65 5d 63 3c 21 9c c0 3b d6 15 84 3b 79 f7 d9 bb
       0.013877247 0.005877987 0.0040309234 -0.0066518155

conv1.bias f4 [32]
000000 c1 03 8b bc 9f 73 f4 3b be fd c0 bc b8 22 4a bc
       -0.016969563 0.007460072 -0.023558494 -0.012337379
000010 38 de c9 bb 7d 86 46 bc 4a 42 2b ba 7b 84 e5 bb
       -0.0061605237 -0.012117025 -0.000653301 -0.0070043183
000020 2f 0b 49 bc 8f cd 28 bc e2 2b 8a bc 91 a5 8d 3c
       -0.012270733 -0.010302915 -0.016866628 0.017290862
000030 b6 87 39 b9 c3 f9 da bb 14 8c 9a bc d8 5b 5c 3c
       -0.00017693531 -0.006682606 -0.018865623 0.013449632
000040 77 c8 6a bc 68 9d 3f 3c eb 73 90 bc f9 42 9f 3b
       -0.014330021 0.011695243 -0.017633399 0.0048602787
000050 f7 38 b6 bc 75 59 52 3c 2b 52 1e 3b c6 5a 42 ba
       -0.02224396 0.012838711 0.0024157863 -0.0007414039
000060 29 47 bb 3c fe d7 53 3c 03 49 81 3b 9c ee 14 bc
       0.02286108 0.0129299145 0.0039454713 -0.009090092
000070 a6 20 91 3c 42 68 68 bc a2 78 a9 bc e0 d4 05 b9
       0.017715763 -0.014185013 -0.020687405 -0.0001276317

conv2.weight f4 [64, 32, 3, 3]
000000 43 9a c1 3c 45 81 df 3c 3b f3 34 3d a7 26 23 3d
       0.023633128 0.02728332 0.044177275 0.039831784
000010 3a dd 81 3c 1b bd 37 3d 2f 84 86 3c cf 72 67 3d
       0.01585256 0.04485808 0.016420452 0.056505974
000020 68 c0 42 3d 6c d3 ad bc 06 57 df 3c ca bd 26 3c
       0.047546774 -0.021218978 0.027263176 0.010177085
000030 89 5b 2a 3d cc b5 a3 3d 65 d7 92 bb ce f1 8b 3c
       0.0415912 0.079936594 -0.0044812434 0.017083075
000040 6d 04 4a 3d a7 db 1c 3d 55 4b c4 bd 4f af 9c bd
       0.049320627 0.038295414 -0.09584681 -0.07650625
000050 a2 93 eb bd 1f b4 05 be 78 91 11 bd c4 3d 06 bd
       -0.11502768 -0.13056992 -0.03553912 -0.032773748
000060 da d8 3b bd 72 e1 c0 bd 54 8a d3 bd 8e cf 3a 3d
       -0.045861103 -0.09418 -0.10329118 0.045608096
000070 de c6 25 3d 66 87 bf 3d 77 45 05 3d c3 d6 81 37
       0.040472858 0.09351997 0.03253695 1.5478005e-05
000080 67 50 ac 3c 45 02 b2 3c 0c 28 0b 3d 48 e0 82 3c
       0.021034433 0.021729598 0.03397374 0.015976086
000090 63 c0 8b bc 77 04 81 3d 4f fb 71 3c b5 7a 8a 3c
       -0.01705951 0.0629968 0.014769389 0.016904214
0000a0 d4 83 4a 3c 77 b9 73 3c de b2 43 bc 87 b9 9a bb
       0.012360532 0.014875761 -0.011944501 -0.0047218236
0000b0 16 ab 97 3d f3 b9 69 3b 72 5c 2b 3c 0e 67 07 bd
       0.07405679 0.0035663813 0.010459052 -0.033057265
0000c0 1c e0 05 3c 4f 8e a4 3c 04 c8 5c bd f4 31 d0 bc
       0.008171108 0.02008739 -0.053901687 -0.025414445
0000d0 7d 53 4f bd fd e4 9f bd f9 c6 1c bb 2e 11 f7 3c
       -0.05061673 -0.07807348 -0.0023922308 0.03015956
0000e0 d3 ce b0 3d 50 97 a0 3d a7 0f 92 3d b6 31 40 bc
       0.086331986 0.078413606 0.07131892 -0.011730602
0000f0 8c d3 74 3d 4a a9 f5 3c 83 77 05 3d ad 9e 54 bd
       0.05977206 0.02998795 0.03258468 -0.051909138
000100 d3 46 f9 3b ab 3f 59 3c 9f 11 11 3c c4 a3 e4 3c
       0.00760732 0.0132598085 0.008854299 0.02791012
000110 51 ab 35 bd 8b 11 85 bd 0e 22 84 bd 3f 41 17 bd
       -0.044352833 -0.06497487 -0.06451808 -0.036927458
000120 36 4a f2 bc da 42 a6 ba 9d 86 74 bd 5c 36 b9 bd
       -0.029576402 -0.0012684718 -0.05969869 -0.09043571
000130 04 3e b9 bd 89 44 a0 3b 16 26 90 bd 1d b5 d0 bd
       -0.09045032 0.0048909825 -0.07038514 -0.101907946
000140 8d 8e bc bc 3f 41 2e 39 40 14 91 bc 5c d6 2a 3d
       -0.023017192 0.00016618239 -0.017709851 0.041708335
000150 8d e8 a0 3d d1 34 17 3d 41 c5 19 3d ba 5e 44 3b
       0.078568555 0.036915604 0.03754163 0.0029963688
000160 28 39 a1 bc c9 e4 c8 3c 4e a4 bb 3d bf 2b d1 3d
       -0.019680575 0.024523156 0.09162198 0.10213422
000170 83 a7 ba 3d 9e 45 85 3d 11 41 34 3d 8c b6 94 3d
       0.091139816 0.06507419 0.044007365 0.072613806
000180 ce a3 73 3d 39 68 e5 3d 2f 81 18 3e 50 22 eb bb
       0.05948239 0.112015195 0.1489303 -0.007175721
000190 f1 13 9d 3d f0 c8 8d 3d b4 71 e1 bb 12 a0 48 3d
       0.07669819 0.069230914 -0.0068800095 0.04898078
0001a0 53 ff 17 3d 75 9f aa 3d b4 4d 9b 3d b2 94 31 3d
       0.03710873 0.08331195 0.0758318 0.043354698
0001b0 f7 33 85 3d 45 46 0a 3d 66 5b f1 3c ae fd bd bb
       0.06504052 0.03375842 0.029462527 -0.0057980632
0001c0 16 d7 90 3d 74 71 1f 3d 51 c9 7a 3d e9 4e 05 3d
       0.070722744 0.038926557 0.061227147 0.032545958
0001d0 a9 7d c5 3d d2 e0 71 3d 24 8f 09 3d cf c5 f2 3c
       0.096431084 0.059052296 0.033583775 0.029635338
0001e0 b1 46 7a 3d 26 56 c4 3d d0 03 b3 3d c3 88 c1 3c
       0.061102573 0.09586744 0.087409616 0.023624783
0001f0 e8 f6 3a 3d 75 23 ef 3d 49 c7 d0 bd 3b 81 2c bb
       0.045645624 0.11676685 -0.101942606 -0.0026322145
000200 0b f5 a5 bd eb 6e 87 bc f4 59 8b bd 5e e7 a6 bd
       -0.08103379 -0.016532382 -0.068042666 -0.081495985
000210 67 f9 00 bd b0 33 ed bc 38 99 a8 bb 11 60 10 bd
       -0.03148785 -0.02895531 -0.005145218 -0.035247866
000220 9e cb d0 bd 31 88 31 bd 8b 44 7d bd 78 5d 32 bd
       -0.10195087 -0.043342773 -0.061832946 -0.04354617
000230 83 32 e0 bd d2 35 27 bd 3c fb 5f bc 41 7d 58 bd
       -0.10947134 -0.04082281 -0.013670739 -0.052853826
000240 63 8d 4a bd 7c 70 5f 3a e1 4d cd bd 4d 22 b1 bd
       -0.049451243 0.00085235364 -0.1002462 -0.086491205
000250 38 a1 4d bd 1a 85 81 bc d7 67 29 bd a7 5b f6 bc
       -0.05020258 -0.015810538 -0.041358795 -0.030073
000260 11 c9 53 bd bb 6d 9f 3c c4 8e c1 bc 11 4c 2b 3d
       -0.051705424 0.019461503 -0.023627646 0.04182059
000270 f8 17 d7 3c b2 23 e8 3c 15 43 f6 3c d5 d7 09 3d
       0.026256546 0.028337333 0.030061284 0.0336531
000280 43 b5 6e bd 9b 4b 19 3d b3 9d 82 bc 05 28 eb bc
       -0.058278333 0.03742562 -0.015944337 -0.028705606
000290 72 b2 26 3c 31 42 3e 3b ba 8b 60 3c 7d 1d f1 3c
       0.010174381 0.0029031152 0.013705188 0.029433006
0002a0 d0 a9 1e bd 0a 28 cf bc 3e f0 52 bd 78 36 8a bd
       -0.038736165 -0.025287647 -0.051498644 -0.0674867
0002b0 d6 86 61 bc 0a 5b cc bd 06 e5 b7 bd 76 09 03 bd
       -0.013765058 -0.09978302 -0.0897923 -0.031991445
0002c0 60 48 5c bd 9a d1 14 bd 9e e1 00 bd ff 65 f9 bd
       -0.05377996 -0.036332704 -0.031465165 -0.12177657
0002d0 20 a0 44 3c 07 cd 93 bd a6 7f ea bc d5 40 80 3b
       0.012001067 -0.0721684 -0.02862532 0.0039139786
0002e0 88 9a 89 bd 40 fb 65 bd 82 64 76 bd f4 58 47 bd
       -0.067189276 -0.056147814 -0.060154445 -0.048668817
0002f0 90 0a a2 bd 6c 30 da bc e3 61 b1 bc d7 ba a8 bd
       -0.07912171 -0.026634417 -0.021653121 -0.08238762
000300 5e 3d 0e 3b 6d f6 e3 bc ce 95 84 bd 58 5f aa bb
       0.0021704058 -0.027827466 -0.064738855 -0.005199354
000310 91 d5 a7 bd f1 b1 8f bd bb e6 01 3d af 42 df 3d
       -0.081950314 -0.070163615 0.031714182 0.10901391
000320 c3 c2 b0 3d 16 0a 86 ba 6a 91 c9 3d 79 bd aa 3d
       0.08630898 -0.0010226395 0.09842189 0.0833692
000330 3b 03 cc 3d e7 ca b0 3d cf 8c 5f 3d 70 ee ac 3b
       0.09961554 0.086324506 0.054577645 0.0052774474
000340 b9 e2 2c 3d 28 a1 15 3b f6 75 95 3c cf a9 e1 3c
       0.042208407 0.0022831652 0.018244725 0.027546791
000350 7a f7 2b 3d 07 4e 10 3d 75 ab 8d 3c db cc 7f 3d
       0.04198406 0.035230663 0.017293671 0.062451225
000360 9c 1b 92 3d f2 e8 bf 3d af 74 d5 3d 21 b5 a1 3c
       0.07134172 0.09370603 0.10422646 0.01973969
000370 29 e3 36 3d 1d a3 82 3d d8 27 8a 3d c5 13 bc 3d
       0.04465023 0.06378768 0.06745881 0.09183458
000380 42 b4 cd 3d 32 f0 48 bb 03 9a c2 3d 6d 2d de 3d
       0.10044147 -0.0030660746 0.09502032 0.10848508
000390 bf 56 dd 3d 6a 03 3c ba f6 ad c7 3d a0 bf 7b 3d
       0.10807561 -0.00071721396 0.09749977 0.061462045
0003a0 fd 93 e7 3c 3e f8 3e 3d cd bf aa bd 65 15 7d bd
       0.028268808 0.04662346 -0.08337364 -0.06178798
0003b0 34 52 01 bd 8b 7e 60 bc 45 d8 aa bc 0b 7c 57 bd
       -0.031572536 -0.013702045 -0.020855078 -0.05260853
0003c0 5f 31 90 bb 77 19 ba bd 27 7e 83 bd 8b b8 f2 bc
       -0.0044004167 -0.09086888 -0.06420546 -0.029629013
0003d0 b2 15 20 3a ce 2f c6 bd f6 43 9e bd c7 b6 f4 3b
       0.00061067485 -0.09677087 -0.07727806 0.007468078
0003e0 e2 ff 99 bd 92 8f 4a bd 52 7c c0 bd f6 ec bb bd
       -0.07519509 -0.049453326 -0.09398712 -0.09176056
0003f0 5e d0 a3 3d d0 d8 c3 3c 46 a7 8e 3d e8 b3 29 3d
       0.07998727 0.023907095 0.069654986 0.041431338

conv2.bias f4 [64]
000000 08 57 64 3d 06 14 34 bd d9 d5 3f 3d 00 7b d7 3c
       0.055747062 -0.04396441 0.0468348 0.026303768
000010 b2 2b 27 bd ae 4a a7 3c 2e 09 16 bc ab e0 87 3c
       -0.040813155 0.020421352 -0.009157462 0.016586622
000020 23 51 1d 3c b7 c4 9d 3c 4c db 38 3c a1 a3 13 3c
       0.009601864 0.01925884 0.011282753 0.00901118
000030 27 52 a9 bc b1 2b e8 bc 52 3d c1 bc d2 22 4f bd
       -0.020669056 -0.028341146 -0.02358881 -0.050570317
000040 15 34 0b bd d3 1e 5c 3b 04 4a 5c 3d bd 35 2c bd
       -0.033985216 0.0033587709 0.053781524 -0.042043436
000050 fc 3f 16 3d 66 52 27 3d 46 9f 5b 3d df db 9e 39
       0.036682114 0.040850066 0.05361869 0.00030299925
000060 37 89 23 3b 96 59 e7 bc 74 c0 b2 3c 35 06 5c bd
       0.0024953613 -0.02824096 0.021820284 -0.053716857
000070 4f 48 2a bc 76 9e a6 bc a2 4f 01 bd 08 0e d5 bb
       -0.010393216 -0.020339232 -0.031570084 -0.006501917
000080 b1 f5 90 bc 98 3e b6 bc ec b0 81 3d b7 fb fc 3a
       -0.01769528 -0.022246644 0.06332573 0.0019301091
000090 36 b4 d9 3b 9b 41 b2 3c 5f 45 19 3d 69 1a 3c 3d
       0.0066437973 0.021759799 0.037419673 0.045923624
0000a0 42 4a 18 3d ea 0c e7 3c 75 bb 96 3c 2b 5b 42 3c
       0.037180193 0.0282044 0.018399933 0.011862556
0000b0 91 ca d1 3c ea e2 87 3c 86 32 11 bd a3 1d e1 b9
       0.025609287 0.016587693 -0.035448574 -0.00042937425
0000c0 34 f9 9c 3b 83 c5 95 bc a1 7f 1a bd 1f 68 39 3b
       0.0047904495 -0.018282657 -0.037719373 0.002829082
0000d0 9e 2f f6 bb 3f 04 bb bb 0f e1 b4 3c 68 a1 87 bc
       -0.0075130006 -0.0057072933 0.022079973 -0.016556457
0000e0 c5 b5 18 3d 71 a1 9f bb de 14 8f 3b 47 d5 17 3c
       0.037282724 -0.0048715402 0.0043665012 0.009267158
0000f0 2d 4a 97 bc 01 a0 fd 3c fe 71 91 3a 9f ac d5 39
       -0.018467987 0.030960085 0.0011096594 0.0004075514

linear.weight f4 [1, 64]
000000 69 c1 a5 3d 96 8b 16 3e f7 fc 97 3d 72 33 ee bd
       0.08093531 0.14701685 0.07421296 -0.11630906
000010 24 d2 f8 bd aa c5 d4 3d 3e 27 0e be 37 1d 05 3e
       -0.12149456 0.10389264 -0.13882157 0.12999426
000020 13 dc fc bd 04 75 45 be 14 32 4e be a9 dc 04 be
       -0.12346663 -0.19282919 -0.20136291 -0.129748
000030 94 06 22 be fa 44 e8 3d 7e 53 1a 3e 21 1f 0d be
       -0.15822822 0.11341281 0.15070912 -0.13781406
000040 f8 0b 0a be e5 ba 18 be 3e ff 16 3e 69 e9 1f be
       -0.13481128 -0.14915045 0.14745805 -0.15616383
000050 68 cf 39 3e d3 06 24 be 27 cc c2 bd c9 c2 fd 3d
       0.18145525 -0.16018228 -0.09511595 0.12390668
000060 0e 56 1b 3e c7 70 1d be 81 62 18 be 7a c5 19 be
       0.15169546 -0.15375052 -0.14881326 -0.15016738
000070 13 c0 e5 bd 99 39 32 3e 82 76 4a be 9d 4d 9f 3d
       -0.11218276 0.17404784 -0.1977177 0.077784754
000080 86 27 12 be a6 67 14 be 47 dc 01 3e 6c 60 45 be
       -0.1427289 -0.14492664 0.12681685 -0.19275063
000090 00 9a 00 be b7 17 09 3e 8f 95 e0 3d 6c 8e 20 3e
       -0.12558746 0.13387953 0.10966026 0.1567933
0000a0 ae 92 f7 3d 8b 8b 26 3e 29 30 35 be ad 60 fb bd
       0.12088524 0.16264169 -0.17694153 -0.12274299
0000b0 f2 b7 db bd d0 02 df bd 15 7a 0d be 60 52 1c be
       -0.10728444 -0.10889208 -0.13816102 -0.15265799
0000c0 0b b5 46 3e 90 53 00 3e f5 92 c4 bd a1 b5 15 be
       0.19405 0.12531877 -0.09598342 -0.14620067
0000d0 e7 fb ae 3d 05 97 08 3e 86 43 0e 3e 3c 1e 49 be
       0.0854414 0.1333886 0.13892946 -0.1964044
0000e0 85 cd 42 be c1 b0 26 3e c3 2a 25 be fa 33 16 3e
       -0.19023712 0.16278364 -0.16129594 0.14668265
0000f0 bd 9a d5 3d c1 24 e5 bd e9 b0 49 be 23 1e 4e 3e
       0.104299046 -0.11188651 -0.19696392 0.20128684
