concepts_sequential/saved_probes/sacrifice_layer_10_probe.pth (torch, 372914 bytes, 5 tensors)

conv1.weight f4 [32, 256, 3, 3]
00000000: 6ee7 7e3c 1376 0f3d 3886 8a3c d872 513d
00000010: 3cb7 123d 9eae 3e3d c902 8d3c e881 453d
00000020: 191f 763c 8c8e d5bc 8c32 283c 57ee 043c
00000030: eb79 02bc ce9a 45bc 3e57 8c3a af89 a8bb
00000040: acf8 ed3b 2d66 d63b aa6c 783c 2f6d d63c
00000050: 94d6 653c ba26 843c c1fe 903c a979 0a3d
00000060: f496 b63a ff2f 9e3c 2c41 843c 88cf 60bd
00000070: 34d3 0ebc 71eb 98bd 8eac 123d 8f4b 2dbd
00000080: 3ed7 723d 3a0a e63c 0593 513d 00ef 6f3c
00000090: 846c 473d 9a43 6e3d dc0f 343c 3340 8aba
000000a0: ce9c c03c a360 d0bb 9426 3c3c 5513 303c
000000b0: 199c 143c 78d1 973c e244 d93c d4ba 643c
000000c0: e42c 1b3d 84c1 abbc 696f 9a3b a2c0 6f3c
000000d0: 2ec9 793d bdfe d53c 31c4 0fbc 6ee4 c3bb
000000e0: 5c4c 443c cb6b 05bc dfb9 1b3a 037a 8ebc
000000f0: e273 4e3c 417c ffbc 1538 b2bb 39c3 bf3a
00000100: 12d1 393c 0333 f8bb fa6f 9b3c b6e9 78bc
00000110: 954a fabc abe0 46ba b262 ef3c 758b 903b
00000120: 134c 4b3c ea69 febc 931e b2bc a275 b1bc
00000130: 4a2d dcbc 0ecd 193c 1e86 05bc c210 e3ba
00000140: a4b4 eebc c10b d63c 8c0c 413c a201 8f3c
00000150: 9c00 53bc 3e9c 24bc 31ca af38 911d 93bc
00000160: 05e4 70bc eb09 773c 48aa f23b 6bba ffbc
00000170: 166b 6d3c 7fb2 eebc ea8e 56bd e207 32bd
00000180: 0043 073d dde8 32bd 2515 c9bc 6b86 d1bc
00000190: b166 ea3b ec4c ef3b 420e 6fbb 2678 67bc
000001a0: 0386 333c df07 12bd 4a7d 91bc 0309 1ebc
000001b0: 7312 173b d560 86bb c8da 063d 141c ecbc
000001c0: 0908 49bd 4102 48bd 2b31 1ebd 11f7 cebc
000001d0: 2f51 aabc 5d8b f33c 580f 09bc af90 19bd
000001e0: 4a35 183c 9c02 973b 3ac0 4dbd 1313 263d
000001f0: e07e c6bc 9e7e 83bd 3a07 23bc 3e76 f0bc
00000200: 2cf3 0c3d cf96 3dbb 4dc8 8d3c 920a 673c
00000210: 0260 7fbc ae79 b93c 8c05 d13b 9024 a5bb
00000220: fb12 20bd c947 13bd 1fb8 1b3d cdbe 603c
00000230: fe5d 033d 93d0 1bbd 4526 753c 8567 fa3b
00000240: fef1 5fb6 46b2 6e3c a655 c43c f1e3 9a3c
00000250: d4f1 fbb7 6103 b7bc 74ba 9f3b b777 503c
00000260: 522f 99bc 1ea2 b6bc 9727 933c 3cf6 d9bc
00000270: 1bda 35bb c983 ba3a 2508 c03b 6af0 babc
00000280: 33fc 1d3b ba36 483a ee78 80bb 9eee f7bc
00000290: 2233 a6bb 318a abbc bc3b cdbc f8ce ea3a
000002a0: 5806 60bc 01ba cbbc 9d9b bebc ad4a db3c
000002b0: 9c42 a13c a842 ed3a ba47 083c b597 043c
000002c0: d4b7 c7bb 93aa cf3a 376e e4ba 2e0e 08bd
000002d0: dd9e 24bc d656 0fba a20c 1cbc 3d0a 17bc
000002e0: 5633 273c 45c0 5e3c d47e b13b 92ca cebb
000002f0: c561 f9bb df7b a13b bd05 a2bb 5ea4 ec3b
00000300: d5ee 483c ee14 bd3c 51f7 2a3b 5a58 b3bc
00000310: 7e82 44bc bbb3 4ebc 7631 0fbc fcb3 5b3b
00000320: 8c64 d9bc 32e5 caba ba2a 383c d450 ab3c
00000330: fb6f a5bc 1514 863b fad0 c9bb ba48 b8bc
00000340: aa0b 5fbc 1df7 60bc 09df e13c ecf8 74bc
00000350: 005b 5a3c 45ea 68bc dbaf b73c 6b20 713d
00000360: c282 ae39 c3af bcbb 4070 1ebc 7e94 913c
00000370: a651 7f3b dd00 383d 5022 bcbb 206c 16bc
00000380: 2e60 92bc 5a16 063d 617d 353b 7436 dc3c
00000390: 07e6 81bd a5da 86bd 0cdc 8cbd 2267 65bb
000003a0: 6348 4dbd 5021 9dbc 668a 593c 6670 553c
000003b0: d47e 333b 2aac 1c3c 8a10 81bc 270f 1d3c
000003c0: 44bc 74bc 48b3 383c 3f6e 6c3c 0fd9 c5bc
000003d0: 71d8 a63b fb07 30bc 5c24 abbc 4929 7bbb
000003e0: beef eebc 0890 313c ee77 f1ba a45b bfbc
000003f0: 3375 82ba 9593 9ebb 0c64 993c d182 7bbc
0.015558107 0.035024714 0.016909704 0.051134914 0.035819277 0.046553247 0.017213242 0.04821959
0.015022063 -0.026068948 0.010265958 0.008113465 -0.007963638 -0.012060834 0.0010707153 -0.0051433663
0.00726231 0.006542942 0.015162626 0.02617511 0.01402821 0.016131748 0.017699601 0.03380743
0.0013930486 0.019309996 0.016144358 -0.054885417 -0.008717347 -0.07466782 0.035809092 -0.042308386
0.059287302 0.028081048 0.0511656 0.014644384 0.048687473 0.05816994 0.010990109 -0.0010547697
0.02351227 -0.0063591762 0.011483807 0.010746797 0.00907042 0.0185325 0.026522104 0.013960559
0.037884608 -0.020966299 0.004712988 0.01463333 0.060982876 0.026122445 -0.008774803 -0.0059781587
0.011981096 -0.008143376 0.0005940478 -0.017392164 0.012600871 -0.031187179 -0.0054388144 0.0014630324
0.01134135 -0.0075744404 0.018974293 -0.01519244 -0.030553142 -0.0007586579 0.029221866 0.004411156
0.012408274 -0.031056363 -0.021743095 -0.021662537 -0.026877064 0.009387268 -0.008149652 -0.001732372
-0.02913887 0.026128652 0.011782777 0.017456833 -0.012878563 -0.010047017 8.382311e-05 -0.017958434
-0.014702802 0.015078048 0.007405553 -0.03121682 0.014490863 -0.029137848 -0.052382387 -0.04346455
0.03302288 -0.043679107 -0.024546215 -0.02557679 0.007153355 0.007302871 -0.0036477004 -0.014127767
0.010957244 -0.035652038 -0.017759938 -0.009645703 0.0023051768 -0.0041008987 0.03292349 -0.028821982
-0.04907993 -0.048830274 -0.03862111 -0.025264295 -0.020790664 0.02972954 -0.008365475 -0.037491497
0.009290049 0.0046084654 -0.05023215 0.040545534 -0.02423042 -0.06420635 -0.009950453 -0.029353257
0.034411594 -0.0028929 0.017307425 0.014101641 -0.015586855 0.02264103 0.006378835 -0.005039759
-0.0390806 -0.03595713 0.03801739 0.013717365 0.03207206 -0.03804071 0.014962737 0.007641735
-3.3370447e-06 0.014568871 0.023966622 0.018907519 -3.0034142e-05 -0.022340478 0.004874522 0.012723855
-0.018699322 -0.0222941 0.017963214 -0.026606672 -0.002774841 0.0014229949 0.005860346 -0.022819716
0.0024106621 0.00076375494 -0.003920666 -0.030265149 -0.0050720135 -0.020939918 -0.025052898 0.0017914465
-0.0136733875 -0.024868967 -0.023267562 0.026769007 0.019685082 0.001810153 0.008317882 0.00809281
-0.006094912 0.0015843682 -0.0017427866 -0.033216648 -0.010047642 -0.00054679567 -0.009524496 -0.00921875
0.010205111 0.013595645 0.0054167304 -0.0063107694 -0.007610532 0.0049280967 -0.0049445317 0.0072217425
0.012263973 0.02308127 0.0026087353 -0.021892715 -0.011994002 -0.012616093 -0.00873982 0.0033524027
-0.026537202 -0.0015479682 0.011240656 0.020912565 -0.020194998 0.0040917494 -0.006158945 -0.022495616
-0.013613621 -0.013730791 0.027572172 -0.014951926 0.01332736 -0.01421601 0.022422722 0.058868807
0.00033285288 -0.005758257 -0.009670317 0.017771002 0.0038958578 0.0449227 -0.005741395 -0.009181052
-0.017868128 0.03273616 0.002769314 0.026881434 -0.06342702 -0.06584672 -0.06877908 -0.00350041
-0.05011786 -0.019180924 0.013277626 0.013027286 0.0027388828 0.0095625315 -0.015754957 0.009586132
-0.014937464 0.011273213 0.014430582 -0.024151353 0.00509172 -0.01074409 -0.020891361 -0.0038324168
-0.029167052 0.010837562 -0.0018422583 -0.023359127 -0.0009953141 -0.0048393705 0.018724464 -0.015351013

conv1.bias f4 [32]
00000000: 806b 2dbb 7803 7e3c ec56 c13b f268 a6bc
00000010: ed73 b6bb 0193 cb3c 6ebe 93bc cd62 e73a
00000020: d602 9c3c 9f19 f73b c65b 6dbc 64dd 5c3c
00000030: 1935 443b 2be4 a8bc 7f6e 953b cbcb 96bc
00000040: 0674 933c 3121 b73b a1ce 1bbc 47b2 aa3c
00000050: a12b 303c fcb2 fb3b 497b 343c aaae 3bbc
00000060: 5903 783c a63e b3bc e546 313b 8fa6 aebc
00000070: bb53 cabb 87ca 28bc b840 edbb bab3 b3ba
-0.002646178 0.015503757 0.0059002545 -0.020313714 -0.0055680186 0.02485037 -0.01803514 0.0017653346
0.019044321 0.007540896 -0.0144872125 0.013480518 0.0029938875 -0.020616611 0.0045602913 -0.018407723
0.01799966 0.0055886735 -0.009509713 0.020836962 0.010752589 0.0076812487 0.011015722 -0.011455217
0.015137517 -0.021880459 0.0027050313 -0.021319656 -0.006174532 -0.0103021925 -0.007240381 -0.0013710179

conv2.weight f4 [64, 32, 3, 3]
00000000: 8bd5 003d fb4a c23d 7da5 d33d 15ca 033e
00000010: dd49 ce3d 64d2 1e3e 4355 6e3d d78c 993d
00000020: 1edc dc3d f197 a7bc d65a 42bd 6f4f 443b
00000030: 54f6 9bbd ab84 5ebc dbb7 ed3b fa22 7b3c
00000040: be4f fdbc 9cdc 96bd 1988 b23d ecaf 7b3c
00000050: 5965 bd3a ff6b 49bc 3a86 403d 5d9b 9f3d
00000060: 6522 be3d 5237 943b 5981 973d a023 edbc
00000070: 3f9c 57bd 72ae da3b cd93 39bd e9b2 98bd
00000080: ede7 2cbd 35fe 74bd 1007 b2bd 4160 91bc
00000090: 9e74 9f3d 3ec1 fd3c 7022 833c cf13 cbbc
000000a0: b49d 5a3d 75b4 7dbb 778a 5a3d c479 1b3d
000000b0: 7469 c83d 5b74 c83c c8e5 ec3c 24f3 f03c
000000c0: 5868 8f3d a252 3c3d 131b fdbc 339c c83c
000000d0: 08a4 d2bc 758b 6e3d 910d 28bd 80b9 4bbd
000000e0: 5d3e 053a f293 773c 0bf1 92bd b502 a4bd
000000f0: 8123 e7bc 8913 123c 53fb a73c 2574 7f3d
00000100: 16b0 c1bc eabc 303d 400b 3f3d 6428 a03b
00000110: 2df3 063d fb35 01bd f4cc 18bd 6311 4abb
00000120: 8d0f 553d ad98 7fbc 733b db3b c0ab a43c
00000130: 7c5d abbc 7c5b 9c3d 0630 6ebc 093a ab3d
00000140: 6fea 233c 1315 8b3c e837 06bd 8e04 563d
00000150: eb6e fabc f2b8 d03c 2e54 70bc d44b 663d
00000160: a76b ffbb d5c4 303c c50b bb3b fd1e 4dbc
00000170: 9484 16bb 6de2 663d 0205 5fbb 1a43 003d
00000180: 486b c3bc 0eae 783b 2a8f 393d 9607 16bd
00000190: 3985 8bbd 2bf9 e73b 62b7 4cbd a164 9abd
000001a0: 1f19 94bd 0aff edba 09a2 54bd 993f 91b9
000001b0: bd82 193c 3813 6d3d 1583 953c b089 903d
000001c0: 572c 12bd 2b5a b5bc 4802 683d 0588 32bb
000001d0: d63e 503d a170 e23c 0d53 4e3d 1fa5 d43c
000001e0: e9cd 573d 92cc cb3b 363d d23c 727d ab3d
000001f0: 03a8 1c3d d894 82bc ed04 1c3d 05e2 86bc
00000200: bf33 90bd 79b2 c33a 9524 103d 9cd9 8ebd
00000210: 5a02 133d 0230 d63a a168 7dbd 3ab4 a13d
00000220: 9b84 233d a4ea 2e3d 7e01 713c 5e55 ba3d
00000230: e46e 5d3c 7997 b43d 1525 a43d d245 1f3d
00000240: 8d6b 86bc 6a25 e1bb 43ea 56bc a548 84bd
00000250: 044d 9b38 06e9 80bd 9dd1 a7bd 0ff5 7c3c
00000260: d715 11bd 4df2 b3bc a04b 2cbb d023 18bd
00000270: 797b 3a3d e0fb 87bc 0fd2 31bd b5e9 843a
00000280: f709 653d c314 cbbb 74df 803d 4c18 9c3d
00000290: 19c8 923d 3efa 233d 41f0 a0ba 5b05 e83b
000002a0: 6cad 083d 8639 713c 0eae aa3d d83f 413d
000002b0: c5d1 2a3d 5dcb a53d c8c7 0d3d a758 3f3c
000002c0: f979 7d3c fbcd 8e3d 7d20 79bb 0270 403c
000002d0: 47b1 13bd 40f8 013d 963d 4d3d 2c96 6e3d
000002e0: 4409 beba 075d 9f3c 6198 d2bc ec05 42bb
000002f0: bd8d 623c a45f 59bd 0f2f 95bd ae12 a2bb
00000300: 6a1f a7bd d406 903c 2420 6ebc f007 d6bc
00000310: 4750 27bd 8b34 78bd 559c 963d ca50 233d
00000320: d5ff 823d d85b 6d3d 3e1b 793d 691e 4a3d
00000330: 033a 0d3d fd5b 323d 6389 ce3c 6d72 8dbc
00000340: 8c49 163d ad35 78bc ad0e 07bd e6ae 9f3c
00000350: fd25 913c f298 053d 494a b5bc 1939 d9bc
00000360: 4147 ae3d f6a9 6fbc daa2 963c e4a2 e53c
00000370: cc2e 5e3d d165 c73d a9ab 453c d04b 8f3c
00000380: 6a72 4e3c 1f5b 123d 3b30 04bb 5444 c4bc
00000390: 3285 fc3c 5f0b 0a3d 792b 36bd bb7d 0bbd
000003a0: e1d9 c43c 5d51 c7bc 719a 083d 9ef4 6cbd
000003b0: 5b26 823c 6324 303d 0ac5 49bd 0d40 84bd
000003c0: 99ee 31bc 151b bb3b d602 babc e737 85bb
000003d0: 61bf c3bc 9635 48bd ced5 d73b 27c5 50bd
000003e0: e695 09bd ce23 afbd 7a63 91bd f2a8 503c
000003f0: 5c05 063d 7ed8 a8bc b1d0 83bc f741 7cbd
0.03145365 0.09486958 0.10334299 0.12870057 0.10072682 0.15509945 0.05818678 0.07497566
0.107841715 -0.020458193 -0.04744991 0.0029954573 -0.07615343 -0.013581435 0.0072545833 0.015328163
-0.030921813 -0.07366297 0.08717365 0.015361767 0.001444976 -0.012293815 0.04700301 0.07793305
0.09283904 0.0045231963 0.07397718 -0.028947651 -0.052639242 0.0066736275 -0.04530697 -0.074559994
-0.04221337 -0.059812743 -0.08692753 -0.017746093 0.07785915 0.030975934 0.016007632 -0.024789719
0.053373054 -0.0038712297 0.053354707 0.03795792 0.097857386 0.024469545 0.028918162 0.029412813
0.07002324 0.045977242 -0.030896699 0.024488544 -0.025712982 0.058238465 -0.041028563 -0.049737453
0.000508284 0.0151109565 -0.071748815 -0.08008329 -0.028215172 0.00891579 0.020505583 0.062366623
-0.023643535 0.043148912 0.04664159 0.0048876274 0.032946754 -0.03154562 -0.037304834 -0.0030833117
0.052016784 -0.015600366 0.0066904365 0.020101428 -0.0209186 0.07634637 -0.014537817 0.08360679
0.010004624 0.016977822 -0.03276816 0.052250437 -0.030570468 0.025478814 -0.0146685075 0.05622466
-0.0077948156 0.010789116 0.00570819 -0.012519595 -0.0022967206 0.05636828 -0.0034030084 0.031313993
-0.023854867 0.0037945542 0.045302548 -0.03662833 -0.068125196 0.0070792637 -0.049979575 -0.07538725
-0.07231354 -0.0018157673 -0.05191234 -0.0002770394 0.009369549 0.057879657 0.018250981 0.07057512
-0.035686817 -0.022137722 0.0566428 -0.0027241718 0.050841175 0.027641596 0.050372172 0.025957642
0.052686606 0.006219455 0.025663953 0.08373536 0.038246166 -0.015940115 0.038090635 -0.016465196
-0.0704112 0.0014930508 0.035191137 -0.069750994 0.035890914 0.0016341212 -0.06186736 0.078957036
0.039921384 0.04270424 0.014709828 0.09098314 0.013515208 0.088179536 0.08014885 0.038884945
-0.016408706 -0.006870915 -0.013117376 -0.06459168 7.405321e-05 -0.06294446 -0.081942774 0.015439286
-0.03542122 -0.021966124 -0.0026290193 -0.03714353 0.04552791 -0.016599596 -0.043413218 0.0010140451
0.055917706 -0.0061975433 0.0629262 0.07621822 0.07167072 0.04003357 -0.0012278632 0.0070807165
0.033368513 0.014723187 0.083339795 0.047180027 0.041703958 0.08095429 0.034614354 0.011678851
0.015470975 0.069728814 -0.003801375 0.011745455 -0.036057737 0.03173089 0.05010756 0.058248684
-0.0014498611 0.019453539 -0.025707426 -0.002960558 0.013827738 -0.053069726 -0.07284366 -0.0049460744
-0.08160289 0.01758138 -0.01453403 -0.026126832 -0.040848043 -0.060596984 0.07354037 0.03987197
0.06396452 0.057948917 0.060816996 0.049345408 0.034479152 0.043544758 0.025211995 -0.017266477
0.036691234 -0.015149516 -0.03297298 0.019492578 0.01771831 0.032616563 -0.022130148 -0.026516484
0.08509684 -0.014627924 0.0183882 0.028031774 0.054243848 0.09736217 0.012064853 0.017492205
0.012600521 0.03573143 -0.002017035 -0.023958363 0.030825231 0.03370225 -0.044475053 -0.034055453
0.024029674 -0.02433079 0.03335041 -0.057850473 0.01588743 0.04300345 -0.049260177 -0.06457529
-0.010860109 0.0057100155 -0.02270643 -0.004065502 -0.023894968 -0.04887923 0.006586767 -0.05096927
-0.03359022 -0.08551751 -0.07099052 0.012735592 0.032719955 -0.020611044 -0.016090723 -0.061586346

conv2.bias f4 [64]
00000000: 8e05 6dbd e139 b73b 04b7 093c 3f9e fcbb
00000010: 2313 c5bc d511 3f3a 32c2 57bd 759e 2e3d
00000020: 03e5 293d 2d04 1e3d 26b2 e43c d5ee 84bb
00000030: 3fec 873c 0532 2bbd ef81 b4bc 5bd6 3fbd
00000040: 7461 88bc bec6 4fbd 8674 c7bc 1df8 50bd
00000050: 150a d4bc d546 3cbd 2d8e acbb 0690 163c
00000060: ef3f 173d ba32 0c3c 45da e3bc 5127 f23c
00000070: 09ac 703b c668 4dbd 14fc 28bb a0ce 333d
00000080: 1c1f 0dbd 925d 2bbd add6 523c c9c9 3c3d
00000090: af20 39bd 1226 243d dbe4 51bd 206d 163d
000000a0: 15c6 2e3d 42fc 533d 7b83 e4bb 1330 c23b
000000b0: 00ac 5ebd 4746 6dbd c2f1 513d 2669 903c
000000c0: aaa5 a33c defe 81bc 348f 00bd 922a 56bb
000000d0: 51ba 0a3c 8b57 dd3c 2783 d23b 44ea 11bd
000000e0: e0c0 65bb 4176 eebc f31f 58bd 86a7 55bc
000000f0: 4d2d c7bc de75 563d 767c 473d e1b4 193d
-0.057866625 0.0055916165 0.008405451 -0.007709294 -0.024056977 0.0007288729 -0.052675433 0.042631585
0.04147817 0.0385782 0.027916979 -0.0040567913 0.016592143 -0.04179575 -0.022034613 -0.046835285
-0.016648032 -0.050726645 -0.024347555 -0.05101787 -0.025883714 -0.04596599 -0.005265972 0.009189611
0.036926206 0.008557016 -0.02781404 0.029559763 0.0036723635 -0.050148748 -0.0025785016 0.043898225
-0.034453496 -0.041837282 0.0128685655 0.046090875 -0.045197185 0.04007537 -0.051243644 0.036725163
0.042669374 0.051754244 -0.0069736815 0.005926141 -0.05436325 -0.05792835 0.05125595 0.017628264
0.019976456 -0.0158686 -0.03138657 -0.0032679182 0.008467273 0.027019283 0.006424326 -0.035623804
-0.003505759 -0.029109122 -0.052764844 -0.013040429 -0.024313593 0.0523585 0.04870268 0.037526015

linear.weight f4 [1, 64]
00000000: b9f9 38be 99f2 173e 0864 1e3e d937 a7bd
00000010: ce42 433e 962e e9bd 63a0 f53d 65eb f23d
00000020: 09cf be3d bbec 4d3e 2cd3 38be d7f9 1d3e
00000030: cd26 a5bd 0425 20be 273a 413e 22a1 533e
00000040: 8358 483e 577b a2bd 53b3 953d 5f40 473e
00000050: b749 c73d f42d 503e f6ac 073e 6a7a c4bd
00000060: c0ab 043e 0230 9cbd 45e9 4c3e e2bb 22be
00000070: 2706 463e 3655 c7bd bc88 303e 66e6 afbd
00000080: c82d bb3d d1f2 283e 6ed0 2bbe 6d9b 2ebe
00000090: f92e 8e3d 0b0d 36be a1f7 373e c333 c33d
000000a0: b415 103e ec7e ddbd 161c a4bd 4824 203e
000000b0: 5522 493e d17a bf3d 7209 acbd 492f 1bbe
000000c0: 7a0f 0cbe 8bb9 f53d 3da9 213e 8cfd 8b3d
000000d0: 2dab 403e 6986 c53d 8f5a 4a3e 016b d6bd
000000e0: 7200 9cbd 0358 32be 7b59 c3bd 501d 3bbe
000000f0: c13e 17be fe56 e5bd e3c3 41be 9a3a 24be
-0.18064012 0.14838637 0.15467846 -0.08164949 0.19068453 -0.11385839 0.11993482 0.11861304
0.093168326 0.20109837 -0.18049306 0.15427338 -0.08064041 -0.1563912 0.1886984 0.20666936
0.19565015 -0.079336815 0.07309594 0.1945815 0.09730857 0.2033003 0.13249573 -0.09593661
0.12956142 -0.07626344 0.2001086 -0.15891984 0.19338284 -0.097330496 0.1723966 -0.08588867
0.091395915 0.16498877 -0.16778728 -0.17051478 0.06942553 -0.17778413 0.17965557 0.09531357
0.14070779 -0.10815224 -0.080131695 0.1563884 0.19642003 0.09349597 -0.08400239 -0.15154757
-0.13677779 0.1199828 0.15787216 0.068354696 0.18815298 0.09644777 0.19761108 -0.10469628
-0.076172724 -0.17416386 -0.095385514 -0.182729 -0.14770032 -0.11198233 -0.18922381 -0.1603798
