concepts_sequential/saved_probes/skewer_layer_10_probe.pth (torch, 372820 bytes, 5 tensors)

conv1.weight f4 [32, 256, 3, 3]
0	0xbce868cb	-0.028370282
1	0xbd092ae2	-0.03348816
2	0xbca67e8e	-0.020324018
3	0xbc8208ce	-0.015873339
4	0x3d144a23	0.036203515
5	0x3b09b5e6	0.002101296
6	0x3c2060ec	0.009788733
7	0x3c7476ac	0.014920872
8	0x3c611bdb	0.013739551
9	0x3c8a21d8	0.016861841
10	0x3b7ecbbf	0.0038878766
11	0xbcbfddea	-0.023421247
12	0x3c61f58f	0.013791456
13	0xbc3d07ed	-0.011537534
14	0x3c0ee1e4	0.008720849
15	0xbcdac8f0	-0.026707143
16	0xbba6a82d	-0.005085966
17	0x3c3b1073	0.011417496
18	0xbb6e8d82	-0.0036400263
19	0x3ca8b38c	0.020593427
20	0x3b0c323c	0.0021392247
21	0xbc0776d3	-0.008268076
22	0x3c868cb9	0.016424524
23	0x3a198f90	0.00058578793
24	0x3a328fb2	0.00068115734
25	0xbc8b41d9	-0.016999172
26	0xbc2ecc64	-0.010668848
27	0xbd0377b4	-0.03209658
28	0xbc2179a1	-0.009855659
29	0x3c7277e7	0.014799095
30	0xbbd94631	-0.006630682
31	0xbc265d84	-0.010154132
32	0xbc091aa9	-0.008368173
33	0xbcc0add0	-0.02352038
34	0x3c908b81	0.017644646
35	0x3d2cb8df	0.042168494
36	0xbcc5a0b9	-0.02412449
37	0x3cbcfa81	0.023068668
38	0xbc2b47a4	-0.010454092
39	0xbca36a0c	-0.019948028
40	0xbb2678cf	-0.0025401597
41	0xbce07e09	-0.027403848
42	0xbcd5c0bd	-0.026092881
43	0x3c8bf8d4	0.017086424
44	0xbd0bd042	-0.034134157
45	0x3d1c9f6d	0.038237978
46	0x3c30f6c6	0.010801023
47	0xbc2985c6	-0.0103468355
48	0x3ca92d6a	0.020651538
49	0x3c39a835	0.011331608
50	0x3ca23498	0.01980047
51	0xba2cc487	-0.0006590564
52	0xbc7b2ed7	-0.015330992
53	0xbc880bc6	-0.016607177
54	0x3d04986e	0.03237193
55	0x390f9098	0.00013691408
56	0x3cce5d98	0.025191113
57	0x3d31f5ca	0.043447293
58	0x3ccec4bf	0.0252403
59	0x3d7e0269	0.062014017
60	0xb5f6e6e7	-1.839563e-06
61	0x3d04a41a	0.032383062
62	0x3d25657b	0.040379982
63	0xbc8debaa	-0.017324287
64	0xbc38a147	-0.01126892
65	0x3cc0830f	0.023499994
66	0x3b579e7f	0.0032900868
67	0x3c8a5ed9	0.01689093
68	0xbca89ea1	-0.020583453
69	0xbbdee393	-0.0068020313
70	0x39fc9ec9	0.0004818349
71	0xbb2fcfcd	-0.002682674
72	0xbc13038c	-0.008973014
73	0xbcb55ea6	-0.022139858
74	0x3cc7595a	0.024334598
75	0x3c7f5c72	0.0155860055
76	0xbcae0f21	-0.021247448
77	0xbc84b7f4	-0.016200997
78	0xbd0f8248	-0.035036355
79	0xbd11e735	-0.035620887
80	0xbcc9b96a	-0.024624545
81	0x3d1489ca	0.03626422
82	0x3ba532b0	0.005041443
83	0x3b6ca06b	0.0036106359
84	0x3c89831d	0.016786152
85	0xbb79ff09	-0.0038146398
86	0x3ca94b75	0.020665864
87	0xbc4a6d34	-0.012355138
88	0xbbda27a0	-0.0066575557
89	0x3bc687df	0.0060586776
90	0xbc8e71f5	-0.017388323
91	0xbbee7235	-0.007276798
92	0x3b15094a	0.0022741132
93	0xbb9e6ff9	-0.0048351255
94	0xbbbccfc2	-0.0057620713
95	0x3cc422f6	0.023942452
96	0x3b46c943	0.0030332364
97	0x3c6dacce	0.014506532
98	0x3b8d4fac	0.004312476
99	0xbbffc0ca	-0.0078049647
100	0x3bae3294	0.005316088
101	0x39dcc552	0.00042108685
102	0xbb690c42	-0.0035560285
103	0xbd0ec285	-0.034853477
104	0xbc92e022	-0.01792914
105	0x3b82df35	0.0039938935
106	0x3aa25d67	0.0012387455
107	0x3b55d11b	0.0032625857
108	0x3c758420	0.014985114
109	0x3c3f00bc	0.01165789
110	0x3cc56735	0.024097065
111	0xba069adf	-0.0005134772
112	0x3ce5240f	0.027971296
113	0x3d6f39c6	0.058404706
114	0x3c01dec4	0.007926647
115	0x3c89e8f6	0.016834717
116	0x3cb6ed04	0.022329815
117	0xbb6d6c8c	-0.003622803
118	0x3caf4c0b	0.021398565
119	0xbbeef1f1	-0.0072920253
120	0x3cc8ff80	0.024535894
121	0xbbbe3055	-0.0058041015
122	0x3c9bab6c	0.019002639
123	0xbcb6f544	-0.022333749
124	0xbce20066	-0.02758808
125	0xbca41725	-0.020030567
126	0xbc5f64e1	-0.013634891
127	0x3ba00b02	0.0048841247
128	0xbd0934c9	-0.033497605
129	0xbbc25dbd	-0.0059315846
130	0x3c416669	0.011804202
131	0x3bbd1647	0.005770478
132	0x3ba70e38	0.0050981306
133	0xbb01d953	-0.0019813373
134	0x3ca7dc44	0.020490773
135	0x3c98462a	0.018588144
136	0x3bf8a011	0.007587441
137	0x3b5209ea	0.0032049366
138	0xbc60c49f	-0.013718753
139	0x3cc918ea	0.024548013
140	0x3c754da0	0.0149721205
141	0xbbed3937	-0.0072394866
142	0x3c0d8057	0.008636556
143	0x3c889dc9	0.0166768
144	0x3c944552	0.01809946
145	0x39fa4ea6	0.00047742313
146	0x3cd10448	0.025514737
147	0x3ba3e6c2	0.0050018737
148	0x3ca65cd2	0.020307932
149	0x39a92d82	0.00032268098
150	0xbc3542fc	-0.011063334
151	0x3cb51d8d	0.022108817
152	0xbc0682e4	-0.008209918
153	0xbcb1db35	-0.021710971
154	0xbc1fea86	-0.009760505
155	0xbbe52347	-0.006992731
156	0x3cac81fe	0.021058079
157	0xbc384641	-0.011247219
158	0xbc3e6f2e	-0.011623187
159	0xbb84ea4e	-0.0040562516
160	0xbc3e359c	-0.011609461
161	0x3cec852f	0.0288721
162	0x3c9b900b	0.018989583
163	0xb7cceefc	-2.442998e-05
164	0x3c8522c2	0.016251925
165	0x3c5e505b	0.013568963
166	0x3bc1faf2	0.0059198076
167	0x3b94dd88	0.00454301
168	0xbc915263	-0.01773948
169	0x3c24f0d4	0.0100671835
170	0xbc216c1a	-0.009852434
171	0xbbc644e9	-0.006050695
172	0x3b5673e0	0.0032722875
173	0x3d14e615	0.036352236
174	0x3aa61d9d	0.001267362
175	0x3c91fb2a	0.01781996
176	0xbc9f6d5d	-0.019461328
177	0x3bf141ed	0.0073625953
178	0x3c206b63	0.009791228
179	0xbb438e2b	-0.0029839377
180	0x3c362ef1	0.01111959
181	0xb994663a	-0.00028304924
182	0xbc2b042f	-0.010438009
183	0x3c46a84d	0.012125087
184	0x3b98061b	0.0046393997
185	0x3bcb1302	0.0061973343
186	0xbc8ab638	-0.016932592
187	0x3c79fcdc	0.01525804
188	0xbb5fb7f6	-0.003413675
189	0x3b6a837e	0.0035783942
190	0xbc45881c	-0.012056377
191	0x3c831538	0.016001329
192	0x3bed9d7a	0.0072514387
193	0xbcc28314	-0.023744144
194	0x3cb2a573	0.021807408
195	0x3af61071	0.001877321
196	0xbc688df8	-0.014194004
197	0xb9342f04	-0.00017183652
198	0xbcf24227	-0.02957256
199	0x3cd83336	0.026391607
200	0xbcbd2520	-0.023088992
201	0xbc11592b	-0.008871357
202	0xbbc2953a	-0.0059381993
203	0x3cc072e7	0.02349229
204	0xbc83f463	-0.016107744
205	0xbc19a678	-0.009378068
206	0xbbd4a664	-0.006489562
207	0xbd498427	-0.049198296
208	0xbc932ed3	-0.017966663
209	0xbc611451	-0.013737754
210	0x3c89ab9d	0.016805464
211	0x3c91c6f4	0.017795064
212	0xbc97319e	-0.018456277
213	0x3cdc392f	0.026882736
214	0xbcb53e3f	-0.022124408
215	0x3bcabe65	0.0061872476
216	0xbbfb730b	-0.0076736263
217	0xbadac795	-0.001669156
218	0xbd1bc07d	-0.038025368
219	0x3d200097	0.039063063
220	0x3cf66294	0.030076303
221	0x3c64ffb8	0.013976984
222	0x3d1ad1b2	0.037797637
223	0x3cb84611	0.022494348
224	0x3d0f1956	0.03493627
225	0x3caa9b54	0.02082602
226	0x3b29bdd0	0.002590049
227	0xbc016620	-0.007897884
228	0xbbd83d49	-0.0065991026
229	0xbbeb1309	-0.0071739
230	0xbd1fbd02	-0.03899861
231	0xbc9857f5	-0.018596629
232	0xbc9f4568	-0.019442275
233	0xbd059d80	-0.032620907
234	0xbcb8325c	-0.02248495
235	0x3c771b35	0.01508217
236	0x3c85ff38	0.01635705
237	0xbc97098d	-0.018437171
238	0xbc7e5684	-0.015523557
239	0xbb54b6c6	-0.0032457574
240	0xbccdd1a0	-0.025124371
241	0x3c77c998	0.015123747
242	0xbcf5b8bd	-0.029995317
243	0xbcc39a5b	-0.023877313
244	0xbc6f7d28	-0.014617242
245	0xbc31a869	-0.010843375
246	0x3cdf530c	0.02726128
247	0x3c3e7f21	0.01162699
248	0x3cd10735	0.025516132
249	0x3b90690a	0.004407053
250	0x3c0a0597	0.008424184
251	0xbd03d338	-0.032183856
252	0x3c665d7d	0.014060375
253	0xbc398e56	-0.011325439
254	0x3c79b95e	0.015241949
255	0x3c738c15	0.014864941

conv1.bias f4 [32]
0	0x3c0047fe	0.007829664
1	0xbbcf3534	-0.006323481
2	0x3c530ac6	0.012880987
3	0x3c1e9d4b	0.009681056
4	0xbc9b7712	-0.018977676
5	0x3b594fdc	0.0033159172
6	0xbbbf2d27	-0.00583424
7	0xbcd002d5	-0.025391975
8	0xbc93b656	-0.01803128
9	0xbbc20569	-0.005921055
10	0x3cb3f597	0.021967692
11	0x3c19204b	0.009346078
12	0x3bfe186e	0.007754377
13	0xbc9fb13f	-0.019493697
14	0x3c3cdb46	0.011526888
15	0xb8c78f86	-9.515793e-05
16	0x3a8ac12a	0.0010586132
17	0xbbffd1b7	-0.0078069824
18	0x3c8a1792	0.016856942
19	0x3c471c12	0.012152689
20	0x3c1beea6	0.009517347
21	0x3c8f2471	0.017473431
22	0xbc0b80c2	-0.008514585
23	0xbc8f23f1	-0.017473193
24	0xbc2bbd59	-0.010482156
25	0xbc04d6dc	-0.008107867
26	0x3bfc6c5b	0.0077033467
27	0x3c4d824a	0.01254327
28	0xbc1f75ef	-0.009732707
29	0xbc8f2e24	-0.017478056
30	0xbc840c41	-0.016119124
31	0x3c946fe5	0.018119762

conv2.weight f4 [64, 32, 3, 3]
0	0x3cfccf0b	0.030860445
1	0xbbfbc48c	-0.0076833423
2	0x3d912efc	0.0708904
3	0x3cb6959b	0.022288134
4	0x3b856dd3	0.00407193
5	0x3d7ef370	0.06224388
6	0x3ddf3d87	0.10900407
7	0x3d83b423	0.06430843
8	0x3d84cb75	0.06484119
9	0xbd88dd57	-0.06682842
10	0xbdc4be22	-0.096065775
11	0xbd76e7aa	-0.060279526
12	0xbd85976e	-0.065230235
13	0xbd7e6142	-0.06210447
14	0xbda7a558	-0.08185834
15	0xbda1440f	-0.07874309
16	0xbde6a900	-0.11262703
17	0xbdc4b47c	-0.09604737
18	0xbdac1509	-0.0840245
19	0xbcf58ae7	-0.02997346
20	0x3c6fa577	0.014626852
21	0xbdaef9ed	-0.08543763
22	0xbba33438	-0.00498059
23	0x3b21f4c3	0.002471254
24	0xbdad7e78	-0.084713876
25	0xbd012c11	-0.031536166
26	0xbd07d131	-0.033158485
27	0x3dbaecf1	0.09127224
28	0x3dab7bf6	0.08373253
29	0x3d511e55	0.051054318
30	0x3d7b5c98	0.0613676
31	0x3cbeefc0	0.023307681
32	0x3c9f53ca	0.019449133
33	0x3b96a848	0.0045976974
34	0x3d8c8749	0.06861741
35	0x3d1cafa9	0.03825346
36	0x3d976631	0.07392538
37	0x3d4cd124	0.05000414
38	0x3de25977	0.1105222
39	0x3d3bca2f	0.045847114
40	0x3cd5d534	0.02610264
41	0x3cc13813	0.023586309
42	0x3d8090d5	0.062776245
43	0x3dcddf62	0.100523725
44	0x3db94d4b	0.090479456
45	0xbd913340	-0.07089853
46	0xbd5a138e	-0.053241305
47	0x3c503fcb	0.012710522
48	0xbda5136f	-0.08060347
49	0x3c25784c	0.010099482
50	0xbd97b3ca	-0.07407339
51	0x3b44e687	0.0030044632
52	0xbd641724	-0.05568613
53	0xbd9c5a6c	-0.07634434
54	0xbd2d4180	-0.042298794
55	0xbd2eb3ed	-0.04265206
56	0xbc9ad665	-0.01890106
57	0xbcd75cc5	-0.026289353
58	0xbdb8b95f	-0.09019732
59	0xbcb4f825	-0.02209098
60	0xbd369b95	-0.04458197
61	0xbcf3f267	-0.029778672
62	0xbd9bcc61	-0.076073416
63	0x3d74ea6a	0.059793867
64	0x3dad5776	0.084639475
65	0x3d4e8c85	0.05042698
66	0x3d1ed265	0.038774867
67	0x3db86063	0.09002759
68	0xbc1c5366	-0.009541368
69	0x3c3d0f29	0.011539259
70	0x3d1ef139	0.038804267
71	0x3d9d8d33	0.07692947
72	0x3d267186	0.040635608
73	0x3d408961	0.047006015
74	0x3ce9fcc9	0.02856292
75	0x3d22f26a	0.039781965
76	0xbbbed2b1	-0.005823456
77	0x3d7fbed5	0.06243785
78	0x3d5e5602	0.054281242
79	0x3d5e8e39	0.054334853
80	0x3d6de2b3	0.058077525
81	0x3da6ca68	0.08144075
82	0xbc06ba5b	-0.008223142
83	0x3daff7fb	0.085922204
84	0x3d61e555	0.05515035
85	0x3d214459	0.039371822
86	0x3da51504	0.08060649
87	0x3d9f2dfa	0.07772441
88	0x3dadc67e	0.08485125
89	0x3dcea3b3	0.10089817
90	0xbc0f9ad5	-0.008764942
91	0xbb1bf0a7	-0.0023794563
92	0xbc8a40f0	-0.016876668
93	0xbcaaefda	-0.020866323
94	0x3d1351eb	0.035966795
95	0xbd0d263f	-0.034460302
96	0xbccdb047	-0.02510847
97	0x3ce17730	0.027522653
98	0x3c9b4f63	0.018958753
99	0x3d874c90	0.066064
100	0x3d963bbd	0.07335613
101	0xbb78ae43	-0.0037945665
102	0x3d9ee959	0.07759351
103	0xbbc13b71	-0.0058969785
104	0x3d30579e	0.04305231
105	0x3da2650d	0.0792943
106	0x3b7d792e	0.0038676965
107	0x3c78769e	0.015164999
108	0x3ca21354	0.019784607
109	0x3cd29f0d	0.025710607
110	0xba3baa05	-0.0007158819
111	0x3d34e702	0.04416562
112	0x3d46d287	0.04854062
113	0xbbc501f6	-0.0060121967
114	0x3d9ad853	0.07560792
115	0x3d23bec9	0.03997687
116	0x3b30899c	0.002693749
117	0x3d899598	0.06717986
118	0xbc5459de	-0.012960879
119	0xbb797d03	-0.0038068898
120	0x3c1b3a35	0.009474327
121	0x3da4c27d	0.08044908
122	0x3d62530f	0.055254992
123	0xbc239888	-0.009985097
124	0x3da94adb	0.08266231
125	0x3d7ce368	0.06174031
126	0xbca8e238	-0.020615682
127	0xbd03aa6e	-0.032144956
128	0xbd48e78e	-0.049048953
129	0xbda70b0a	-0.081564024
130	0xbd37d8d2	-0.04488451
131	0xbd8a2b18	-0.06746501
132	0xbd6cf201	-0.05784798
133	0xbd4173b6	-0.04722949
134	0xbc8b8cce	-0.017034914
135	0xbc4b0991	-0.0123924175
136	0xbd04c1fe	-0.032411568
137	0x3bffd8a3	0.0078078075
138	0xba9abd2b	-0.0011805644
139	0x3caca69c	0.02107554
140	0x3ccf6136	0.025314908
141	0xbd54ff4d	-0.052001286
142	0xbd00d94f	-0.03145724
143	0xbcab6828	-0.020923689
144	0xbd1ba2bc	-0.037996992
145	0xbcd0dbfc	-0.025495522
146	0xbc55e333	-0.013054657
147	0xbdcb1ee2	-0.09918
148	0xbc9e3a14	-0.019314803
149	0xbb80785d	-0.0039205984
150	0x3c791bf9	0.015204423
151	0xbdda4a75	-0.10658733
152	0xbbf2be6d	-0.0074079544
153	0xbc63d5ba	-0.013905937
154	0xbd68b0ba	-0.056809165
155	0xbd2f576a	-0.042807974
156	0xbd823062	-0.063568845
157	0xbd52e966	-0.051492117
158	0xbc90c057	-0.01766984
159	0xbb8dc6b5	-0.0043266662
160	0xbcab9869	-0.020946698
161	0xbd333ffb	-0.04376219
162	0xbb9dd193	-0.004816243
163	0xbdc5fa66	-0.096669
164	0xbd6d7c28	-0.057979733
165	0xbca447fa	-0.020053852
166	0x3bab07ca	0.0052194344
167	0xbd9a0104	-0.07519725
168	0xbd86d601	-0.06583787
169	0x3c234058	0.009964071
170	0xbd565ac7	-0.052332666
171	0x3cf1ab87	0.029500736
172	0xbcbe3636	-0.02321921
173	0xbc917d5e	-0.017759975
174	0x3d7ea49a	0.062168695
175	0x3b9ec8c7	0.004845712
176	0x3d51413c	0.051087603
177	0x3d2fec7a	0.04295013
178	0xbbf9a5fe	-0.0076186648
179	0x3d6033c3	0.054736864
180	0x3e002d68	0.12517321
181	0x3e115a85	0.14194687
182	0x3e10f217	0.1415485
183	0x3df18979	0.11793799
184	0x3db33425	0.0875018
185	0x3e07648a	0.13221946
186	0x3e2f9a23	0.17148642
187	0x3db39793	0.08769145
188	0x3ddcc073	0.10778894
189	0x3cb4f1c5	0.022087941
190	0x3d254f7f	0.040359017
191	0xbad26eec	-0.0016054786
192	0x3bc2045d	0.0059209303
193	0x3d4ae9cf	0.049539384
194	0xbd02bc0b	-0.031917613
195	0xbc327824	-0.010892902
196	0xbbf85b97	-0.0075792777
197	0x3d24bab1	0.040217105
198	0x3c130b6f	0.008974894
199	0x3d9893af	0.074500434
200	0x3d7c6405	0.061618824
201	0x3ddad666	0.106854245
202	0x3c990cb0	0.018682808
203	0x3da2689d	0.0793011
204	0x3dad8b39	0.0847382
205	0x3d12dca2	0.035854943
206	0x3d964ce9	0.07338888
207	0x3cad8e35	0.021185974
208	0x3c533184	0.012890223
209	0x3d905d25	0.07049016
210	0x3b36a1b9	0.002786739
211	0x3d7e1df2	0.062040277
212	0x3d247750	0.040152848
213	0xbac50f5e	-0.0015034487
214	0x3bbd21a1	0.005771831
215	0x3d51ccdb	0.051220756
216	0xbceddd37	-0.029036148
217	0xbd829c58	-0.063774765
218	0xbde77c09	-0.11302955
219	0xbd96b664	-0.07359007
220	0xbccece95	-0.02524499
221	0xbde83261	-0.11337734
222	0xbdbf2789	-0.093337126
223	0xbdd469af	-0.1037172
224	0xbd06f8b3	-0.03295202
225	0x3d11e6da	0.035620548
226	0x3d1e0a0e	0.038583808
227	0x3df0bc64	0.11754683
228	0x3db75627	0.08951979
229	0x3cb89737	0.022533042
230	0x3cfeedec	0.03111931
231	0x3dab4839	0.08363385
232	0x3d6a438c	0.057193324
233	0x3e027d08	0.12743008
234	0xbc1fdc0a	-0.009757051
235	0xbc39e80f	-0.011346831
236	0x3c5ab6f3	0.013349283
237	0x3bd5ca61	0.0065243696
238	0xbd06e406	-0.032932304
239	0xbcbb4b04	-0.022862919
240	0xbd6c0154	-0.057618454
241	0xbd912b33	-0.07088318
242	0xba390f52	-0.0007059473
243	0x3d7fd5b2	0.062459655
244	0xbc7452b6	-0.014912298
245	0xbd01a168	-0.03164807
246	0x3d4824af	0.04886311
247	0x3c94bb7c	0.018155806
248	0xbc35f27a	-0.011105174
249	0x3d2fb7e3	0.042899977
250	0x3c57ee11	0.013179318
251	0x3c548012	0.0129699875
252	0x3d8a74bd	0.06760547
253	0x3d48a316	0.048983656
254	0x3d3daa45	0.04630496
255	0xbccb7b8b	-0.024839183

conv2.bias f4 [64]
0	0x3ce03ae3	0.02737183
1	0xbc5bfc59	-0.013426864
2	0xbc502495	-0.012704034
3	0xbd1223fb	-0.035678845
4	0x3d24f6e3	0.040274512
5	0xbd2f4856	-0.042793594
6	0x3d730bbc	0.059337363
7	0xbd48d45f	-0.049030658
8	0xbc6a265e	-0.014291374
9	0x3ca18600	0.019717216
10	0x3ce16c59	0.027517485
11	0xbd178694	-0.036993578
12	0xbcc43851	-0.023952635
13	0xbcf3f789	-0.02978112
14	0xbc4f0874	-0.012636293
15	0x3d4f6ed0	0.05064279
16	0xbd5b5d0d	-0.053555537
17	0x3c087da7	0.008330739
18	0xbcece588	-0.028918043
19	0xbd1ae4ce	-0.03781586
20	0x3c886b78	0.016652808
21	0xbd5a1735	-0.05324479
22	0xbce109f8	-0.027470574
23	0x3c964875	0.018345097
24	0x3bf5a242	0.0074961493
25	0x3d3c5e62	0.045988448
26	0x3c887fa8	0.016662434
27	0x3d0eb74b	0.03484277
28	0xbd3f0928	-0.04663959
29	0xbcd59cf6	-0.026075821
30	0xbc8f4625	-0.017489502
31	0xbbe71d0a	-0.0070530223
32	0xbd3621d5	-0.04446586
33	0xbd0a2617	-0.03372773
34	0x3d52d366	0.051471137
35	0x3cc63515	0.024195233
36	0x3b0f90a8	0.002190629
37	0xbcecac17	-0.028890653
38	0x3bbcdaf5	0.0057634064
39	0x3d06dbe5	0.03292455
40	0x3d3029f7	0.04300877
41	0xbd16836a	-0.03674642
42	0xbd61d1fc	-0.055131897
43	0x3d181715	0.037131388
44	0xbd0b7db6	-0.034055434
45	0x3d213274	0.039354756
46	0x3c7cc23c	0.015427168
47	0xbb5166b0	-0.0031952076
48	0xbd3385f5	-0.043828923
49	0x3d48a1df	0.048982497
50	0xbc72317e	-0.014782308
51	0x3d2c7163	0.04210032
52	0x3d43b302	0.047778137
53	0x3d079331	0.033099357
54	0x3d4f3e1c	0.05059634
55	0x3d12de75	0.035856683
56	0xbd0e4181	-0.03473044
57	0xbd473a95	-0.048639853
58	0x3d00d16f	0.03144973
59	0x3cae7a99	0.021298693
60	0xbd2cd89a	-0.042198755
61	0xbcfaa62c	-0.030596815
62	0xbcd5658d	-0.0260494
63	0x3be4d3ff	0.0069832797

linear.weight f4 [1, 64]
0	0x3e5f47d6	0.21804747
1	0xbdec6de0	-0.115443945
2	0xbe0b6d74	-0.13615972
3	0x3e569513	0.20955305
4	0xbe290ad3	-0.16508035
5	0x3e4e2f5d	0.20135255
6	0xbe35939d	-0.17732091
7	0x3e3308b5	0.1748379
8	0x3e6ee221	0.23328449
9	0x3e7635b0	0.24043918
10	0x3e4a1cf7	0.19737612
11	0x3e41c50d	0.18922825
12	0x3e801fcd	0.25024262
13	0x3e613471	0.21992661
14	0xbdcb7c23	-0.099357866
15	0x3e82f681	0.25578693
16	0x3e8686ea	0.26274806
17	0xbe4d667b	-0.20058624
18	0x3e548139	0.2075242
19	0x3e83aedb	0.25719342
20	0x3e7adcb7	0.24498259
21	0x3e7f400f	0.2492678
22	0x3e3fd34c	0.18732947
23	0x3e797b4f	0.24363445
24	0x3e194c94	0.14970618
25	0xbdc8d51a	-0.09806271
26	0x3e519e89	0.20470633
27	0x3e5a2c50	0.21305966
28	0xbe331be5	-0.1749111
29	0x3e241d82	0.16026881
30	0x3e3e40c2	0.1857939
31	0xbe00ca48	-0.12577164
32	0x3e0b660b	0.13613145
33	0x3e54314a	0.20721927
34	0xbe33436b	-0.17506187
35	0xbe3870b0	-0.18011737
36	0xbe2f0772	-0.17092684
37	0xbe0e6404	-0.1390534
38	0xbe17283c	-0.14761442
39	0xbe683c0c	-0.22679156
40	0xbe0528c4	-0.13003832
41	0xbdc7f2ec	-0.097631305
42	0x3e385f33	0.18005066
43	0x3e863cb5	0.2621819
44	0xbe5de41e	-0.21669051
45	0xbde3db82	-0.11125852
46	0xbe3850f1	-0.17999627
47	0xbe0955eb	-0.13411681
48	0xbe34ddd5	-0.17662747
49	0x3e22546a	0.15852514
50	0x3e42f5ea	0.19039121
51	0x3e1cd22e	0.15314552
52	0xbe277e42	-0.16356757
53	0x3e34af79	0.17645063
54	0xbe032cda	-0.12810078
55	0xbe2ed01f	-0.1707158
56	0xbde1b1f7	-0.11020272
57	0xbe49ea4e	-0.19718286
58	0x3e20ccf2	0.1570318
59	0x3e5bc5fa	0.21462241
60	0x3e3b523e	0.18293092
61	0xbe35ac43	-0.17741494
62	0x3e418db4	0.18901712
63	0xbe23b12a	-0.15985551
