concepts_sequential/saved_probes/trappedPiece_layer_10_probe.pth (torch, 372944 bytes, 5 tensors)

conv1.weight f4 [32, 256, 3, 3]
000000 bd ee a9 3c f4 78 0f 3a 39 00 8a 3c e5 06 83 bc
       0.020743722 0.00054730405 0.01684581 -0.015994499
000010 de 85 59 bd 13 c6 23 bd 99 cf e6 bc b5 90 2b bd
       -0.05310618 -0.03998382 -0.028175162 -0.04188605
000020 76 4f 52 bd 49 81 9b 3c 9d 97 66 bc d1 33 f6 3a
       -0.05134531 0.018982546 -0.014074233 0.0018783753
000030 0c 53 b1 3c 45 f8 33 bc 60 2b 8a 3b 5e 74 8c bc
       0.021646045 -0.010984485 0.0042165965 -0.017145332
000040 87 7d 34 3b ce 14 b3 3b a6 46 6b 3a f9 3f 61 bb
       0.002754064 0.0054651266 0.0008975066 -0.0034370406
000050 ac c0 b8 bb e0 f3 be bb 15 89 56 bc 4f fb 16 3c
       -0.0056382027 -0.005827412 -0.013094206 0.00921519
000060 7e 90 25 3c ca f8 aa bc 8b 83 18 3c f9 5d 8b bc
       0.01010525 -0.020870585 0.009308706 -0.017012583
000070 55 a6 e3 bb 76 cb 37 bc 89 d7 c4 3c 19 58 84 3c
       -0.0069473186 -0.011217942 0.024028556 0.01615529
000080 10 d5 25 3c cd 33 b5 bc dc 98 69 bc ad 4c 99 3a
       0.010121599 -0.022119427 -0.014257636 0.0011695825
000090 e5 80 7e 3b 7e 77 f5 3b 4b 9e a8 3c c4 14 9d ba
       0.0038834151 0.007491051 0.020583292 -0.0011984338
0000a0 9e 3b cb 3c 57 31 61 3c 58 a3 97 3a 2d 42 d0 39
       0.024808701 0.013744674 0.0011569066 0.00039722156
0000b0 41 2c ac 3c aa 4f 4c 3c d1 fe 81 3c 01 60 a9 bc
       0.021017196 0.012470165 0.015868576 -0.020675661
0000c0 27 65 0d 3d 80 5c bf bb 2e 96 72 bb 29 9e 08 3d
       0.034520295 -0.0058398843 -0.0037015784 0.03335396
0000d0 75 02 8f 3c c7 4a 91 3c 51 c9 b4 3b 7d bf 71 3c
       0.017457226 0.017735852 0.005517163 0.014755127
0000e0 ba 11 81 bc 50 fb 9a 3b 73 38 9e 3b 62 95 3e bc
       -0.015755523 0.004729666 0.0048285066 -0.011632295
0000f0 85 21 9b 3b 71 88 21 bc 6e 6c 33 bd 5c d4 ba bc
       0.0047342204 -0.00985919 -0.04380458 -0.022806339
000100 76 10 bc 3a 8e 91 94 bb c3 ac 82 3c c5 f4 81 3c
       0.0014348167 -0.004533953 0.01595152 0.015863786
000110 ee 95 7c bb 25 9c e4 bc 07 d6 16 3c 50 f3 17 bc
       -0.0038541513 -0.027906487 0.0092063015 -0.009274319
000120 ca b7 9d bc bf 7f 23 3c 1a 6d 3d 3c 4d 40 7e bc
       -0.019252677 0.0099791875 0.011561656 -0.01551826
000130 59 2c 87 bb 31 a8 5d bc 08 a5 e4 3b 35 98 39 3c
       -0.0041251597 -0.0135288695 0.006977681 0.011327793
000140 89 01 a1 bc c7 be 84 3c 0c 5d 10 3c 30 73 09 ba
       -0.019654052 0.016204251 0.008811247 -0.00052432995
000150 77 51 ce 3c 5b e3 54 3a 85 f5 a6 bc 2d 29 32 bb
       0.02518533 0.0008121037 -0.020380745 -0.0027185187
000160 ce ee 63 bc 10 75 00 bc 09 c6 e3 38 73 27 04 bd
       -0.013911916 -0.00784041 0.000108610904 -0.032264184
000170 95 4f cf 3b b0 7a a3 3b 9b 3c f5 bb 39 5e 81 bc
       0.0063266256 0.0049889907 -0.0074840314 -0.015792
000180 a7 93 28 bc 41 63 c4 bc ee 68 2f bc 1f a5 0d bc
       -0.010289109 -0.02397311 -0.0107061695 -0.008645325
000190 5a c1 b5 bb 94 2b bc 3c 13 68 20 3a f2 2c 7a 3c
       -0.005546731 0.022969998 0.0006119024 0.015269505
0001a0 23 e4 0f bd 46 25 b3 3a c1 50 8f bc ea db 99 bc
       -0.035129678 0.0013667725 -0.017494561 -0.018781621
0001b0 92 50 8f bb b0 d8 8e bb bd 7f 75 3c 44 a8 31 3d
       -0.0043736184 -0.0043593273 0.014984068 0.04337336
0001c0 cb 1d c9 bb 02 db 19 bc d4 0b 42 bc d3 e6 96 bc
       -0.006137585 -0.009390594 -0.01184364 -0.018420612
0001d0 05 35 95 bc dc e0 32 3d 54 03 fa bc e4 fe 2f bc
       -0.018213758 0.043671474 -0.030519165 -0.010741923
0001e0 dc 4b c7 3c 9e e0 2c bd dd 19 8f 3c ad 06 ef bc
       0.024328165 -0.0422064 0.017468387 -0.029177988
0001f0 36 6b 56 bd d1 90 a1 bc 5e d4 70 bb b9 17 9b 3a
       -0.052348338 -0.019722374 -0.0036747674 0.0011832631
000200 43 d8 8f bb bb 65 bb bc 99 a8 a4 bc 5f 22 57 bc
       -0.004389794 -0.022875657 -0.020099925 -0.013130753
000210 12 6a 4c ba ef 2e 2d 3c f0 44 c8 bb f9 40 46 bc
       -0.0007797788 0.010570272 -0.0061117336 -0.012100452
000220 74 b4 46 3b de 75 2e 3c 00 19 a8 3c 35 a9 81 bc
       0.003031996 0.010648219 0.020519733 -0.015827755
000230 02 90 c2 3a 1c cb 20 3c 94 c4 52 bc ee 3c f1 ba
       0.0014843943 0.00981405 -0.012864251 -0.0018404999
000240 66 13 d4 ba b5 29 d3 3b 0b 76 d9 b9 42 85 40 bc
       -0.0016180098 0.006444181 -0.00041477414 -0.011750521
000250 e2 b0 c0 b9 96 57 b6 3b 7a 34 46 bc b5 c7 a7 bc
       -0.00036752882 0.0055646403 -0.012097472 -0.02048097
000260 f7 31 0a 3c f0 98 c6 3b 5b 13 ff 3b 29 ae a3 3b
       0.008434764 0.006060712 0.00778429 0.0049951267
000270 89 d5 02 3c 3a 76 cd bb 30 c5 65 3c 5d 8f 0d bc
       0.007985481 -0.006270197 0.014024064 -0.0086401375
000280 1d ce 72 bc e9 1c 99 bc 0e 0b 81 bc 2f fe e2 ba
       -0.014819649 -0.018690543 -0.015752342 -0.0017318184
000290 28 f5 9e bc 71 f3 6d bc 99 6e 7b 3b 8d 53 eb bb
       -0.019404009 -0.014523373 0.0038365482 -0.007181591
0002a0 18 14 fa 3b 46 5d 0f bc 1e 1e e9 3b 63 af 21 3d
       0.00763179 -0.008750265 0.007114186 0.039473902
0002b0 a6 4b fa 3b 4e 6e d4 3c 4d c0 b9 3b c5 23 d1 3c
       0.0076384125 0.025931504 0.005668676 0.025529752
0002c0 8f f8 65 3c 51 66 2e 3d 57 d3 4e bc ed 0b 8a 3c
       0.014036312 0.042578045 -0.0126236295 0.01685139
0002d0 fe 23 23 bb 1b 09 9f bc a3 8d 0e 3c ec 50 97 bc
       -0.002489328 -0.019413522 0.008700761 -0.018471204
0002e0 51 d8 f1 bb a9 1b e1 bc 80 e8 c8 bc 55 f0 dd bb
       -0.0073805233 -0.02747901 -0.024524927 -0.0067730346
0002f0 91 1d 05 bd 66 e3 44 bc c1 09 63 3c db ce 1d 3c
       -0.0324989 -0.012017107 0.013857306 0.009631838
000300 c7 c7 c5 3b ca 16 8b bc 11 f8 05 bd e9 cb 77 bc
       0.006035778 -0.01697864 -0.032707278 -0.0151243
000310 d0 14 9a bc a6 21 03 3b 5a 0e 2d 3a cb 90 92 bc
       -0.018808752 0.002000907 0.0006601565 -0.017891308
000320 b8 77 ba ba dc b4 6d bb f4 c2 99 bc 98 30 00 bc
       -0.0014226353 -0.003627113 -0.018769719 -0.007824086
000330 97 0e dd bc 82 7a 29 bc a4 da a3 bc 9c f0 ea 3b
       -0.026984496 -0.01034415 -0.020001717 0.007169796
000340 1c b2 6e 3c 56 ff 13 3d 8a 9e 35 3d 81 8a 88 3c
       0.014568832 0.03613218 0.044340648 0.016667606
000350 b6 4f 7d 3c d6 0f 0f 3c 5f 95 96 3c af 30 ac 3c
       0.015460899 0.008731803 0.018381773 0.021019308
000360 12 46 e4 3c 3a bf 14 bc d7 e0 44 bc 1b be bd 3c
       0.027865443 -0.009078795 -0.012016497 0.023161938
000370 0b e7 e4 3b 0f a9 2f 3c 7b 36 1a bc bd ff 76 3c
       0.0069855503 0.010721459 -0.009412403 0.015075621
000380 f0 00 80 3b 0f e3 ea 3c c0 1f 00 bc f7 30 27 3b
       0.0039063618 0.028672723 -0.00782007 0.0025511363
000390 79 53 be 3c 78 95 fb bc 87 ed 06 3c 9d fd cb bb
       0.023233162 -0.03071092 0.008235342 -0.0062253014
0003a0 aa 99 c8 bc 69 15 e0 bc fa 31 f5 bb ed b7 a4 3c
       -0.024487335 -0.02735396 -0.0074827643 0.020107234
0003b0 62 f5 87 3c 8b 46 8e ba 17 20 45 3c 15 18 5d 3c
       0.0165965 -0.0010854764 0.012031577 0.013494511
0003c0 b6 39 cb 3c 96 c2 b5 3b 20 75 d7 3c 7f 5b c2 bb
       0.024807792 0.005546878 0.026300967 -0.0059313173
0003d0 d9 29 d1 3c 63 2c 99 3c 4e 1a fe 3c dd 33 b9 b9
       0.02553265 0.018697923 0.031018402 -0.0003532459
0003e0 8e bf 18 3c ca db b4 3c b8 f4 b6 bb aa b4 03 3c
       0.009323014 0.02207746 -0.005583372 0.008038679
0003f0 1e f6 9a bb 38 73 f3 ba 7d 31 8a bc 7c f3 d6 3c
       -0.0047290465 -0.0018573767 -0.016869301 0.02623915

conv1.bias f4 [32]
000000 34 7c 83 b9 f4 18 1b bc ac 6f 70 3b 76 4e 51 3c
       -0.00025078806 -0.0094663985 0.0036687655 0.012775054
000010 3a 09 62 bc e1 e1 24 bc cc 74 c9 3b 24 44 7c 3a
       -0.013796145 -0.010063619 0.0061479565 0.0009623191
000020 a1 e2 f8 bb 29 6b 33 ba cd 31 88 bc 48 05 7b bc
       -0.0075953756 -0.0006844276 -0.01662531 -0.015321083
000030 87 83 85 3c 6e e0 85 3c 47 b9 65 3c f4 d5 bf bb
       0.016298069 0.016342368 0.014021224 -0.0058543626
000040 69 52 33 bc c3 f4 8e 3a 55 8a 00 bb bc 9b 3b 3c
       -0.010944941 0.0010906685 -0.0019613702 0.011450704
000050 e2 e4 35 bb 11 93 6e bc 26 44 16 bc 44 18 59 bc
       -0.0027754833 -0.014561431 -0.009171521 -0.013250414
000060 d2 9f e4 bb 61 ef 6e bc 13 01 7f bc d7 a9 7f 3c
       -0.00697706 -0.01458344 -0.015564221 0.015604458
000070 c0 b2 52 bc ee 1e f6 bb 2e 6c ba bb 10 fc 24 bc
       -0.01286 -0.0075110113 -0.0056891656 -0.010069862

conv2.weight f4 [64, 32, 3, 3]
000000 46 d1 c4 bb 77 22 c0 ba bd 78 8b 3d f4 2e 76 3d
       -0.0060063927 -0.0014658709 0.068101384 0.06010337
000010 db 5b 7e 3d 51 ed 42 3c 64 79 8b 3d fe a8 98 3d
       0.06209932 0.011897401 0.06810263 0.07454108
000020 2a 4c e0 ba 95 b9 e3 3c ac fc 69 3a 9b 68 df bc
       -0.0017112542 0.027798453 0.00089258957 -0.02727156
000030 c2 2f 8a bc 28 bd 7d 3c 54 b2 93 3d 31 d1 8c 3d
       -0.016868476 0.015486993 0.07211748 0.068758376
000040 19 1e 80 3d ce 0d a1 bc 72 83 80 3d 3c 52 0e 3d
       0.06255741 -0.019659903 0.06275071 0.034746394
000050 35 0e 29 3d 33 41 03 3c ec c9 95 3d 05 a5 b0 3d
       0.041273315 0.00801115 0.07313904 0.08625225
000060 3d 11 9a 3d 81 25 cc 3d 01 33 0a 3d e0 1d 4a bd
       0.07522819 0.09968091 0.033740047 -0.049344897
000070 76 65 2a bd be 69 2f bc e7 da 0e 37 88 8c fc 3c
       -0.041600667 -0.010706363 8.514827e-06 0.03082873
000080 96 20 05 bd 76 e5 7e bd 79 4b 89 bd 59 21 9e 3c
       -0.03250178 -0.06223055 -0.067038484 0.01930301
000090 3b f8 ae bb bf 57 24 bd d7 00 20 3d e0 73 7d bc
       -0.00533965 -0.040122744 0.0390633 -0.015469521
0000a0 5d 30 f1 bc 81 32 f8 3c 1e e3 8d 3d 4c c2 01 3d
       -0.029442007 0.03029752 0.06928085 0.031679437
0000b0 82 19 0a 3d c3 37 79 bd d9 2e a6 bd 6b c2 4c bd
       0.033715732 -0.060844194 -0.08114404 -0.0499901
0000c0 d4 ee 61 bd eb bf 14 bd f7 02 6b bd 1a 7a ab bd
       -0.055159405 -0.03631584 -0.057375874 -0.083728984
0000d0 33 94 c4 bd 38 77 9a bd cb 63 2d 3c dd 8d 79 3d
       -0.09598579 -0.075422704 0.0105828745 0.060926307
0000e0 57 ff cf 3d a5 7e 1a 3c 27 6c b5 3d 5d 07 a5 3d
       0.10156124 0.0094296085 0.08858519 0.08058045
0000f0 a4 84 a2 3c 02 be 8e 3d 0e bd 61 3d f7 e3 ea 3d
       0.019838639 0.06969835 0.055111937 0.11469262
000100 75 f6 da 3d 19 8f 95 3d a1 b6 9f 3d 6e 01 33 3d
       0.10691539 0.07302684 0.077985056 0.043702535
000110 a2 e3 18 3d 7c 47 9f 3c 8e b9 b7 3d 24 65 64 3d
       0.037326463 0.019443266 0.089709386 0.055760518
000120 a2 a9 2b b9 77 da fc bc 74 fd 97 3c ba be df bc
       -0.00016371024 -0.03086589 0.018553473 -0.027312625
000130 98 68 46 bd 80 e9 74 bd 48 49 0e bd 2a 14 b9 3b
       -0.048439592 -0.059792995 -0.034737855 0.0056481557
000140 00 a1 21 bc 78 4a b5 bd 9b 33 7c bd 36 b6 1c bb
       -0.009865046 -0.088520944 -0.061572652 -0.0023912317
000150 95 f7 c0 bd d5 c7 49 3c e7 a0 a2 bd ea 1d 92 bc
       -0.094222225 0.01231571 -0.07940846 -0.01783653
000160 7d e9 7d bd 1f c4 af bd fa 4e 9e 3b 6e 7b 6f 3b
       -0.06199025 -0.08582329 0.004831192 0.0036542076
000170 dd e6 e2 3c 18 6a 92 3c 6b f9 5b bd d8 ee 17 3b
       0.027697975 0.017872855 -0.05370466 0.0023183133
000180 25 78 0f bc 50 8a 2c bb 85 75 92 bd 89 c3 8e 3d
       -0.008756672 -0.0026327558 -0.07151321 0.06970889
000190 46 c9 bb 3d 91 ed 4a 3d 70 b0 36 3d 71 53 bf 3d
       0.09169249 0.049542967 0.044601858 0.09342087
0001a0 cb 39 82 bc 7d 94 e5 3b ae 3e 21 3d 90 49 84 3d
       -0.015896698 0.0070062266 0.039366417 0.064593434
0001b0 e4 40 18 3d e3 48 47 3d 6b 34 de 3c 64 e2 fb 3c
       0.03717126 0.048653495 0.027124604 0.0307476
0001c0 44 35 17 bc ec 35 67 3d 57 7c 28 3d ff 96 38 3d
       -0.009229008 0.05644791 0.041134205 0.045065876
0001d0 0f 01 3e 3d b1 4a ae 3c ef 4f 7f bd 27 99 b7 3c
       0.04638773 0.02127585 -0.06233209 0.022411896
0001e0 fe 34 ed bb cc 77 92 bc a7 5e 63 3c 6b 05 21 3c
       -0.007238983 -0.01787939 0.013877547 0.009827952
0001f0 71 d9 84 3c cc c2 be 3c 33 54 68 bc 83 00 09 bc
       0.016216965 0.023286246 -0.014180231 -0.008361938
000200 54 91 16 bd df 4e e0 bc 8c 2c ef 3c e0 06 5e bd
       -0.03675969 -0.027381359 0.029196046 -0.054205775
000210 c1 71 18 bd eb 9c 87 3c a1 2f af bb f5 4d cb 3b
       -0.03721786 0.016554317 -0.005346254 0.0062043616
000220 10 05 8b 3c 2b c5 a4 bd 73 df 3b 3c 84 c6 88 bd
       0.016970187 -0.08045419 0.011466849 -0.06678489
000230 91 85 02 bd 26 83 2a 3b 9e 8e 89 bd be b0 8b bd
       -0.03186566 0.0026018112 -0.06716655 -0.0682082
000240 7a d3 3b bd e8 0d 09 bd cd 28 86 bd 7d fb 5e bc
       -0.045855977 -0.033460528 -0.06550751 -0.013609764
000250 5d 5b b8 ba 6b b4 75 bd 1a 27 79 3c 85 c4 75 bc
       -0.0014065314 -0.059986513 0.015207076 -0.015000467
000260 6c f1 65 bd 89 1d 82 3d 5c 50 74 bc 29 ae 77 3a
       -0.05613844 0.0635329 -0.014911737 0.0009448254
000270 47 55 62 ba 53 6c 9c 3d 7a d2 66 3d fb 38 c5 bc
       -0.0008633923 0.07637849 0.05635307 -0.024075022
000280 99 41 97 3d c6 f6 78 3d 0f 6d d2 3d 14 9e b8 3d
       0.07385559 0.060782216 0.102747075 0.09014526
000290 e0 bc 5e 3d ab 6c 1d 3d 2c 47 8f 3d 19 83 ce 3c
       0.054379344 0.038433712 0.06995997 0.025208997
0002a0 f3 b6 6d 3d ac 58 7f 3d 50 1a 91 3d d3 aa 90 bc
       0.058035802 0.062340423 0.07085097 -0.01765958
0002b0 1a d6 13 bd 46 8b 21 3c 4d 58 80 ba 61 a0 ae 3c
       -0.036092855 0.0098598655 -0.0009791941 0.021316709
0002c0 4c 4a fb 3c 7a 04 5e bd 71 20 ff bc a3 3a 84 bc
       0.030675076 -0.054203488 -0.031143399 -0.016141241
0002d0 f6 e6 8c 3d fe 78 b5 3d 90 c7 ca 3d c1 89 5f bb
       0.0687999 0.08860968 0.09901345 -0.0034109207
0002e0 6f 00 b6 3d 0e 10 cf 3d 9f df ef 3d 18 22 0a 3b
       0.088868015 0.10110484 0.11712574 0.002107745
0002f0 b9 90 c7 3d 17 ca 7b bc 17 28 6b bd 49 2f 6f bd
       0.097444005 -0.015368006 -0.05741128 -0.058394704
000300 a1 42 82 bd 8e 89 3a bd a0 86 fb bc 01 88 32 bc
       -0.06360365 -0.04554134 -0.030703843 -0.010896684
000310 6d c0 aa bc 6b 55 6c bd 27 22 c8 3d bd a1 7a 3b
       -0.020843709 -0.05769865 0.09772139 0.0038243376
000320 f0 62 05 3d 90 86 a4 3d 47 f3 d6 3d 46 ab c0 3a
       0.032565057 0.08033478 0.1049562 0.0014699481
000330 3c 63 05 3d 9e a1 e0 3d 8c b2 9e 3c 27 df 95 bc
       0.03256534 0.10968326 0.019372247 -0.018294884
000340 0a 6f 89 bd b3 2a 9c bd 35 54 3e 3b 90 4b 25 bd
       -0.06710632 -0.07625332 0.002904189 -0.040355265
000350 1b ad f5 bb 6f 77 0a bd 68 7a 92 bd dd ed 43 bc
       -0.0074974424 -0.033805307 -0.071522534 -0.0119585665
000360 c2 07 37 3d 2d a0 8c 3d 2b 19 6f 3d 59 55 bf 3c
       0.044685133 0.068664886 0.05837361 0.023356127
000370 17 de fa ba cd 9b 2a 3d a7 0d 87 3d 86 21 9e bc
       -0.0019139674 0.04165249 0.06594401 -0.019303095
000380 e1 3d 26 3b ec 0b 5b 3c b9 a5 0f 3d 83 fe 02 bc
       0.0025366473 0.013369542 0.035070155 -0.007995251
000390 f9 67 a5 bb 9a 13 33 3d 87 05 17 bd 92 05 c8 bc
       -0.005047795 0.043719865 -0.036870506 -0.024416719
0003a0 1a d6 61 bc e5 e9 13 3d bf e5 34 bc 7e 3f 8b 3d
       -0.013783956 0.03611173 -0.011041104 0.067992195
0003b0 3e 9d 38 3d 72 81 ae 3d d2 1b b7 3b b3 53 82 3d
       0.045071833 0.085207835 0.0055880332 0.063636206
0003c0 71 b2 6a 3d 27 d8 71 3c 54 e0 4b 3d f2 8e 9a 3c
       0.05729908 0.014761007 0.049774483 0.01886699
0003d0 0d 0a 04 b9 f1 7a 54 3d d6 20 52 bb e6 a0 40 3d
       -0.00012592245 0.05187506 -0.0032063029 0.047028445
0003e0 d7 5c 2f 3c 8f db 65 bc 81 4b 67 bc 37 73 9d 3c
       0.010703287 -0.014029398 -0.014117123 0.019219978
0003f0 96 53 30 3b 2d 9d d7 bc d8 ae a2 bd 20 43 fe bc
       0.002690529 -0.026320064 -0.07943505 -0.031037867

conv2.bias f4 [64]
000000 ba 1f 9f 3c 9f ef 31 3c d0 5e 16 3d ef af 02 3d
       0.019424308 0.010860353 0.036711514 0.031906065
000010 1a 90 03 bd 5f 97 f5 ba f2 82 de ba e0 4b ae bc
       -0.032119848 -0.0018737129 -0.0016976281 -0.021276414
000020 42 f7 15 bd d4 d2 d0 39 74 ad 93 bc 54 8e c1 bb
       -0.036612757 0.0003982993 -0.018027045 -0.0059068594
000030 9a dd 8f 3c c7 a9 cf bc 38 43 37 3d 7c 3f ba bb
       0.017561723 -0.02534951 0.04474184 -0.0056838375
000040 ad 11 b5 3b af b8 f1 3b 73 88 b0 bc dd 4c 16 3d
       0.0055257888 0.0073767523 -0.021549439 0.036694396
000050 71 b4 c4 3b a3 71 24 bc b3 37 24 3b 41 fc 90 3c
       0.0060029556 -0.010036859 0.0025057613 0.017698409
000060 41 f2 2b bb b5 77 8a bc b6 2d 85 bc a6 2f 47 3c
       -0.0026236924 -0.016902784 -0.016257148 0.012157356
000070 6a 74 98 bc 8b db e5 3c b6 54 a0 bc 78 fa 45 bd
       -0.018610198 0.028058788 -0.019571643 -0.04833457
000080 76 5f 58 bd d2 0d 6f bc 5d af 0b bd 4f 10 c4 3c
       -0.052825414 -0.014590697 -0.034102786 0.023933558
000090 df 72 01 3d 15 8b 99 bc 59 74 8b bc 42 e1 a9 bc
       0.03160369 -0.018743077 -0.017023252 -0.020737294
0000a0 bd b8 22 3d be be e6 bc 63 75 52 3d 73 e4 1e bd
       0.03972696 -0.028167125 0.05138148 -0.038792085
0000b0 a1 36 0a bc 2f 32 c1 3c 16 f6 00 3d 01 e1 eb bc
       -0.008435876 0.0235835 0.031484686 -0.028793814
0000c0 05 ae d6 bc 35 1a fc bc 3f 80 75 bb 6d 01 46 3d
       -0.026206026 -0.030774215 -0.0037460474 0.048341203
0000d0 c4 5b 66 bd b5 10 a0 3b 77 64 0c bd 02 00 ea bc
       -0.05623986 0.004884804 -0.0342755 -0.028564457
0000e0 45 e2 9f 3c ea 07 40 bd 9c 98 4d bc 94 6d e6 3c
       0.019517073 -0.046882547 -0.012548592 0.028128423
0000f0 6b 32 bc 3c f7 e7 44 3d db 56 ea 3c 9b 83 1d 3d
       0.02297326 0.04807278 0.028605869 0.038455587

linear.weight f4 [1, 64]
000000 29 78 3f be 14 65 0c be 43 25 02 be 2a 78 13 be
       -0.18698181 -0.13710433 -0.12709527 -0.14401308
000010 21 27 34 be 14 ce 1c be fa 64 6e 3e c8 39 2c 3e
       -0.17593051 -0.15312988 0.23280707 0.16818917
000020 06 84 c8 bd 29 a7 2a be ab 25 fd 3d e3 3f 4e 3e
       -0.097908065 -0.16665329 0.123607 0.20141558
000030 d9 21 60 3e 74 a0 47 be b0 0a 5a be 7f a7 66 3e
       0.21887912 -0.19494802 -0.2129314 0.22524832
000040 df 9e 2f be 01 8e 54 3e 79 50 2f 3e 73 97 00 be
       -0.17150448 0.20757295 0.17120542 -0.12557773
000050 8f 59 61 be e1 9f 66 3e 13 38 f4 bd d0 66 55 3e
       -0.2200682 0.22521926 -0.11924758 0.20840001
000060 6e dd 6c 3e 50 73 38 3e f8 59 60 3e 77 ca 36 3e
       0.23131344 0.18012738 0.2190932 0.17850672
000070 c8 a3 47 be fb 98 59 be de 99 51 3e 84 78 47 3e
       -0.19496071 -0.21249764 0.20468852 0.19479567
000080 cf 50 3f be 04 95 33 be 4a 7b 18 be 2a d9 ee 3d
       -0.1868317 -0.17537314 -0.14890781 0.116625145
000090 42 67 4a 3e 40 ef d7 bd d2 0e 16 be 52 97 4a 3e
       0.19765952 -0.1054368 -0.14654091 0.19784287
0000a0 e5 bf 23 be 4c a1 5c 3e 7f f3 31 be 7e e1 27 3e
       -0.1599117 0.21545905 -0.17378043 0.16394612
0000b0 ae 4f 63 3e a8 aa 61 3e ae 3c 23 3e 24 cf 43 3e
       0.22198364 0.22037756 0.15941116 0.19121987
0000c0 58 0e 65 3e 42 68 45 3e 9f 4f fa bd 7e 61 75 3e
       0.22368753 0.19278052 -0.12222218 0.23962972
0000d0 e3 36 80 3e 83 e5 53 be 28 96 3f 3e 12 d2 5e 3e
       0.25041875 -0.2069302 0.18709624 0.21759823
0000e0 1f 48 5a 3e a9 08 79 3e ed d2 48 3e 09 5a 62 3e
       0.21316575 0.2431971 0.19611712 0.22104658
0000f0 04 8f 02 3e 1f 44 04 be 45 42 50 3e 44 a6 35 3e
       0.12749869 -0.12916611 0.2033778 0.17739207
